models/good_maddpg_weights.pt (torch, 759717 bytes, 48 tensors)

fc1.weight f4 [128, 13]
0	0x3ee8919b	0.45423588
1	0x3f314e54	0.69260144
2	0xbee0fc42	-0.43942457
3	0xbef543af	-0.479032
4	0xbd474690	-0.048651278
5	0xbc4f6eef	-0.012660726
6	0xbe01f629	-0.12691559
7	0xbedae980	-0.4275627
8	0xbf2407b4	-0.64074254
9	0xbf36129d	-0.7112215
10	0xbf5060c6	-0.81397665
11	0xbdb2d8ad	-0.08732734
12	0xbd1f564c	-0.03890066
13	0x3f005cf7	0.50141853
14	0x3dd14c50	0.102196336
15	0x3ecb5c04	0.3971864
16	0xbf730a06	-0.9493717
17	0x3b6ff3f2	0.0036613909
18	0xbdb4db77	-0.08830922
19	0xbf90ebf5	-1.1322008
20	0xbf3a8511	-0.72859293
21	0xbee4ecaf	-0.44711825
22	0xbf977623	-1.1832927
23	0xbee8afd4	-0.45446646
24	0x3e541f0f	0.20714973
25	0x3e89523c	0.26820552
26	0xbd92d969	-0.07170374
27	0xbd942e38	-0.07235378
28	0xbfbc4867	-1.4709595
29	0xbfabe529	-1.3429309
30	0x3daa0714	0.08302131
31	0x3e123788	0.14278996
32	0xbfb6f436	-1.4293277
33	0x3e986cfa	0.29770643
34	0xbf29a9a6	-0.6627449
35	0x3e3ce538	0.18446815
36	0xbf0dcd6e	-0.55391586
37	0x3d8a275b	0.06745788
38	0x3e70f9be	0.23532769
39	0xbe756d7c	-0.23967546
40	0x3e02ea9d	0.1278481
41	0xbfc667e4	-1.5500455
42	0xbf3a9375	-0.7288125
43	0xbc01dd3f	-0.007926284
44	0xbcd55f39	-0.026046382
45	0xbf930d69	-1.1488467
46	0x3ebaa914	0.3645712
47	0xbe934e0d	-0.28770486
48	0x3e27e53d	0.16396041
49	0xbf81d238	-1.0142279
50	0x3d6b210d	0.057404567
51	0x3e5b7499	0.21431197
52	0xbe0f4f73	-0.13995151
53	0xbf88871f	-1.0666236
54	0xbe5a5cf4	-0.21324521
55	0xbf378a30	-0.7169523
56	0xbbd17c96	-0.0063930256
57	0xbd1dfdbf	-0.03857207
58	0xbebb8ce3	-0.36630926
59	0x3e97811f	0.295907
60	0x3eebf291	0.460835
61	0x3e51160e	0.2041857
62	0x3f60bef1	0.87791353
63	0x3d27dc2c	0.040981457
64	0xbe1c46ad	-0.15261336
65	0xbe64d225	-0.22345789
66	0x3d8c4011	0.06848157
67	0xbf790946	-0.97279775
68	0xbf49bfdd	-0.78808385
69	0xbd687d7d	-0.0567603
70	0xbe9442fd	-0.28957358
71	0xbf718969	-0.94350296
72	0x3e36f50f	0.1786692
73	0x3e25ab22	0.16178563
74	0x3e7c5647	0.24642287
75	0xbcb5f676	-0.022212248
76	0x3e88bd0b	0.26706728
77	0xbd4f2c08	-0.0505791
78	0xbd481a4b	-0.0488532
79	0xbe9eee03	-0.31040964
80	0x3f47fdab	0.7812144
81	0x3cb62223	0.022233075
82	0x3b9854b2	0.0046487683
83	0x3d04e1b3	0.032441806
84	0x3e8d1812	0.27557427
85	0xbd949da0	-0.07256627
86	0xbf0523db	-0.52007836
87	0x3ef46fad	0.47741452
88	0xbe312001	-0.17297365
89	0x3dedd09e	0.11612056
90	0xbd0d433b	-0.034487944
91	0x3e6ad32e	0.22932121
92	0x3f4d23a6	0.8013252
93	0xbf6ecbd9	-0.93279797
94	0xbe046a62	-0.12931207
95	0xbe0ec7f8	-0.1394347
96	0x3d72146e	0.059101515
97	0x3e9b1bfc	0.30294788
98	0xbe580eec	-0.21099442
99	0x3e21156d	0.1573083
100	0xbdc19ed4	-0.09454122
101	0x3e8c19dd	0.27363482
102	0x3e8daf96	0.27673024
103	0x3df240f0	0.11828792
104	0xbf3f6951	-0.74770075
105	0x3e0e3ccc	0.1389038
106	0xbfc672da	-1.55038
107	0xbecb3754	-0.3969065
108	0x3de38cb3	0.111108206
109	0x3cf5edd0	0.030020624
110	0xbf508433	-0.8145172
111	0xbda7b36f	-0.08188521
112	0xbe678e66	-0.22612914
113	0x3e32ec5b	0.17472975
114	0xbf067bcb	-0.52532643
115	0xbe30b42c	-0.1725623
116	0xbd3bc753	-0.045844387
117	0xbda75c18	-0.08171862
118	0x3f2b2429	0.6685205
119	0x3e30db54	0.17271167
120	0x3fb38a35	1.4026552
121	0x3e076a0d	0.13224049
122	0x3c3668ba	0.011133367
123	0x3fa4e0d9	1.2881118
124	0xbeb66bb4	-0.35629046
125	0x3e2c7d80	0.1684475
126	0x3cf22e77	0.029563172
127	0x3e234cca	0.15947261
128	0x3e844496	0.25833577
129	0xbd047b72	-0.03234429
130	0xbe7f8729	-0.24953903
131	0x3d3b79d8	0.045770496
132	0x3f450352	0.7695819
133	0xbe88e5de	-0.26737875
134	0x3bba609e	0.005687787
135	0xbd2f2b7a	-0.04276607
136	0xbdae4368	-0.085089505
137	0xbf2fb868	-0.68640757
138	0xbf828cf2	-1.0199263
139	0xbf2e6705	-0.68125945
140	0xbfd3b12a	-1.6538441
141	0xbe19ae4d	-0.15007897
142	0x3dc63b5f	0.09679293
143	0xbdb71f4d	-0.08941517
144	0xbe4339ca	-0.19065014
145	0x3f3c77d6	0.73620355
146	0x3f3e100f	0.74243253
147	0x3d93fd25	0.07226018
148	0x3e7359ae	0.23764679
149	0x3f02bf6b	0.5107333
150	0x3e230c84	0.15922743
151	0xbea95091	-0.3306928
152	0x3f264010	0.649415
153	0x3e8c70d0	0.2742982
154	0x3d35cc1c	0.044384107
155	0xbd908f39	-0.070585676
156	0xbd41f0d0	-0.047348797
157	0x3ef992e4	0.4874488
158	0xbf145ff5	-0.5795892
159	0xbf06e249	-0.52689034
160	0x3d5b7fdf	0.053588744
161	0xbc8342a8	-0.016022995
162	0xbebdf7a9	-0.37103012
163	0x3e7fef11	0.2499354
164	0xbea1ae4e	-0.31578296
165	0xbd22be6d	-0.039732385
166	0xbf22eb31	-0.63640124
167	0x3df43af2	0.119253054
168	0x3e408757	0.18801628
169	0xbda699ed	-0.08134828
170	0x3e85828d	0.26076165
171	0xbed1a46f	-0.40945765
172	0xbe075d73	-0.13219242
173	0xbd2fbea1	-0.042906407
174	0x3e44e398	0.19227445
175	0x3dfc4506	0.12317853
176	0xbc761d36	-0.015021613
177	0xbe19b428	-0.1501013
178	0xbddc7f57	-0.10766476
179	0xbe0842a9	-0.13306679
180	0xbdcd1fe4	-0.10015848
181	0x3ce22be2	0.027608816
182	0x3ed14508	0.4087298
183	0xbf01392a	-0.5047785
184	0xbec832c5	-0.39101234
185	0xbf902f3f	-1.1264418
186	0xbd87435c	-0.06604645
187	0x3cb07ec1	0.021544816
188	0xbf8f3c52	-1.1190283
189	0x3f7360ef	0.95069784
190	0x3dd0916d	0.10183988
191	0x3f211b0b	0.6293189
192	0x3e7ece4c	0.24883384
193	0xbe094a7f	-0.13407324
194	0xbc0fae08	-0.00876952
195	0x3e20f877	0.15719782
196	0x3ea067be	0.3132915
197	0x3f94f4b6	1.163718
198	0x3d2c094f	0.042001065
199	0xbe24c311	-0.16090037
200	0x3dde5ff0	0.108581424
201	0x3eaa2a9f	0.33235642
202	0xbeed7dd5	-0.46385065
203	0xbf50d1ee	-0.8157033
204	0xbf1a74b7	-0.6033434
205	0xbe02fdbe	-0.12792107
206	0xbe81f22c	-0.25380075
207	0x3d6640df	0.05621421
208	0x3eaccc65	0.3374969
209	0xbe471fe2	-0.19445756
210	0xbd9cff98	-0.07665938
211	0xbf86faee	-1.0545328
212	0xbe2d81b9	-0.16944017
213	0x3bffd4fc	0.007807372
214	0xbf8fc8d4	-1.1233163
215	0x3e4d69c5	0.20059879
216	0xbf2d5810	-0.677125
217	0x3eeb5ee1	0.45970824
218	0xbead01dd	-0.33790484
219	0xbe27f038	-0.1640023
220	0xbe51d15d	-0.20490022
221	0xbe0ce24c	-0.137582
222	0x3efa1f29	0.48851898
223	0xbee307be	-0.44341844
224	0xbfdaa556	-1.7081707
225	0x3d0c29e5	0.03421964
226	0x3dd3da53	0.103443764
227	0xbfd2021c	-1.6406894
228	0x3c62f00a	0.013851175
229	0xbf739f1d	-0.9516466
230	0xbf07c33a	-0.5303227
231	0xbfbf0aba	-1.4925148
232	0x3d978894	0.07399097
233	0x3e7ccea2	0.24688199
234	0x3e4af639	0.19820489
235	0x3f07f947	0.5311474
236	0x3e9f9b65	0.31173244
237	0xbed7e4cf	-0.42166755
238	0xbd0b72d6	-0.034045063
239	0xbd83650d	-0.06415758
240	0xbf211f4b	-0.62938374
241	0xbeda221c	-0.42604148
242	0xbf4207a3	-0.757929
243	0xbe94fed8	-0.2910068
244	0xbf1509aa	-0.5821787
245	0x3da09f25	0.078428544
246	0x3e258da9	0.1616732
247	0xbf02f8ae	-0.51160705
248	0xbe53b5ea	-0.20674863
249	0xbf8bd665	-1.0924803
250	0x3e0dcb80	0.1384716
251	0x3df6773a	0.120344594
252	0xbd037644	-0.03209521
253	0x3e59b7d7	0.21261536
254	0xbe6f444b	-0.23365895
255	0xbe1a465d	-0.15065904

fc1.bias f4 [128]
0	0xbebb2a7a	-0.36555845
1	0xbfb342d4	-1.4004769
2	0xbfc0bcd3	-1.5057625
3	0xbf99a745	-1.2004172
4	0xbf338bb7	-0.7013506
5	0xbf690288	-0.9101949
6	0x3e7d4470	0.24733138
7	0xbe1d0103	-0.15332417
8	0xbf600d80	-0.875206
9	0x3fa8a68d	1.3175827
10	0xbec11c88	-0.3771708
11	0x3f6aa665	0.9166015
12	0xbea2ec5c	-0.31820953
13	0xbd0fb9ef	-0.03508943
14	0xbf6dc262	-0.9287473
15	0xbd2a4870	-0.041572988
16	0xbf63c4ab	-0.88971967
17	0xbfd909d9	-1.695613
18	0xbefda0ee	-0.49536842
19	0x3e653b7c	0.22385973
20	0xbf8c9ccd	-1.0985352
21	0x3ea08a86	0.31355685
22	0xbf86e696	-1.0539119
23	0xbf0077fb	-0.50183076
24	0x3f03193a	0.5121037
25	0x3f11fc6a	0.5702578
26	0xbf690ade	-0.91032207
27	0xbf8be413	-1.0928978
28	0x3e9adc99	0.30246428
29	0xbf038920	-0.5138111
30	0x3f23dccc	0.64008784
31	0xbc982d62	-0.018576328
32	0x3e90957d	0.2823905
33	0xbf8845dd	-1.064632
34	0x3fce2570	1.6105175
35	0xbe3be89a	-0.18350449
36	0x3e7d97b3	0.247649
37	0xbf72a67a	-0.94785273
38	0x3f1d6201	0.6147767
39	0xbedf9d11	-0.4367452
40	0x3ff9db0d	1.9519974
41	0xbf9473b9	-1.1597816
42	0xbf6a29d3	-0.9147007
43	0x3e8ed883	0.2789956
44	0xbf671b22	-0.90275776
45	0x3fe5153d	1.7897106
46	0xbf2ebb40	-0.6825447
47	0x3fc54760	1.5412407
48	0x3f9a2156	1.2041423
49	0xbf99a886	-1.2004554
50	0xbeea1977	-0.45722553
51	0x3f7eb2cb	0.99491566
52	0xbf6021da	-0.87551653
53	0xbec86759	-0.39141348
54	0x3f70133a	0.9377934
55	0xbf7f9f48	-0.9985242
56	0xbe37a86a	-0.17935339
57	0x3e2443eb	0.16041534
58	0x3e3ec7fe	0.18630978
59	0xbf75a1fa	-0.9595028
60	0x3f9f7213	1.2456688
61	0x3f89ff65	1.0781065
62	0x3f3c4109	0.73536736
63	0xbf0b70c4	-0.5446894
64	0x3fa395c7	1.2780083
65	0xbf6e7fef	-0.9316396
66	0xbfbf3d55	-1.4940592
67	0xbf572aae	-0.840495
68	0x3d82360e	0.06357966
69	0xbf8cdd7c	-1.1005092
70	0xbe924066	-0.28564757
71	0xbe214441	-0.15748693
72	0xbf77f636	-0.96860063
73	0x3f51d3f9	0.8196407
74	0xbf75b5a6	-0.959803
75	0x3ebbb5d0	0.3666215
76	0x3f752ab1	0.95768267
77	0xbf2502ce	-0.64457405
78	0xbfbce218	-1.4756498
79	0x401b8acb	2.4303463
80	0xbf9a83a7	-1.2071427
81	0xbf6a7ee3	-0.91599864
82	0xbf751cf0	-0.9574728
83	0x3e3fbb82	0.18723872
84	0x3fe9a9d7	1.8254956
85	0xbf004af1	-0.5011435
86	0xbfb297c0	-1.395256
87	0xbfafb3d9	-1.372676
88	0xbf2fe960	-0.68715477
89	0xbf8c396d	-1.0955025
90	0x3f12d51a	0.5735642
91	0x3f274c50	0.6535082
92	0xbe072123	-0.13196234
93	0x3fcf0431	1.6173154
94	0xbf0d8177	-0.5527567
95	0xbf8ff0bf	-1.1245345
96	0xbf6cf759	-0.9256492
97	0x3e133f00	0.14379501
98	0xbf84e682	-1.0382845
99	0x3e33321a	0.17499581
100	0x3ce251da	0.02762692
101	0xbf11fa34	-0.57022405
102	0xbdd93991	-0.10606683
103	0x3ea7388e	0.32660335
104	0xbf177542	-0.59163296
105	0xbf1323b9	-0.57476383
106	0x3fcd4d22	1.6039164
107	0xbf9e848d	-1.2384201
108	0xbf7ed89b	-0.99549264
109	0xbf67f40d	-0.90606767
110	0xbfc3a120	-1.5283546
111	0xbf620925	-0.88295203
112	0xbfa3ea48	-1.2805872
113	0xbf8a0a04	-1.0784307
114	0x3f3ca9da	0.7369667
115	0xbf6cd912	-0.92518723
116	0xbe8ace07	-0.2711031
117	0xbf826718	-1.0187712
118	0xbe16d590	-0.14729905
119	0xbf10be00	-0.56539917
120	0xbf882b70	-1.0638256
121	0xbeb51f73	-0.35375556
122	0xbf3ba503	-0.7329866
123	0xbf43a2f1	-0.76420504
124	0xbdea8b1d	-0.11452315
125	0xbe98c1a7	-0.29835245
126	0xbf86f4e0	-1.054348
127	0xbeb6f64b	-0.35734782

fc2.weight f4 [128, 128]
0	0xbe4b3dfd	-0.19847865
1	0xbec1eb2c	-0.37874734
2	0x3e273543	0.16328911
3	0x3e202ad3	0.15641336
4	0x3b4d5283	0.0031329698
5	0xbe1948fc	-0.14969248
6	0xbdb8c911	-0.090227254
7	0xbf320ea1	-0.6955357
8	0xbe271f1b	-0.1632046
9	0xbdde8edf	-0.10867094
10	0xbd822d94	-0.063563496
11	0x3dc1be56	0.09460132
12	0xbc982322	-0.01857144
13	0xbcd2f254	-0.025750317
14	0xbebafbc0	-0.36520195
15	0xbda36f01	-0.07980157
16	0xbd9e6da7	-0.07735758
17	0xbe29fb44	-0.16599756
18	0xbe52f861	-0.20602562
19	0xbd683029	-0.056686554
20	0xbda3615c	-0.07977554
21	0xbd54600e	-0.051849417
22	0xbe2a9f01	-0.16662218
23	0xbc5dc171	-0.01353489
24	0x3dc3389f	0.09532284
25	0xbd26f757	-0.040763225
26	0x3dc3b083	0.09555151
27	0x3e00f4c3	0.12593369
28	0xbeab5043	-0.33459672
29	0xbecd48a2	-0.40094477
30	0xbf317903	-0.69325274
31	0xbf552dad	-0.8327282
32	0xbe131cd1	-0.14366461
33	0xbec48d0d	-0.38388863
34	0xbef6f96f	-0.48237178
35	0x3e0d46e6	0.13796577
36	0xbe6ba43f	-0.23011874
37	0xbf00e35c	-0.5034692
38	0xbe2686fe	-0.16262433
39	0xbf15c503	-0.5850374
40	0xbdd50d39	-0.10402913
41	0xbef7482b	-0.48297247
42	0xbaf15073	-0.0018410817
43	0xbda0929f	-0.07840466
44	0xbdedd3c1	-0.116126545
45	0xbd445061	-0.047928218
46	0xbd844ac2	-0.064595714
47	0xbe557ac4	-0.20847613
48	0xbd819bb7	-0.063285284
49	0xbdc0a935	-0.09407274
50	0xbe1549c8	-0.14578927
51	0xbdc7b0d4	-0.09750524
52	0x3d90969e	0.07059978
53	0xbd486c9e	-0.04893171
54	0x3c967b07	0.01836921
55	0xbe2d2c18	-0.16911352
56	0xbee5b2b9	-0.44862917
57	0xbed0e49c	-0.40799415
58	0x3e69a95e	0.22818515
59	0xbf1605e1	-0.5860272
60	0xbe05ab71	-0.13053681
61	0xbde2ebf8	-0.11080164
62	0xbd4b9de0	-0.04971111
63	0x3c9e7019	0.019340562
64	0xbe29f2c5	-0.16596515
65	0xbd875cab	-0.06609472
66	0xbd8abe00	-0.06774521
67	0xbca49511	-0.020090612
68	0xbd58cb59	-0.052928302
69	0xbe0dc37a	-0.138441
70	0xbc740a24	-0.014894996
71	0xbe5221bc	-0.20520681
72	0xbee93d3e	-0.45554537
73	0xbd6dd0c9	-0.05806044
74	0x3ea5250e	0.32254833
75	0x3d9da7db	0.076980315
76	0xbeaa3262	-0.33241564
77	0x3d83599c	0.06413576
78	0xbdb560ba	-0.0885634
79	0xbda6298e	-0.08113395
80	0xbdca266b	-0.09870609
81	0x3de4ae94	0.11166111
82	0xbe0b2843	-0.13589577
83	0xbdb14381	-0.086554535
84	0xbe86daf9	-0.26338938
85	0xbefb51b3	-0.4908577
86	0xbd843d71	-0.064570315
87	0x3e3b0676	0.18264183
88	0xbd929dc3	-0.07158997
89	0xbe75dc04	-0.2400971
90	0xbd5099c7	-0.050927904
91	0x3e4043de	0.1877589
92	0x3e013941	0.12619497
93	0xbd61b339	-0.05510256
94	0x3d6b4918	0.057442755
95	0x3db7cb26	0.08974294
96	0xbe8f1e3d	-0.27952757
97	0x3d51a9b7	0.051187243
98	0xbedef1b4	-0.4354378
99	0xbe0423b2	-0.12904242
100	0xbf3a114f	-0.7268266
101	0xbe8baf0f	-0.27281997
102	0xbdcbc21a	-0.09949131
103	0xbc5ef84a	-0.013609001
104	0xbd27b3f5	-0.040943105
105	0xbd70a17f	-0.058747765
106	0xbc9fd219	-0.019509362
107	0xbe2af201	-0.1669388
108	0xbe8148d1	-0.25250867
109	0x3bf0b0c3	0.0073452904
110	0xbe1cca31	-0.15311505
111	0xbd17bb10	-0.03704363
112	0x3d99c8fe	0.07509039
113	0xbf05297c	-0.52016425
114	0xbe84db75	-0.25948682
115	0x3e293e91	0.16527773
116	0xbe344508	-0.17604458
117	0x3e087d08	0.13328946
118	0x3e0f0f3c	0.13970655
119	0xbdafc6cd	-0.0858284
120	0xbcc106fa	-0.023562897
121	0x3dd602a3	0.10449722
122	0xbe57a1e3	-0.21057849
123	0x3df659e9	0.12028868
124	0xbdb60e48	-0.08889443
125	0xbca1dc4a	-0.019758362
126	0x3cad7f18	0.021178767
127	0x3c7e13f7	0.01550769
128	0xbeb81701	-0.3595505
129	0x3e5f38c1	0.21798994
130	0x3dbae742	0.0912614
131	0x3db19d40	0.08672571
132	0x3d561cc8	0.05227354
133	0x3ca54fc0	0.02017963
134	0x3de68f34	0.112577826
135	0xbdd7aa40	-0.105305195
136	0x3e0fe6aa	0.14052835
137	0xbde5631e	-0.11200546
138	0xbe0543f6	-0.13014206
139	0xbe29274c	-0.16518897
140	0xbc943be4	-0.018094964
141	0xbe5d2ae6	-0.21598396
142	0xbeba7612	-0.36418205
143	0xbe3a78ea	-0.18210188
144	0x3d96621d	0.073429324
145	0xbe4b902a	-0.19879213
146	0xbcfd85a5	-0.030947516
147	0x3e0daae8	0.13834727
148	0xbe0d5d20	-0.13805056
149	0xbd4438c3	-0.047905695
150	0xbc707d03	-0.014678243
151	0xbd2285be	-0.039678328
152	0xbe962c4d	-0.29330674
153	0xbec142cd	-0.37746277
154	0xbdba81d3	-0.09106793
155	0xbd57a0b0	-0.052643478
156	0xbef77d14	-0.48337615
157	0xbf024c37	-0.50897545
158	0xbe55d007	-0.20880137
159	0xbd9a0923	-0.07521274
160	0xbdba758c	-0.091044515
161	0xbe16c04b	-0.14721791
162	0xbec27134	-0.37976992
163	0x3cf5a587	0.029986156
164	0x3d8a3c1e	0.06749748
165	0xbd75673d	-0.05991291
166	0x3c022eb6	0.007945707
167	0xbbb9f8d1	-0.005675413
168	0xbe7cb85c	-0.24679703
169	0x3de26843	0.110550426
170	0x3e715866	0.23568878
171	0xbed455d9	-0.41471747
172	0x3e74534f	0.23859905
173	0xbe93ef84	-0.28893673
174	0xbdb8cf88	-0.090239584
175	0x3cce0c67	0.025152398
176	0xbe4a41a5	-0.19751604
177	0xbdecd72e	-0.1156448
178	0xbec35a34	-0.38154757
179	0x3dabe821	0.083938845
180	0x3dfdd566	0.12394218
181	0xbd99e623	-0.07514598
182	0xbd29666d	-0.041357446
183	0xbf2039e7	-0.6258835
184	0xbe26ea78	-0.1630038
185	0xbe55c996	-0.2087768
186	0xbd9462f9	-0.0724544
187	0xbe9b0fc7	-0.30285475
188	0xbe861198	-0.26185298
189	0xbc83e8c9	-0.016102212
190	0xbeb12746	-0.34600276
191	0x3e71b65b	0.2360472
192	0xbe9256ab	-0.28581747
193	0xbc9b9060	-0.018989742
194	0x3c4dc9d8	0.01256033
195	0x3ca0d310	0.019631892
196	0xbe87ceee	-0.26525062
197	0xbf416f7f	-0.75560755
198	0x3e1a6ba2	0.15080121
199	0x3d32e1c2	0.04367233
200	0xbe3c6d08	-0.18400967
201	0xbe5413b8	-0.20710647
202	0xbeea4beb	-0.45761046
203	0xbebc13cc	-0.36733854
204	0xbe276ce5	-0.16350134
205	0xbd3afb40	-0.045649767
206	0xbd3ebc5c	-0.046566352
207	0xbdb8f8e4	-0.09031847
208	0xbe4a2e96	-0.19744334
209	0xbdb8c808	-0.09022528
210	0xbee8a8db	-0.45441326
211	0x3e724414	0.23658782
212	0xbdce1397	-0.1006233
213	0xbe804494	-0.2505232
214	0xbe684a8e	-0.2268469
215	0x3e8e92f2	0.27846485
216	0x3ddcb647	0.10776954
217	0xbeb87fcd	-0.36035004
218	0xbdd33efc	-0.10314748
219	0x3e0ecab0	0.13944507
220	0xbf04a5b2	-0.5181533
221	0xbe20c88f	-0.15701507
222	0xbea6c774	-0.32574046
223	0xbea9d1dd	-0.33167925
224	0xbe8df1e7	-0.2772362
225	0xbe8ddb2c	-0.27706277
226	0x3e59e947	0.21280394
227	0xbd7c52c6	-0.061602376
228	0xbec646ca	-0.38725883
229	0xbd71503b	-0.058914404
230	0xbf1b3f24	-0.6064322
231	0xbe46aedd	-0.19402643
232	0x3eac104e	0.3360619
233	0xbf04fd2d	-0.51948816
234	0xbe945819	-0.28973463
235	0x3de17143	0.11007931
236	0xbd6964f4	-0.056981042
237	0xbf0242b9	-0.5088306
238	0xbf0395a1	-0.5140019
239	0xbdb1a3d9	-0.086738296
240	0xbcd7f794	-0.026363172
241	0xbed9fb55	-0.42574564
242	0xbeb1aad7	-0.34700653
243	0xbe0341b0	-0.12818027
244	0xbe9a1004	-0.30090344
245	0xbde26d0d	-0.11055956
246	0xbc0a0ccc	-0.008425903
247	0x3d7812d0	0.060564816
248	0xbe081278	-0.13288295
249	0x3c1928f2	0.009348141
250	0xbdf26d3d	-0.11837242
251	0x3e5166b9	0.20449342
252	0xbe806ef2	-0.25084645
253	0xbe5a7a39	-0.21335687
254	0x3d809df3	0.062801264
255	0xbe72a748	-0.23696625

fc2.bias f4 [128]
0	0x3ce5b4b4	0.028040268
1	0xbf185107	-0.5949864
2	0x3e6fe7da	0.23428288
3	0x3ec1afa2	0.3782931
4	0x3da8e262	0.08246304
5	0xbd366147	-0.044526365
6	0x3dc86631	0.097851165
7	0x3e0b9963	0.13632731
8	0xbeaf7946	-0.34272212
9	0xbeda12ca	-0.4259246
10	0xbe162d2a	-0.14665666
11	0xbd481507	-0.04884818
12	0xbef52cf2	-0.47885853
13	0xbe1fadd2	-0.15593651
14	0x3d61f371	0.055163804
15	0xbd842de7	-0.06454068
16	0xbe92cba3	-0.28670987
17	0xbd456baf	-0.0481984
18	0xbd3c735c	-0.046008453
19	0xbdc5748b	-0.096413694
20	0xbcabe351	-0.020982416
21	0xbdb9e7c6	-0.090774104
22	0xbee52a10	-0.44758654
23	0xbf4bce3e	-0.79611576
24	0x3dc7b3af	0.09751069
25	0x3e133e25	0.14379175
26	0x3e236a48	0.15958512
27	0x3fa8f4cf	1.319971
28	0x3f01228b	0.50443333
29	0xbf2baeda	-0.6706368
30	0xbd35d687	-0.044394042
31	0x3f609b3c	0.8773687
32	0xbf32e36d	-0.69878274
33	0xbe941cff	-0.28928372
34	0xbe9c5c1e	-0.3053903
35	0x3e4e93dd	0.20173593
36	0xbe41942d	-0.18904181
37	0xbfa1a35e	-1.2627981
38	0x3de6f6ed	0.11277566
39	0xbe9dc9c3	-0.30817994
40	0xbde55bf3	-0.111991785
41	0xbf013884	-0.5047686
42	0xbe80b59a	-0.2513855
43	0x3fa4f0a4	1.2885938
44	0x3d2bf802	0.041984566
45	0xbed7f35c	-0.42177856
46	0xbdb5b82c	-0.088730186
47	0xbe32a8c4	-0.17447191
48	0x3da80478	0.08203977
49	0x3ef1c5bb	0.4722117
50	0xbd04f63f	-0.0324614
51	0xbf377753	-0.7166645
52	0xbebcd099	-0.36877897
53	0x3cd00ef8	0.025397763
54	0xbe705d4e	-0.23473093
55	0x3d76b459	0.060230587
56	0xbe1ab558	-0.1510824
57	0xbed05051	-0.40686277
58	0x3ecdc246	0.4018728
59	0x3f136617	0.5757765
60	0xbe8bee10	-0.27330065
61	0x3f233829	0.6375757
62	0xbedefc21	-0.43551734
63	0x3f240e16	0.64083993
64	0xbc92fdab	-0.017943224
65	0xbcf68d0d	-0.030096555
66	0x3e01b658	0.12667215
67	0xbe100935	-0.14066012
68	0xbd3b6cb3	-0.04575796
69	0xbf4a8cb7	-0.79120964
70	0xbd22b343	-0.03972174
71	0x3f39ebd3	0.72625464
72	0xbf13c5e4	-0.5772383
73	0xbf10408d	-0.56348497
74	0xbe74988d	-0.23886319
75	0x3da1bbee	0.07897173
76	0x3d9fc965	0.07802085
77	0x3e9cd152	0.3062845
78	0xbf021924	-0.5081961
79	0x3bffc12e	0.0078050112
80	0xbe8cd66d	-0.27507344
81	0x3f09fc02	0.5390016
82	0xbe931b2b	-0.28731665
83	0xbda6e313	-0.0814878
84	0x3f3003ce	0.68755805
85	0xbedfd155	-0.43714395
86	0xbe22aace	-0.1588547
87	0xbe97e9eb	-0.29670653
88	0xbeb0344f	-0.34414908
89	0x3e393173	0.1808527
90	0xbe1aec53	-0.15129213
91	0xbd95a382	-0.07306577
92	0xbeb6d544	-0.35709584
93	0xbe552c46	-0.2081767
94	0x3f36b1d3	0.7136509
95	0xbdc4dbfb	-0.096122704
96	0xbe19ca86	-0.15018663
97	0xbeca178e	-0.39471096
98	0xbdba71ed	-0.09103761
99	0xbe0b1ada	-0.13584462
100	0xbf1587be	-0.5841025
101	0xbcfa705b	-0.030571153
102	0xbefbfa45	-0.49214378
103	0x3f5ad82f	0.8548612
104	0x3e367da2	0.17821363
105	0x3ed141a8	0.40870404
106	0xbdc4ba2b	-0.09605821
107	0xbdeeaa3a	-0.11653562
108	0xbf0f4ebd	-0.5597952
109	0x3e9e0bf4	0.30868495
110	0xbf090b91	-0.53533274
111	0xbcb946c5	-0.022616753
112	0x3eca99e5	0.39570537
113	0x3e03dd82	0.12877467
114	0xbc3a9e7c	-0.011390325
115	0x3aed4aae	0.0018103921
116	0x3f626a74	0.88443685
117	0xbf9b8b72	-1.215193
118	0x3eb39c89	0.35080364
119	0xbf34eded	-0.70675546
120	0xbd71abe0	-0.059001803
121	0xbdc38d05	-0.09548382
122	0xbf05f9b4	-0.5233414
123	0x3e591676	0.21199974
124	0xbf367a85	-0.712807
125	0xbde9e31f	-0.11420273
126	0x3ebf729a	0.37392122
127	0x3e9e120a	0.30873138

dir.weight f4 [2, 128]
0	0x3eacc05e	0.33740515
1	0xbf02744b	-0.509587
2	0x3ec718be	0.38886064
3	0x3cfaa316	0.030595344
4	0x3dac7cf6	0.08422272
5	0xbcf06bb5	-0.029348234
6	0xbcc274e0	-0.023737371
7	0xbebd01dc	-0.3691548
8	0xbebcd905	-0.36884323
9	0xbf0e5c98	-0.55610037
10	0xbe3b1670	-0.18270278
11	0x3afb7d39	0.00191871
12	0xbec33bfa	-0.38131696
13	0xbc0a4f5e	-0.008441774
14	0x3bb82d76	0.0056206537
15	0xbd26754d	-0.04063921
16	0xbd8754a1	-0.066079386
17	0xbd99e8c6	-0.07515101
18	0xbdfd1578	-0.123576105
19	0xbca4f87e	-0.020138022
20	0xbd0d3a2f	-0.034479316
21	0xbc1d1327	-0.009587086
22	0x3ee2041c	0.4414376
23	0xbbdc4c95	-0.0067229965
24	0xbe3ed17d	-0.18634601
25	0xbdd329bd	-0.10310695
26	0xbe92c759	-0.28667715
27	0x3ca63d21	0.02029282
28	0xbe9b4904	-0.30329144
29	0xbf19410d	-0.59864885
30	0x3ea6475e	0.32476324
31	0x3bdb8a62	0.006699846
32	0x3f5a3169	0.85231644
33	0xbcb72b2b	-0.022359451
34	0x3a381136	0.00070216076
35	0x3d1c4a3c	0.038156733
36	0xbe6d8418	-0.23194921
37	0xbf141038	-0.5783725
38	0x3cf1a5b4	0.029497959
39	0xbeb50e99	-0.353627
40	0xbe0e325a	-0.13886395
41	0x3af2c2ce	0.0018521191
42	0xbd01178c	-0.031516597
43	0xbd6fe674	-0.058569387
44	0x3ecabf10	0.39598894
45	0xbeb5c1b5	-0.3549935
46	0x3d501737	0.05080339
47	0x3eb094d1	0.34488538
48	0x3dba6641	0.09101535
49	0x3dad155e	0.08451341
50	0xbde3e2df	-0.111272566
51	0x3f0af4b1	0.5427962
52	0x3e265793	0.16244344
53	0xbd160bd2	-0.036632366
54	0x3d4cc483	0.049992096
55	0x3ed96ef3	0.4246746
56	0xbec3e92d	-0.38263837
57	0xbee3eb94	-0.4451567
58	0xbeed56a9	-0.4635518
59	0xbe1a3499	-0.15059127
60	0xbf009995	-0.5023435
61	0x3e872d9d	0.26401988
62	0xbeee95e2	-0.46598727
63	0x3e053600	0.1300888
64	0x3ca20bc0	0.019780993
65	0xbd2135a8	-0.03935781
66	0x3e8b6770	0.27227354
67	0x3ebfbd0f	0.37448928
68	0x3e6c6cbd	0.23088355
69	0xbfb59618	-1.418643
70	0xbb93fa5b	-0.0045159287
71	0x3e88cda9	0.26719406
72	0xbeee4a92	-0.46541268
73	0xbe0a7161	-0.13519813
74	0xbe014655	-0.12624486
75	0xbf03a4e7	-0.51423496
76	0xbee4a5f2	-0.44657856
77	0x3f0a335d	0.53984624
78	0x3f6b0306	0.9180149
79	0xbd9770c1	-0.07394553
80	0x3e376005	0.17907722
81	0x3e26db37	0.16294561
82	0x3ea838c1	0.328558
83	0x3bbaae84	0.0056970734
84	0x3e8535c5	0.26017585
85	0xbda5a6e1	-0.0808847
86	0x3d7b0c81	0.06129122
87	0x3c1aba41	0.00944382
88	0xbe534ea2	-0.20635465
89	0x3d51e4e1	0.051243667
90	0x3ead88ea	0.3389352
91	0xbb33de72	-0.002744582
92	0xbdef2605	-0.116771735
93	0xbe4bff28	-0.19921553
94	0x3e5a7c06	0.21336374
95	0x3dfbd7b2	0.12297
96	0xbdcf8145	-0.10132078
97	0xbcb50e68	-0.022101596
98	0xbe180b39	-0.14848031
99	0xbf050c8e	-0.5197228
100	0xbd0e0ee6	-0.034682177
101	0x3d1eaf9c	0.038741693
102	0x3ef16304	0.47145855
103	0x3ec1e7e3	0.37872228
104	0xbefaa5aa	-0.48954517
105	0xbec332e1	-0.38124755
106	0xbf031ccf	-0.51215833
107	0x3dd0b676	0.10191052
108	0xbd183bb9	-0.03716633
109	0x3d8429f8	0.064533174
110	0xbeaa9dfc	-0.33323658
111	0xbd30b677	-0.043142762
112	0xbdb27d4f	-0.08715307
113	0xbea46489	-0.32107952
114	0xbcc445bd	-0.023959035
115	0xbe31001e	-0.17285201
116	0x3dfd6a59	0.123738
117	0x3edcdd20	0.43137455
118	0xbef921e2	-0.48658663
119	0xbe5f06fa	-0.21780005
120	0x3c42ff7d	0.011901733
121	0x3cb59e7e	0.022170302
122	0x3da53513	0.08066764
123	0x3d6e6180	0.058198452
124	0x3f11492a	0.56752264
125	0xbe6cebc9	-0.2313682
126	0xbe075c16	-0.13218722
127	0x3d087a47	0.033319738
128	0x3db9e569	0.0907696
129	0x3d7914fe	0.060811035
130	0xbdca4cf4	-0.09877959
131	0xbd403746	-0.046927713
132	0xbe3e4aa2	-0.18583158
133	0x3d86e49e	0.06586574
134	0x3d9eb6c7	0.07749706
135	0xbd1c1906	-0.0381098
136	0x3e2e480f	0.17019676
137	0xbd1a53f6	-0.037677728
138	0x3e493f37	0.19653021
139	0xbdde4155	-0.10852305
140	0x3e8cc421	0.27493384
141	0xbd1c6440	-0.038181543
142	0x3d8bbe73	0.06823435
143	0x3de29bb4	0.11064854
144	0xbbb5812f	-0.0055390815
145	0x3ba9c724	0.00518121
146	0x3e5ccc99	0.21562423
147	0x3bab672f	0.0052308063
148	0x3bbd3217	0.0057737934
149	0xbb852840	-0.004063636
150	0xbe579ad9	-0.21055163
151	0x3efb0447	0.490267
152	0x3d9ddd1d	0.0770819
153	0xbdaec768	-0.085341275
154	0xbd4c8a53	-0.049936604
155	0xbead5f19	-0.33861616
156	0xbe82cc94	-0.25546706
157	0xbd218b84	-0.039439693
158	0xbf217a67	-0.63077396
159	0x3cd8a170	0.026444167
160	0x3f2c803e	0.6738318
161	0x3d5058d8	0.050865978
162	0xbc6434de	-0.01392862
163	0x3f0a4cb3	0.54023284
164	0x3c7076c4	0.014676753
165	0xbf3ab2c9	-0.72929054
166	0x3dc6e7fc	0.09712216
167	0xbe028030	-0.12744212
168	0x3d9331ea	0.07187255
169	0x3bcd8a01	0.006272555
170	0x3e2dbd77	0.16966806
171	0xbd19bff0	-0.03753656
172	0xbe6f93a2	-0.23396161
173	0xbeb7236d	-0.35769215
174	0xbcdfeb0f	-0.027333764
175	0x3f3cab42	0.7369882
176	0x3c00c3aa	0.00785915
177	0x3d5af762	0.05345858
178	0xbe2cd880	-0.16879463
179	0x3e7ffac4	0.24998003
180	0x3e753af6	0.23948273
181	0xbc5a2435	-0.0133142965
182	0x3c10552a	0.008809367
183	0x3e8c6a15	0.27424684
184	0x3e219d7d	0.15782733
185	0x3dfe59a9	0.12419445
186	0x3dac9939	0.084276624
187	0xbe66e506	-0.22548303
188	0xbf009b92	-0.5023738
189	0xbe5605fd	-0.20900722
190	0x3dc8790f	0.09788715
191	0xbcfcffc2	-0.030883674
192	0x3b8a5523	0.004221575
193	0x3d2f59fb	0.04281042
194	0x3f1b3d2a	0.60640204
195	0x3da83668	0.08213502
196	0x3e7017e8	0.2344662
197	0xbebcebf0	-0.36898756
198	0x3d7ae413	0.061252665
199	0x3e3daa64	0.1852203
200	0xbe0a3d62	-0.13499978
201	0x3e1cb9a9	0.15305199
202	0x3f3cca72	0.7374641
203	0x3e59cdb2	0.21269873
204	0x3ea813fa	0.3282774
205	0x3ee2a809	0.44268826
206	0xbecd5fb9	-0.40112093
207	0xbf08490b	-0.53236455
208	0x3e434f6c	0.19073266
209	0xbe9fb718	-0.31194377
210	0xbe8634a4	-0.26212037
211	0x3db9e0db	0.09076091
212	0x3d4f4f6c	0.050612852
213	0x3d8975db	0.06711932
214	0x3c23b2f9	0.009991401
215	0xbcb84425	-0.022493431
216	0xbcbf9e4d	-0.023390913
217	0xbd24d2b5	-0.04024001
218	0x3e645aff	0.22300337
219	0xbd38dbaf	-0.04513138
220	0x3da953e0	0.08267951
221	0xbeaef5aa	-0.34171802
222	0xbe426523	-0.18983893
223	0xbf1fdfd9	-0.6245094
224	0x3ed973a7	0.42471048
225	0xbd930723	-0.071790956
226	0xbd2074f4	-0.039174035
227	0xbed8027a	-0.4218939
228	0x3d4e7b17	0.050410356
229	0xbd37c0cb	-0.044861596
230	0x3e53b410	0.20674157
231	0xbdabc5a2	-0.08387305
232	0x3c7db36c	0.015484672
233	0x3e511411	0.20417811
234	0xbd1ea86e	-0.038734846
235	0x3e6dbf66	0.23217544
236	0xbb8df780	-0.004332483
237	0xbd80da98	-0.062916934
238	0x3ebf7ae4	0.37398446
239	0x3d9f299d	0.07771609
240	0xbf213704	-0.6297457
241	0xbced5416	-0.02897076
242	0x3d9da8fb	0.07698246
243	0xbe5840f9	-0.21118535
244	0x3e0ef04a	0.1395885
245	0xbe246377	-0.16053568
246	0xbe2aa231	-0.16663434
247	0xbde7163a	-0.11283536
248	0x3cd00698	0.02539377
249	0x3ef1ab62	0.47201067
250	0x3e9afa62	0.30269152
251	0x3e408e92	0.18804386
252	0x3eee7fdf	0.46581933
253	0x3dc17c93	0.09447589
254	0xbdcb254a	-0.09919222
255	0xbcf81433	-0.03028307

dir.bias f4 [2]
0	0x3e38f393	0.18061666
1	0xbe93fc9f	-0.28903672

distance.weight f4 [1, 128]
0	0x3cae1911	0.021252187
1	0x3e4d133a	0.20026866
2	0x3d5d960c	0.054098174
3	0xbd47f373	-0.048816156
4	0xbd822e6c	-0.063565105
5	0x3c89a8f0	0.016804188
6	0xbd61a8a0	-0.055092454
7	0x3d9c20de	0.076234564
8	0x3dc95a4a	0.098316744
9	0xbdae0810	-0.084976315
10	0x3d9fec3d	0.07808731
11	0x3cfe8359	0.03106849
12	0xbdb5e25c	-0.08881065
13	0x3d893b89	0.067008086
14	0xbd519e1e	-0.051176183
15	0x3d0765f6	0.033056222
16	0x3e0aae12	0.13542965
17	0x3c84da91	0.016217502
18	0x3d960072	0.07324304
19	0x3cc24ffd	0.023719782
20	0xbd2ff8a6	-0.04296174
21	0xbd09550a	-0.033528365
22	0x3cdd2150	0.026993424
23	0x3c9a9aba	0.018872607
24	0x3e35e2a9	0.17762245
25	0x3e13c0c1	0.14428999
26	0x3b54441e	0.0032389234
27	0x3f139cce	0.5766114
28	0x3e309210	0.17243218
29	0xbe04a058	-0.12951791
30	0xbda2229d	-0.07916758
31	0x3f46052f	0.7735166
32	0x3e576dbb	0.21037953
33	0x3ef575b9	0.47941378
34	0x3e010f29	0.1260344
35	0x3ea86bef	0.32894847
36	0x3d9d8ab5	0.07692472
37	0x3f60d521	0.8782521
38	0xbd9b49db	-0.07582446
39	0x3e50ef23	0.20403723
40	0x3e425cb8	0.18980682
41	0x3dcd60f1	0.10028256
42	0x3de2b47e	0.110695824
43	0x3f869937	1.0515507
44	0x3d2360ef	0.039887365
45	0xbc3c58f5	-0.011495818
46	0xbc9219db	-0.017834594
47	0x3d9c1d88	0.0762282
48	0x3c6bd342	0.0143936295
49	0x3ec3fa0b	0.38276705
50	0x3e4c7ad4	0.1996873
51	0x3c1a0500	0.009400606
52	0xbd9a7166	-0.0754116
53	0xbd776c63	-0.0604061
54	0xbe55085b	-0.20803969
55	0xbdb20de0	-0.08694053
56	0x3db216d7	0.086957626
57	0xbca901a8	-0.020630673
58	0x3e46d62a	0.19417635
59	0x3e2d08ba	0.1689786
60	0xbd591c9f	-0.05300581
61	0x3e108c22	0.14115956
62	0x3db99c58	0.09063023
63	0x3f1cd0e1	0.61256224
64	0xbd9e1a39	-0.07719845
65	0x39c0529c	0.00036682643
66	0x3e094ed1	0.13408972
67	0x3e44bca1	0.19212581
68	0xbe4ae94d	-0.1981556
69	0x3e17a930	0.14810634
70	0xbd543c9f	-0.051815625
71	0x3e9b8745	0.3037664
72	0xbe8ca0dc	-0.27466476
73	0x3ea82c4f	0.32846305
74	0x3cc4faa3	0.024045294
75	0x3e7c4d76	0.24638924
76	0x3cfaef37	0.030631645
77	0x3d7d5eaa	0.061857857
78	0x3d826ed9	0.06368799
79	0x3e4f46e5	0.20241888
80	0xbea84fa3	-0.32873258
81	0xbddbc0e7	-0.107301526
82	0x3cb14001	0.021636965
83	0xbd77551e	-0.06038391
84	0x3d52485d	0.051338542
85	0x3e650394	0.22364646
86	0x3c09b307	0.0084045
87	0x3d9bd239	0.07608456
88	0xbd85dd4f	-0.06536352
89	0x3daf3482	0.08554937
90	0xbdff5adf	-0.12468504
91	0xbcb8e2dd	-0.022569114
92	0x3cfb506a	0.030677993
93	0xbe4b18f2	-0.19833735
94	0x3ec75828	0.38934445
95	0x3dcdadbb	0.10042902
96	0x3e5a7663	0.21334223
97	0xbe0e95da	-0.13924351
98	0x3cadb246	0.021203171
99	0xbd0620f0	-0.032746255
100	0x3e2b562c	0.1673209
101	0xbdb5f379	-0.08884329
102	0x3b425827	0.0029654594
103	0x3ef1a9b4	0.47199786
104	0xbd542065	-0.051788706
105	0x3e88c493	0.26712474
106	0x3cf726ad	0.03016981
107	0x3d5d9bb2	0.05410356
108	0x3e1f407d	0.15551944
109	0xbd666ff6	-0.056259118
110	0xbd37e3b6	-0.044894896
111	0x3cbfd6b7	0.023417814
112	0xbd73a2b4	-0.059481338
113	0xbbb86d5d	-0.0056282715
114	0xbbc878a0	-0.0061178952
115	0xbdd6a760	-0.10481143
116	0x3f224c42	0.6339761
117	0xbe80fa40	-0.25190926
118	0xbe37217d	-0.17883869
119	0xbcb74af0	-0.0223746
120	0xbd34aa66	-0.044107817
121	0x3b6fcbd4	0.0036589997
122	0x3dbe2df9	0.09286112
123	0x3e506c9a	0.20353928
124	0xbe457959	-0.19284572
125	0x3e188f3f	0.14898394
126	0x3e19a961	0.15006019
127	0x3d8a5ce1	0.067559965

fc1.weight f4 [128, 13]
0	0x3ee33c96	0.4438216
1	0x3f31efda	0.6950661
2	0xbee09cd4	-0.4386965
3	0xbef87941	-0.4853001
4	0xbd515025	-0.051101822
5	0xbc1b8ba0	-0.009493738
6	0xbe083f5f	-0.13305424
7	0xbee1223b	-0.43971428
8	0xbf2455f0	-0.6419363
9	0xbf3866e8	-0.7203202
10	0xbf507fb5	-0.81444865
11	0xbdb2d8ad	-0.08732734
12	0xbd1f564c	-0.03890066
13	0x3efd84e3	0.49515447
14	0x3dbbda6e	0.091725215
15	0x3ec9535d	0.39321414
16	0xbf747aa2	-0.9549962
17	0x3bb5d92e	0.0055495715
18	0xbda6dafe	-0.08147238
19	0xbf919fb9	-1.1376868
20	0xbf3b0f3c	-0.7307012
21	0xbee157dd	-0.44012347
22	0xbf9832ea	-1.1890538
23	0xbee6e21e	-0.4509439
24	0x3e541f0f	0.20714973
25	0x3e89523c	0.26820552
26	0xbd97721c	-0.073948115
27	0xbd99b2af	-0.07504784
28	0xbfbd2882	-1.4777987
29	0xbfabc4df	-1.3419455
30	0x3da63d44	0.08117154
31	0x3e11b667	0.14229737
32	0xbfb6d3ed	-1.4283425
33	0x3e9aef9b	0.3026093
34	0xbf29866d	-0.6622074
35	0x3e3fe931	0.18741299
36	0xbf0cadf2	-0.5495292
37	0x3d8a275b	0.06745788
38	0x3e70f9be	0.23532769
39	0xbe73d397	-0.23811184
40	0x3e053a32	0.13010481
41	0xbfc5a90d	-1.5442215
42	0xbf39bcde	-0.72553813
43	0x3b550dd5	0.0032509465
44	0xbd064b65	-0.032786746
45	0xbf92a5f8	-1.14569
46	0x3ebe2bdc	0.37142837
47	0xbe8ffb49	-0.28121403
48	0x3e2d5231	0.16925885
49	0xbf812381	-1.008896
50	0x3d6b210d	0.057404567
51	0x3e5b7499	0.21431197
52	0xbe0faa08	-0.14029706
53	0xbf88509a	-1.0649598
54	0xbe4eb5fe	-0.20186612
55	0xbf3630ec	-0.711684
56	0xbc13ed0a	-0.0090286825
57	0xbd3e0b08	-0.04639724
58	0xbeb8ff05	-0.36132064
59	0x3e97a178	0.29615378
60	0x3eed7020	0.46374607
61	0x3e50227c	0.20325655
62	0x3f618612	0.880952
63	0x3d27dc2c	0.040981457
64	0xbe1c46ad	-0.15261336
65	0xbe610c51	-0.21977355
66	0x3d861ab4	0.06548062
67	0xbf79afbd	-0.9753378
68	0xbf49ed76	-0.7887796
69	0xbd628b37	-0.055308547
70	0xbe93ab5e	-0.2884168
71	0xbf71ae5c	-0.94406676
72	0x3e336397	0.1751846
73	0x3e1ce0d2	0.15320137
74	0x3e7c797f	0.24655722
75	0xbcd806c7	-0.02637042
76	0x3e88bd0b	0.26706728
77	0xbd4f2c08	-0.0505791
78	0xbd1616be	-0.036642782
79	0xbea137d9	-0.3148792
80	0x3f4713c6	0.77764547
81	0x3c9c909a	0.01911192
82	0x3b4ac1ae	0.0030938196
83	0x3cb328a7	0.02186997
84	0x3e8b7d62	0.27244097
85	0xbd9c6087	-0.07635599
86	0xbf043206	-0.5163883
87	0x3ef41c99	0.47678068
88	0xbe35e7f5	-0.17764266
89	0x3dedd09e	0.11612056
90	0xbd0d433b	-0.034487944
91	0x3e6f7fe8	0.23388636
92	0x3f4fec79	0.81220204
93	0xbf6eda43	-0.9330179
94	0xbdfc72e6	-0.12326603
95	0xbe0a8443	-0.13527016
96	0x3d5ce99a	0.053933717
97	0x3e9e3784	0.3090173
98	0xbe59bab6	-0.21262631
99	0x3e1c949c	0.15291065
100	0xbdbcd8c8	-0.09221035
101	0x3e8d33ec	0.27578676
102	0x3e8daf96	0.27673024
103	0x3df240f0	0.11828792
104	0xbf3fc63d	-0.7491186
105	0x3e104a14	0.14090759
106	0xbfc66018	-1.5498075
107	0xbec9ffa0	-0.3945284
108	0x3dea6f3f	0.11447
109	0x3ca8a508	0.020586506
110	0xbf4fe85a	-0.81213915
111	0xbda5c6d4	-0.08094564
112	0xbe63b71f	-0.22237824
113	0x3e35cced	0.17753954
114	0xbf068a10	-0.52554417
115	0xbe30b42e	-0.17256233
116	0xbd3bc756	-0.0458444
117	0xbda0daa6	-0.07854204
118	0x3f2debfd	0.67938215
119	0x3e2751f6	0.1633986
120	0x3fb3e2f2	1.4053633
121	0x3e01663d	0.12636657
122	0x3c93bff9	0.018035876
123	0x3fa53996	1.2908199
124	0xbeb94051	-0.36181882
125	0x3e2a2fc0	0.16619778
126	0x3ce889fb	0.028386107
127	0x3e247677	0.16060816
128	0x3e844496	0.25833577
129	0xbd047b77	-0.032344308
130	0xbe7cad0a	-0.24675384
131	0x3d438228	0.04773155
132	0x3f401fc9	0.750485
133	0xbe8c3c2e	-0.27389663
134	0xbbafe263	-0.0053675636
135	0xbd0872a7	-0.033312466
136	0xbdbb3925	-0.09141759
137	0xbf2f11e8	-0.683867
138	0xbf823e65	-1.0175291
139	0xbf2e9ac1	-0.68204886
140	0xbfd2e394	-1.6475701
141	0xbe19ae4d	-0.15007897
142	0x3dc63b5f	0.09679293
143	0xbdb085d3	-0.08619275
144	0xbe42d0f1	-0.19025017
145	0x3f3cfbeb	0.73821896
146	0x3f3f8288	0.7480855
147	0x3d9f61d4	0.07782331
148	0x3e73b2fd	0.23798747
149	0x3f0431e0	0.51638603
150	0x3e1f02ed	0.1552846
151	0xbeaa41ca	-0.33253318
152	0x3f25bc59	0.6474052
153	0x3e8cfed3	0.27538165
154	0x3d35cc1c	0.044384107
155	0xbd908f39	-0.070585676
156	0xbd4b22ed	-0.049593855
157	0x3efdfc49	0.4960654
158	0xbf168396	-0.58794534
159	0xbf05853e	-0.52156436
160	0x3d4268e2	0.047463305
161	0xbc09b06b	-0.008403878
162	0xbebb386b	-0.3656648
163	0x3e811bd2	0.25216538
164	0xbea06fb0	-0.3133521
165	0xbd125227	-0.035722878
166	0xbf22176c	-0.6331699
167	0x3df43af2	0.119253054
168	0x3e40875b	0.18801634
169	0xbdb3de90	-0.08782685
170	0x3e870071	0.26367524
171	0xbed24a21	-0.4107218
172	0xbe06fefe	-0.1318321
173	0xbd383368	-0.0449709
174	0x3e3ecc07	0.18632518
175	0x3dfd020a	0.123539045
176	0xbcdc989b	-0.026928237
177	0xbe2512f9	-0.16120519
178	0xbdfcb4f0	-0.123391986
179	0xbe0bf1c7	-0.1366645
180	0xbdcd1fe4	-0.10015848
181	0x3ce22be2	0.027608816
182	0x3ece1ef7	0.40258
183	0xbefeb7c7	-0.49749586
184	0xbec38f7d	-0.3819541
185	0xbf9075e5	-1.1285979
186	0xbda38223	-0.07983806
187	0x3cde643e	0.027147409
188	0xbf8f8809	-1.121339
189	0x3f72def7	0.9487147
190	0x3df1b326	0.11801748
191	0x3f1f2bda	0.6217629
192	0x3e838b26	0.256921
193	0xbe094a7f	-0.13407324
194	0xbc0fae08	-0.00876952
195	0x3e23d407	0.15998851
196	0x3e9fe3e2	0.31228548
197	0x3f94db85	1.1629492
198	0x3d09ea73	0.033670854
199	0xbe16e6d6	-0.14736494
200	0x3dc6c4f1	0.09705532
201	0x3ea5f33c	0.32412136
202	0xbeed2fa8	-0.4632542
203	0xbf51e22d	-0.8198574
204	0xbf1a786f	-0.6034002
205	0xbe0963e7	-0.13417016
206	0xbe81f22c	-0.25380075
207	0x3d6640df	0.05621421
208	0x3eaa241c	0.33230674
209	0xbe4e3e69	-0.20140995
210	0xbd8a389c	-0.06749079
211	0xbf874ce9	-1.0570346
212	0xbe27b90c	-0.16379184
213	0x3beaa5ce	0.0071608787
214	0xbf901b16	-1.1258266
215	0x3e54130e	0.20710394
216	0xbf2e7287	-0.68143505
217	0x3eed6f72	0.4637409
218	0xbeb24f26	-0.3482601
219	0xbe27f038	-0.1640023
220	0xbe51d15d	-0.20490022
221	0xbe0e63d6	-0.13905272
222	0x3ef9260a	0.48661834
223	0xbee44e2b	-0.44590887
224	0xbfdaef0e	-1.7104204
225	0x3d12997b	0.0357909
226	0x3dcf4842	0.10121204
227	0xbfd24bd0	-1.6429386
228	0x3c395a69	0.011313059
229	0xbf750023	-0.95703334
230	0xbf082896	-0.5318693
231	0xbfbf25cf	-1.4933413
232	0x3d978894	0.07399097
233	0x3e7ccea2	0.24688199
234	0x3e49b893	0.19699316
235	0x3f06d917	0.52675
236	0x3e9cbd27	0.30613062
237	0xbedae8a7	-0.42755625
238	0xbd0db373	-0.034594964
239	0xbd711b85	-0.058864135
240	0xbf2293be	-0.63506687
241	0xbedce46b	-0.4314302
242	0xbf434aa3	-0.7628576
243	0xbe987f55	-0.29784647
244	0xbf15ddf7	-0.58541816
245	0x3da09f25	0.078428544
246	0x3e258da9	0.1616732
247	0xbf038538	-0.5137515
248	0xbe4add95	-0.1981109
249	0xbf8bd6e9	-1.092496
250	0x3e0c7de1	0.13719894
251	0x3df206f7	0.11817735
252	0xbd06420f	-0.032777842
253	0x3e5869c2	0.21134093
254	0xbe73403f	-0.23754977
255	0xbe125f8f	-0.14294265

fc1.bias f4 [128]
0	0xbebe600c	-0.37182653
1	0xbfb3fb20	-1.4061012
2	0xbfc09c8e	-1.5047777
3	0xbf993bef	-1.1971415
4	0xbf323277	-0.69608253
5	0xbf69301f	-0.9108905
6	0x3e7a1249	0.24421038
7	0xbe16d015	-0.14727814
8	0xbf5f71ac	-0.87282825
9	0x3fa8ff4e	1.3202913
10	0xbec472d6	-0.38368863
11	0x3f6c18e1	0.9222546
12	0xbea0323a	-0.3128832
13	0xbd0e4014	-0.03472908
14	0xbf6e4faf	-0.9309034
15	0xbd4c675c	-0.04990326
16	0xbf6468a3	-0.8922216
17	0xbfd9538a	-1.6978619
18	0xbf005263	-0.5012571
19	0x3e63ede1	0.22258712
20	0xbf8c2872	-1.0949843
21	0x3e9e4266	0.30910033
22	0xbf86a3c2	-1.0518725
23	0xbf0093e8	-0.5022569
24	0x3f052be1	0.5202008
25	0x3f11e256	0.56985986
26	0xbf67e15b	-0.9057824
27	0xbf8b30d8	-1.0874281
28	0x3e9aabd6	0.30209225
29	0xbf0208a4	-0.50794435
30	0x3f226912	0.63441575
31	0xbcc7cc49	-0.024389403
32	0x3e8f6bfc	0.28012073
33	0xbf8879b0	-1.0662136
34	0x3fcd6aaa	1.6048176
35	0xbe48c2fb	-0.19605629
36	0x3e7e70b5	0.24847682
37	0xbf748a93	-0.9552395
38	0x3f1e7dc5	0.6191066
39	0xbedeec11	-0.4353948
40	0x3ff9da4c	1.9519744
41	0xbf9562f3	-1.1670822
42	0xbf680e46	-0.9064678
43	0x3e8a7ef4	0.27049983
44	0xbf661276	-0.8987192
45	0x3fe50477	1.7891988
46	0xbf2fabdb	-0.68621606
47	0x3fc54a1d	1.5413243
48	0x3f9895a9	1.1920673
49	0xbf9a424e	-1.2051485
50	0xbeea671b	-0.45781788
51	0x3f7f8f49	0.9982801
52	0xbf60ee11	-0.8786326
53	0xbec8a1eb	-0.39186034
54	0x3f71d600	0.94467163
55	0xbf7e44e1	-0.9932385
56	0xbe3751d0	-0.17902303
57	0x3e246da5	0.16057451
58	0x3e3ceb4e	0.18449137
59	0xbf751676	-0.957374
60	0x3fa02b97	1.2513303
61	0x3f8a6182	1.0811007
62	0x3f3d4e37	0.7394747
63	0xbf0b9526	-0.5452446
64	0x3fa3caf3	1.279631
65	0xbf6d92ee	-0.9280232
66	0xbfbf9787	-1.4968117
67	0xbf58b9d0	-0.8465853
68	0x3d60f0f6	0.0549173
69	0xbf8c104e	-1.0942476
70	0xbe93ef6e	-0.28893608
71	0xbe21a7d3	-0.15786676
72	0xbf76d361	-0.9641629
73	0x3f51fe65	0.820288
74	0xbf75c1b0	-0.9599867
75	0x3eb80580	0.35941696
76	0x3f75f28c	0.9607322
77	0xbf25113c	-0.6447942
78	0xbfbc11d6	-1.4692943
79	0x401b8203	2.4298103
80	0xbf9a227e	-1.2041776
81	0xbf6992a6	-0.9123939
82	0xbf75535a	-0.9583031
83	0x3e3d7323	0.18500952
84	0x3fea1809	1.8288585
85	0xbf0382df	-0.5137157
86	0xbfb27b86	-1.3943946
87	0xbfaf3a57	-1.3689679
88	0xbf3078be	-0.6893424
89	0xbf8c69ae	-1.0969751
90	0x3f124fdd	0.5715311
91	0x3f2599af	0.6468763
92	0xbe114a3d	-0.14188476
93	0x3fce4aae	1.611654
94	0xbf0cf819	-0.55066067
95	0xbf8ffb9d	-1.1248661
96	0xbf6c19ea	-0.9222704
97	0x3e10df81	0.1414776
98	0xbf84084c	-1.0315032
99	0x3e3f1be3	0.18662982
100	0x3cc3c4d9	0.023897575
101	0xbf11e668	-0.569922
102	0xbdd81eb6	-0.10552733
103	0x3ea9acb0	0.33139563
104	0xbf16db1a	-0.5892807
105	0xbf1253e5	-0.5715926
106	0x3fccb2f6	1.5992115
107	0xbf9eb9bf	-1.2400435
108	0xbf7e523a	-0.9934422
109	0xbf67e047	-0.90576595
110	0xbfc2a4ae	-1.5206506
111	0xbf6064e2	-0.87653935
112	0xbfa49c5e	-1.286022
113	0xbf8a78cf	-1.0818118
114	0x3f3c0bf6	0.7345575
115	0xbf6c4f9d	-0.9230898
116	0xbe90b605	-0.2826387
117	0xbf82bb5c	-1.0213428
118	0xbe0f7df9	-0.14012899
119	0xbf0f6c88	-0.5602498
120	0xbf8836c2	-1.0641711
121	0xbebb5ebc	-0.36595714
122	0xbf3a8904	-0.7286532
123	0xbf428abe	-0.75992954
124	0xbddd1243	-0.10794499
125	0xbe977957	-0.29584762
126	0xbf879862	-1.0593379
127	0xbeb7277e	-0.35772318

fc2.weight f4 [128, 128]
0	0xbe4b3def	-0.19847845
1	0xbec1eb37	-0.37874767
2	0x3e273550	0.16328931
3	0x3e202af8	0.15641391
4	0x3b4d52be	0.0031329836
5	0xbe1948dc	-0.149692
6	0xbdb8c8ee	-0.09022699
7	0xbf320f0d	-0.69554216
8	0xbe271f0d	-0.16320439
9	0xbdde8edc	-0.10867092
10	0xbd822d9e	-0.06356357
11	0x3dc1beae	0.094601974
12	0xbc98231c	-0.018571429
13	0xbcd2f234	-0.025750257
14	0xbebafb6e	-0.3651995
15	0xbda36f4c	-0.079802126
16	0xbd9e6da8	-0.07735759
17	0xbe29fb78	-0.16599834
18	0xbe52f873	-0.20602588
19	0xbd683019	-0.056686494
20	0xbda3613d	-0.07977531
21	0xbd545fd4	-0.0518492
22	0xbe2a9ec1	-0.16662122
23	0xbc5dc164	-0.013534877
24	0x3dc338ce	0.09532319
25	0xbd26f735	-0.0407631
26	0x3dc3b0ba	0.09555192
27	0x3e00f505	0.12593468
28	0xbeab507c	-0.33459842
29	0xbecd4897	-0.40094444
30	0xbf31790e	-0.6932534
31	0xbf552db0	-0.8327284
32	0xbe131cc8	-0.14366448
33	0xbec48d0b	-0.38388857
34	0xbef6f942	-0.48237044
35	0x3e0d4706	0.13796625
36	0xbe6ba415	-0.23011811
37	0xbf00e340	-0.50346756
38	0xbe2686b5	-0.16262324
39	0xbf15c4dc	-0.5850351
40	0xbdd50d44	-0.10402921
41	0xbef7482a	-0.48297244
42	0xbaf1506e	-0.0018410811
43	0xbda0927d	-0.078404404
44	0xbdedd375	-0.11612598
45	0xbd44501b	-0.047927957
46	0xbd844aa3	-0.06459548
47	0xbe557aa4	-0.20847565
48	0xbd819b87	-0.063284926
49	0xbdc0a8f3	-0.094072245
50	0xbe1549d0	-0.14578938
51	0xbdc7b08f	-0.09750473
52	0x3d9096af	0.070599906
53	0xbd486c73	-0.04893155
54	0x3c967ae4	0.018369146
55	0xbe2d2be1	-0.1691127
56	0xbee5b299	-0.44862822
57	0xbed0e46c	-0.40799272
58	0x3e69a970	0.22818542
59	0xbf160617	-0.5860304
60	0xbe05ab5f	-0.13053654
61	0xbde2eba9	-0.11080105
62	0xbd4b9da3	-0.04971088
63	0x3c9e7063	0.0193407
64	0xbe29f27d	-0.16596408
65	0xbd875c93	-0.06609454
66	0xbd8abdcf	-0.06774484
67	0xbca4950d	-0.020090604
68	0xbd58cb14	-0.052928045
69	0xbe0dc33f	-0.13844012
70	0xbc740a16	-0.014894983
71	0xbe52219c	-0.20520633
72	0xbee93d3d	-0.45554534
73	0xbd6dd0b9	-0.05806038
74	0x3ea52530	0.32254934
75	0x3d9da7ff	0.07698058
76	0xbeaa3229	-0.33241394
77	0x3d83599f	0.06413578
78	0xbdb560aa	-0.08856328
79	0xbda62959	-0.08113355
80	0xbdca263f	-0.09870576
81	0x3de4aed4	0.11166158
82	0xbe0b280f	-0.135895
83	0xbdb143ed	-0.08655534
84	0xbe86dae3	-0.26338872
85	0xbefb515e	-0.49085516
86	0xbd843dbe	-0.06457089
87	0x3e3b06c1	0.18264295
88	0xbd929d70	-0.07158935
89	0xbe75dbb6	-0.24009594
90	0xbd5099d0	-0.050927937
91	0x3e40442a	0.18776003
92	0x3e013993	0.12619619
93	0xbd61b329	-0.0551025
94	0x3d6b4974	0.057443097
95	0x3db7cb69	0.08974344
96	0xbe8f1e1f	-0.27952668
97	0x3d51aa13	0.051187586
98	0xbedef213	-0.43544063
99	0xbe042393	-0.12904195
100	0xbf3a1171	-0.72682863
101	0xbe8baed3	-0.27281818
102	0xbdcbc1f7	-0.09949105
103	0xbc5ef8b7	-0.013609103
104	0xbd27b3e1	-0.04094303
105	0xbd70a16e	-0.0587477
106	0xbc9fd24b	-0.019509455
107	0xbe2af1f5	-0.16693862
108	0xbe81489e	-0.25250715
109	0x3bf0b10d	0.007345325
110	0xbe1cca20	-0.1531148
111	0xbd17bad0	-0.037043393
112	0x3d99c95f	0.075091116
113	0xbf0529ae	-0.52016723
114	0xbe84db8e	-0.25948757
115	0x3e293ecc	0.16527861
116	0xbe344575	-0.17604621
117	0x3e087d3e	0.13329026
118	0x3e0f0f46	0.1397067
119	0xbdafc6ad	-0.08582816
120	0xbcc106b3	-0.023562765
121	0x3dd602f7	0.10449784
122	0xbe57a1d0	-0.2105782
123	0x3df65a45	0.12028936
124	0xbdb60e1a	-0.088894084
125	0xbca1dc2d	-0.019758308
126	0x3cad7f78	0.021178946
127	0x3c7e1465	0.015507792
128	0xbeb816ce	-0.359549
129	0x3e5f392b	0.21799152
130	0x3dbaa699	0.09113807
131	0x3db1c481	0.08680058
132	0x3d577bc8	0.05260828
133	0x3cb0601a	0.0215302
134	0x3de7018f	0.11279594
135	0xbdd7aa04	-0.10530475
136	0x3e0ffbee	0.14060947
137	0xbde50ea2	-0.111844316
138	0xbe041529	-0.12898697
139	0xbe293042	-0.16522315
140	0xbc9498bb	-0.018139234
141	0xbe5d2a9c	-0.21598285
142	0xbeba75d6	-0.36418027
143	0xbe3a7892	-0.18210056
144	0x3d9661e4	0.0734289
145	0xbe4b8ff7	-0.19879137
146	0xbcfd856e	-0.030947413
147	0x3e0dea4e	0.13858911
148	0xbe0d5ce7	-0.1380497
149	0xbd42c01c	-0.04754649
150	0xbc70d7a8	-0.014699854
151	0xbd1e3850	-0.038627923
152	0xbe962c5f	-0.29330727
153	0xbec14277	-0.3774602
154	0xbdba81c3	-0.09106781
155	0xbd57c1df	-0.052675124
156	0xbef7641e	-0.4831857
157	0xbf024c17	-0.50897354
158	0xbe5535c2	-0.20821288
159	0xbd9a090c	-0.07521257
160	0xbdba7572	-0.09104432
161	0xbe16f58e	-0.14742109
162	0xbec27360	-0.3797865
163	0x3cf5a5cd	0.029986287
164	0x3d8a3c82	0.06749822
165	0xbd7566ea	-0.0599126
166	0x3c022eca	0.007945726
167	0xbbaeaa8e	-0.0053303903
168	0xbe7cab56	-0.24674734
169	0x3de26868	0.1105507
170	0x3e715cbd	0.23570533
171	0xbed49bc3	-0.41525087
172	0x3e7431a1	0.23847057
173	0xbe93efb7	-0.28893825
174	0xbdb8cff5	-0.0902404
175	0x3cd05491	0.02543095
176	0xbe4a572f	-0.1975982
177	0xbdecd780	-0.11564541
178	0xbec35a66	-0.38154906
179	0x3daba43e	0.08380936
180	0x3dfe333c	0.12412116
181	0xbd99e5e4	-0.07514551
182	0xbd28d8a2	-0.041222222
183	0xbf2057b3	-0.6263382
184	0xbe25ec12	-0.16203335
185	0xbe55c9ef	-0.20877813
186	0xbd946357	-0.0724551
187	0xbe9b0f8c	-0.302853
188	0xbe8618e4	-0.26190865
189	0xbc839c81	-0.016065838
190	0xbeb12706	-0.34600085
191	0x3e71d777	0.2361735
192	0xbe9256bb	-0.28581795
193	0xbc9a0737	-0.018802268
194	0x3c4dc9e3	0.012560341
195	0x3ca0d354	0.01963202
196	0xbe87cf06	-0.26525134
197	0xbf416f63	-0.7556059
198	0x3e1b27d3	0.1515191
199	0x3d337346	0.043811105
200	0xbe3c6cf6	-0.1840094
201	0xbe5413a8	-0.20710623
202	0xbeea4eaa	-0.4576314
203	0xbebc1382	-0.36733633
204	0xbe2746ff	-0.16335677
205	0xbd39a1e8	-0.04532042
206	0xbd432172	-0.047639318
207	0xbdb8047c	-0.0898523
208	0xbe4a4e1e	-0.19756362
209	0xbdb8c837	-0.09022563
210	0xbee8a930	-0.4544158
211	0x3e72aaab	0.23697917
212	0xbdce44d7	-0.10071724
213	0xbe804476	-0.25052232
214	0xbe689671	-0.22713639
215	0x3e8e39fe	0.2777862
216	0x3ddc9d55	0.10772196
217	0xbeb87a58	-0.3603084
218	0xbdd1a047	-0.102356486
219	0x3e0eca87	0.13944446
220	0xbf04a5a7	-0.51815265
221	0xbe2094b5	-0.15681727
222	0xbea6c78c	-0.32574117
223	0xbea9c4b8	-0.33157897
224	0xbe8e0940	-0.27741432
225	0xbe8ddb13	-0.27706203
226	0x3e5a2238	0.21302116
227	0xbd7c6d85	-0.061627883
228	0xbec5a1de	-0.38600057
229	0xbd71500a	-0.05891422
230	0xbf1b3eda	-0.6064278
231	0xbe46d1fb	-0.19416039
232	0x3eac06f6	0.3359906
233	0xbf0501c3	-0.51955813
234	0xbe945825	-0.289735
235	0x3de17188	0.110079825
236	0xbd696514	-0.05698116
237	0xbf02431a	-0.5088364
238	0xbf039924	-0.5140555
239	0xbdb1c451	-0.086800225
240	0xbcd7f75c	-0.026363067
241	0xbed9fb60	-0.42574596
242	0xbeb1b66a	-0.34709483
243	0xbe03499e	-0.12821051
244	0xbe9a0fb0	-0.30090094
245	0xbde26d19	-0.11055965
246	0xbc0abb48	-0.008467503
247	0x3d7812e5	0.060564894
248	0xbe08140a	-0.13288894
249	0x3c1928d4	0.009348113
250	0xbdf2a12d	-0.11847148
251	0x3e517ef7	0.2045859
252	0xbe8086ad	-0.2510275
253	0xbe5a7a53	-0.21335725
254	0x3d80898d	0.06276236
255	0xbe72a702	-0.23696521

fc2.bias f4 [128]
0	0x3ce5b4f0	0.02804038
1	0xbf183f7c	-0.5947187
2	0x3e5c4607	0.21511088
3	0x3ec1afd6	0.37829465
4	0x3da8e239	0.082462735
5	0xbd36614e	-0.04452639
6	0x3dc86696	0.09785192
7	0x3e0fe3eb	0.14051788
8	0xbeb2a130	-0.348886
9	0xbeda512c	-0.42640054
10	0xbe15ad5c	-0.14616913
11	0xbd4814f3	-0.048848104
12	0xbef6ccd8	-0.48203158
13	0xbe1fad94	-0.15593559
14	0x3d61f39c	0.055163965
15	0xbd842dbb	-0.06454035
16	0xbe92cb88	-0.28670907
17	0xbd456c16	-0.048198782
18	0xbd3c7336	-0.04600831
19	0xbdc5744b	-0.09641322
20	0xbcabe2f9	-0.020982252
21	0xbdb9e7a6	-0.090773866
22	0xbee3b42c	-0.44473398
23	0xbf4b73c1	-0.794735
24	0x3dd4d364	0.10391882
25	0x3e117566	0.1420494
26	0x3e25e951	0.16202284
27	0x3fa92f12	1.321749
28	0x3effd0a6	0.49963874
29	0xbf2a4cc4	-0.66523385
30	0xbd1d4d17	-0.038403597
31	0x3f6078a1	0.87684065
32	0xbf317446	-0.69318044
33	0xbe93180f	-0.28729293
34	0xbe9c5bf8	-0.30538917
35	0x3e48d791	0.19613482
36	0xbe41941b	-0.18904154
37	0xbf9fc5ea	-1.2482274
38	0x3de6f734	0.11277619
39	0xbe9dc998	-0.30817866
40	0xbde55be1	-0.11199165
41	0xbf013868	-0.50476694
42	0xbe80b55a	-0.2513836
43	0x3fa541c7	1.2910699
44	0x3d0f2eaf	0.03495663
45	0xbed38555	-0.41312662
46	0xbdb5b82a	-0.08873017
47	0xbe414907	-0.18875514
48	0x3da804bc	0.08204028
49	0x3eefe5f8	0.4685514
50	0xbd04f61f	-0.032461282
51	0xbf37dc35	-0.71820384
52	0xbebcd0f5	-0.36878172
53	0x3cd00ec0	0.025397658
54	0xbe705d12	-0.23473004
55	0x3d76b481	0.060230736
56	0xbe1bb24d	-0.15204735
57	0xbecf4114	-0.40479338
58	0x3ed16983	0.40900812
59	0x3f1556a7	0.58335346
60	0xbe88f6c9	-0.26750782
61	0x3f233838	0.6375766
62	0xbedef1cf	-0.4354386
63	0x3f2454c2	0.6419183
64	0xbc92fd88	-0.017943159
65	0xbcf68d71	-0.030096741
66	0x3e0328dd	0.12808557
67	0xbe1783b1	-0.1479633
68	0xbd3b6cb6	-0.04575797
69	0xbf484a6c	-0.7823856
70	0xbd22b368	-0.039721876
71	0x3f386f00	0.7204437
72	0xbf13bff1	-0.57714754
73	0xbf0f5364	-0.5598662
74	0xbe7524af	-0.23939775
75	0x3da41999	0.08012695
76	0x3daf1b53	0.085501336
77	0x3e9b794f	0.3036599
78	0xbf01e983	-0.50746936
79	0x3b9cd73d	0.0047864006
80	0xbe8ba4fe	-0.27274317
81	0x3f0a3071	0.53980166
82	0xbe93a4aa	-0.28836566
83	0xbda6e2e5	-0.081487454
84	0x3f2e301c	0.6804216
85	0xbedfd120	-0.43714237
86	0xbe22aad1	-0.15885474
87	0xbe97e9b0	-0.29670477
88	0xbeb0340e	-0.34414715
89	0x3e39319d	0.18085332
90	0xbe1aec00	-0.1512909
91	0xbd95a344	-0.07306531
92	0xbeb6d4ee	-0.35709327
93	0xbe552c20	-0.20817614
94	0x3f369071	0.7131415
95	0xbdbf4c97	-0.0934078
96	0xbe24c74b	-0.16091649
97	0xbeca1767	-0.3947098
98	0xbdba7102	-0.09103586
99	0xbe06d58b	-0.13167398
100	0xbf158788	-0.5840993
101	0xbcfa705e	-0.030571159
102	0xbefaf6da	-0.49016458
103	0x3f5aded6	0.8549627
104	0x3e367dd1	0.17821433
105	0x3ed07df7	0.40721104
106	0xbdc74a5a	-0.09730978
107	0xbdeea9e9	-0.116535015
108	0xbf0f4e8f	-0.55979246
109	0x3e9e0bff	0.30868527
110	0xbf0907b9	-0.5352741
111	0xbcb946b6	-0.022616725
112	0x3ecb1866	0.39667052
113	0x3e154697	0.14577709
114	0xbc3a9e76	-0.011390319
115	0x3aedaaac	0.0018132529
116	0x3f606758	0.8765769
117	0xbf9baa02	-1.2161257
118	0x3eb8ddac	0.36106622
119	0xbf34edd2	-0.70675385
120	0xbd71abd6	-0.059001766
121	0xbdbd663b	-0.092480145
122	0xbf0763d2	-0.5288669
123	0x3e5916db	0.21200125
124	0xbf367b89	-0.7128225
125	0xbde634a1	-0.11240507
126	0x3ebf72c9	0.37392262
127	0x3e9e123f	0.30873296
