models/good_maddpg_weights.pt (torch, 899149 bytes, 56 tensors)

fc1.weight f4 [128, 16]
000000 df 88 18 3f f9 17 f9 bd 81 22 8e 3f cc 17 80 3f
       0.5958385 -0.121627755 1.110428 1.0007262
000010 fe ae ea be 4c 3e 05 3e ed 04 41 3e c9 67 bf be
       -0.45836633 0.13012046 0.18849535 -0.3738387
000020 36 3c f5 3e 38 31 fc be 0c 46 88 be 9c ef 72 3e
       0.478975 -0.492563 -0.26615942 0.23724216
000030 e1 a0 a6 be a3 ce b7 be 84 55 18 be 8c 8a 38 3e
       -0.32544616 -0.3589984 -0.14876372 0.18021601
000040 d0 1c 4b 3d 93 32 75 3e a8 35 0f bf 07 00 38 3f
       0.049588025 0.23945074 -0.5594125 0.7187504
000050 3a fe 2b be b7 d2 1f 3b e5 2e 59 3d 90 5d b4 3e
       -0.16796198 0.002438707 0.053023238 0.35227633
000060 be e1 44 3d db bb 6f bd 82 f4 c6 3e 13 4a 86 3d
       0.048066847 -0.058528762 0.3885842 0.06557097
000070 0d 56 d7 3e 7a 02 00 bf 40 cd f3 3d ec 9f 44 be
       0.4205784 -0.5000378 0.11904383 -0.1920163
000080 34 54 dc 3e b1 04 df 3e 50 65 50 3f 1d d0 c6 3f
       0.43032992 0.43558267 0.8140459 1.5532261
000090 bc 2c 20 bf 97 f9 6b 3d 89 d8 0b be e6 c1 72 3c
       -0.6256826 0.057611074 -0.1365682 0.014816737
0000a0 f2 5c a4 3a 72 70 4e bf da 15 b1 be 35 d6 40 be
       0.0012539907 -0.8064033 -0.34586984 -0.18831713
0000b0 9a 0d 34 be 45 d3 06 bf 84 6c d0 bd a8 e3 0b 3e
       -0.17583314 -0.5266612 -0.10176948 0.13661063
0000c0 5c 17 4c 3e 4f 9e 7c 3c 46 cd c5 be dd a0 e9 3e
       0.19930786 0.015418603 -0.38633174 0.4563054
0000d0 bd 51 3b 3f 8d b6 da bc 1c e7 e5 bd fe 29 03 3e
       0.731716 -0.026698375 -0.11225721 0.12808987
0000e0 6c 29 1c bd bc 3d 49 3f 3b 0b a1 3e fa 96 7a be
       -0.03812544 0.78609824 0.3145388 -0.24471655
0000f0 eb 5e 9c 3e 41 c9 53 bf 84 a9 d7 3d 80 e8 94 bc
       0.30541167 -0.82728964 0.105303794 -0.01817727
000100 85 37 8e 3e 8f 9f f0 3e 93 8c 44 3d 04 40 a3 3f
       0.27776733 0.46996734 0.047985625 1.2753911
000110 24 25 fa be 5d 2b cb 3d a3 07 61 3d b7 c9 a9 3e
       -0.4885646 0.0992038 0.054938924 0.3316171
000120 f4 e2 81 3e 38 7c 2e bf 34 21 16 39 96 09 94 be
       0.25368464 -0.6815829 0.00014317484 -0.28913563
000130 e5 36 a2 bc 8b 9f 62 be 52 52 77 3e 0e 00 2b 3e
       -0.019801566 -0.22131173 0.24152496 0.1669924
000140 41 0d 40 3f e8 64 bc 3d 0b c3 79 3f 96 3f 77 3f
       0.75020224 0.09198934 0.97563237 0.965814
000150 7f b9 72 bf d1 d0 e7 3d 7a cf 86 3c 0e be 9a bd
       -0.94814295 0.113191254 0.016456354 -0.07555781
000160 68 16 3f 3e bf 2a 63 bf 47 b4 aa be 7a 71 c3 3e
       0.18660891 -0.887371 -0.33340666 0.38172513
000170 cf ea 73 bf 42 60 85 3e 36 3d 14 be 98 f0 de 3d
       -0.95280164 0.2605 -0.14476475 0.10885733
000180 2c ec aa 3e 40 02 b5 3d f1 d4 df 3e e5 33 2a be
       0.3338331 0.0883832 0.4371715 -0.16621359
000190 10 29 2c 3f ea 25 c0 bd 38 3d 7c be 79 f4 37 3e
       0.67250156 -0.093822315 -0.24632728 0.17964353
0001a0 a0 de c5 be d8 13 69 3f 87 2e 4a 3d 99 cf 09 bf
       -0.38646412 0.91045904 0.04936078 -0.53832394
0001b0 33 a3 8c be 27 5a df be 80 3b a6 3c 60 9e f7 bd
       -0.2746826 -0.43623468 0.020292044 -0.120907545
0001c0 c2 f5 33 3e ad 59 35 3f a0 dc 9a 3e a3 46 ed 3f
       0.17574218 0.7083996 0.3024645 1.8537182
0001d0 2b 9f 04 bf 05 19 a0 bd a8 72 93 bc b8 bc 33 3e
       -0.5180537 -0.07817272 -0.017999008 0.17552459
0001e0 ac 4a 8d 3d a1 3b 18 bf 00 ee 09 bb e8 dc 07 be
       0.06899008 -0.59465986 -0.00210464 -0.13267863
0001f0 23 1d 88 3e da a2 0e bf b6 00 5c be 38 7f 2b 3e
       0.2658473 -0.5571724 -0.21484646 0.16747749
000200 e1 0a 8d bb 7f 04 42 be 3f 5e 7f 3f f4 1b b5 bf
       -0.0043042754 -0.18947028 0.99753183 -1.4149156
000210 a4 6b 24 bf 3a b0 29 bd 77 6c c4 bd f0 1a 8f 3e
       -0.64226747 -0.04142783 -0.095910005 0.2795024
000220 ee b3 c8 bd db 0a 08 bf db 67 75 bf 35 31 fc 3e
       -0.09799944 -0.53141564 -0.95861596 0.49256292
000230 06 7a 2c bf 90 86 af 3e 24 df 0d 3e 60 74 cf 3d
       -0.67373693 0.3428235 0.13854653 0.10129619
000240 e0 f3 35 be 5d ed 1b 3f 91 e8 e8 3e 96 9e 22 3f
       -0.17768812 0.6090906 0.45489934 0.6352323
000250 f3 68 04 3e 40 d0 b3 3b ad 09 d3 bd 64 20 48 3f
       0.1293066 0.005487472 -0.1030458 0.78174424
000260 c7 4e 04 3f e7 60 c5 bd 60 88 f6 be 59 6f 94 3e
       0.51682705 -0.09637623 -0.4815092 0.28991202
000270 e6 a3 69 be 2e ea cf 3d 10 f0 af 3d 0c fe d1 3d
       -0.22816429 0.10152088 0.0859071 0.10253534
000280 ee 06 d3 3d a9 54 7c 3e 0e 6f df bf f8 59 65 3f
       0.10304056 0.2464167 -1.7455766 0.89590406
000290 74 c4 4c bf 54 2f 0a bd 12 3c 1e be 19 73 7d be
       -0.79987264 -0.033736542 -0.15452603 -0.24750938
0002a0 d9 86 fe be 94 70 1a bf e7 7a 63 3f 77 03 2a bf
       -0.49712256 -0.6032803 0.8885941 -0.66411537
0002b0 d6 0d 72 3f 8c 81 d5 be 72 3c 35 3e 7e da 67 3e
       0.9455236 -0.417004 0.1769884 0.22641942
0002c0 9a b2 96 3d 4c 53 a8 3e d6 97 3c 3f cd b1 b3 be
       0.07358284 0.3287605 0.73669183 -0.3509659
0002d0 20 88 82 3e 0e 7b 46 3e cb 65 8b bd 88 00 ab 3e
       0.2549448 0.19382879 -0.06806525 0.33398843
0002e0 2a 3e a5 3e c2 0b 29 3f 6f a4 12 be 4c 8c 72 3f
       0.3227399 0.66033566 -0.14320539 0.94745326
0002f0 26 e8 27 3d b9 0e 80 3f 8c 5b 5f 3e 5a 23 42 be
       0.04099288 1.0004493 0.21812266 -0.18958798
000300 40 ac d1 be 45 65 ca 3d f6 f6 4a bf 25 c2 11 3e
       -0.4095173 0.09882597 -0.7928308 0.14234217
000310 86 0b 3d bf b9 9d 31 3d 36 e3 c0 bd db be a5 3c
       -0.7384571 0.043363307 -0.09418337 0.020232609
000320 ea 38 b8 3d 52 8a 64 bf 28 d7 89 3d 0c 65 e7 3e
       0.089952305 -0.8927356 0.06730491 0.4519428
000330 40 e6 8f 3e 56 09 27 3c 54 6c a0 bd 3c 20 da bd
       0.28105354 0.010195097 -0.07833162 -0.106506795
000340 4d e0 36 be 2e 78 39 be 9c 43 9d 3e b6 ab fd bf
       -0.17859001 -0.18112251 0.30715644 -1.9818027
000350 c2 88 12 3f 91 4e eb 3c 60 ac 95 bd df 81 ce be
       0.57239926 0.028723987 -0.073082685 -0.4033346
000360 ae 05 15 bf 30 ad 18 3f a0 1b 3d bf 88 0a 0e 3e
       -0.5821179 0.59639263 -0.7387028 0.13871205
000370 11 d8 0e bf d8 1b c0 3e 2c 46 37 3e 24 13 38 3e
       -0.5579844 0.37521243 0.17897862 0.17976052
000380 e6 86 cf bd 1c 16 e5 3e a9 16 8d be 14 a9 c7 3f
       -0.10133152 0.4474343 -0.2755635 1.5598474
000390 c4 1f 93 bf 56 7a 5f 3e ef 04 09 3e bb bf 2d 3e
       -1.1494069 0.21824011 0.13380788 0.1696767
0003a0 b5 85 89 3e 4f 5f 72 bf e5 fb 81 3e b2 af 6f bf
       0.26859823 -0.9467668 0.25387493 -0.93627465
0003b0 8b a5 08 3f 23 63 0c bf 1c ad 54 be 44 a3 2c be
       0.533776 -0.5483877 -0.20769161 -0.16859156
0003c0 14 37 d5 3e 94 57 5f be 7a ee 93 3f 5d 39 11 bf
       0.41643584 -0.21810752 1.1557152 -0.56728154
0003d0 a2 d1 43 bf 1a b7 90 3d 01 64 4d bd aa ea f0 be
       -0.7649175 0.07066174 -0.0501442 -0.47054034
0003e0 cd 3d 87 3e f6 7a 37 bf 60 e1 9b bf 2d 6a f1 3e
       0.26414338 -0.71672 -1.2178154 0.47151318
0003f0 d4 e9 85 bf 66 2c d6 3e 38 4e b7 bd 98 26 39 3d
       -1.0461984 0.41830748 -0.08950466 0.04520282

fc1.bias f4 [128]
000000 ba 95 e7 be 56 a1 7c 3d 23 d7 4f bf 30 1a 17 3f
       -0.4523142 0.0616773 -0.8118765 0.59024334
000010 00 40 34 bf 9d c6 67 bf d4 2e 58 3f 68 3c 09 bf
       -0.70410156 -0.90537435 0.84446454 -0.536078
000020 7e 59 92 be a2 dc 0d be 22 b3 43 bf fc 9d 8c 3e
       -0.28583902 -0.13853696 -0.7644521 0.27464283
000030 cc 55 17 bf 4e 19 33 3f 01 28 7d bf 2f fe d2 be
       -0.5911529 0.69960487 -0.98889166 -0.41209552
000040 89 c7 8c 3f f3 05 53 bf 4f 32 5a bf 18 77 a5 be
       1.0998393 -0.8243095 -0.85233015 -0.32317424
000050 df 78 eb 3e 35 67 4b bf 8b 14 85 3e 3e 4f dd 3c
       0.45990655 -0.79454356 0.25992236 0.027015325
000060 1b 2b 3b bf 1b 4e 6e 3d 9c b5 65 bf 7f 38 d9 be
       -0.7311265 0.058179956 -0.8973024 -0.42425916
000070 fe 5c d1 3e de e6 80 bf 74 65 06 3f 99 45 84 bf
       0.4089126 -1.0070455 0.52498555 -1.033374
000080 e8 3a 85 3f 97 28 3f bf 71 31 97 3e 61 8f 5d be
       1.0408602 -0.7467131 0.29529908 -0.21636726
000090 ba ac 8e 3f f6 53 02 bf 95 e8 a3 be eb a3 77 bf
       1.1146462 -0.50909364 -0.32013384 -0.96734494
0000a0 78 e2 f9 3d 09 e3 95 be ff 10 58 bf f8 4a 26 3f
       0.122013986 -0.29274777 -0.84400934 0.64958143
0000b0 b4 dc 31 bf 7f a1 22 bf 34 6a 2b 3f 40 fd 1e bf
       -0.6947739 -0.63527673 0.6695893 -0.6210518
0000c0 64 49 4c 3e fe a1 0f 3d 2d 7a 0e bf f6 b7 d3 3c
       0.19949871 0.035066597 -0.55655175 0.025844555
0000d0 6d 45 12 bf 04 89 08 3f 54 fd 0d 3e d9 2c c4 3f
       -0.57137185 0.5333407 0.13866168 1.5326186
0000e0 85 ff 93 bf 4c e8 95 3e 39 0c 70 3f 35 04 b5 be
       -1.1562353 0.2927879 0.9376865 -0.35354772
0000f0 10 5b 3a 3e c6 80 55 bf 6a 83 65 bf 2f fa 16 3f
       0.181988 -0.8339962 -0.89653647 0.589755
000100 fe 13 84 3e 54 65 21 bf 14 6e e2 be 41 37 9d 3e
       0.25796503 -0.6304524 -0.44224608 0.30706218
000110 ea d0 71 bf ab 7c 7e bf f1 ab 3e be 74 77 54 bf
       -0.944594 -0.9940898 -0.18620278 -0.8299477
000120 4d d0 17 3f 8c b9 cb be 8c 11 c3 3e 7a 0c bb 3e
       0.59302217 -0.3979 0.38099325 0.36532956
000130 90 b6 99 3e 8c ac c5 be 8f d3 00 bf ae 63 af be
       0.30022097 -0.38608205 -0.5032281 -0.34255737
000140 91 27 9e be cb 65 e1 3d a9 69 cd 3d 6f f5 c4 be
       -0.30889562 0.110057436 0.10029919 -0.384685
000150 10 70 51 3e 61 6c d5 be 6d 2b 0b 3f a0 01 af be
       0.20452905 -0.4168425 0.5436314 -0.34180927
000160 40 ac e3 3e 55 c9 9e be d6 c0 83 bf 7c 51 0f bf
       0.44467354 -0.3101298 -1.0293224 -0.5598371
000170 1b 30 97 be 59 7d 8f be d4 fc 39 bf 39 63 b2 bd
       -0.2952889 -0.2802532 -0.7265141 -0.087103315
000180 39 a9 7f bf f7 c1 a6 bf 0e 85 86 be cf 3a 68 3f
       -0.9986759 -1.3027943 -0.26273388 0.90714735
000190 e7 14 48 bf 93 b0 16 3f f8 b7 cc 3e 6d 34 5a bf
       -0.78156894 0.5886318 0.39984107 -0.85236245
0001a0 d3 70 08 3e fa 35 10 3f 7b 97 92 3f 9d 6e d2 be
       0.13324289 0.5633236 1.1452478 -0.41100016
0001b0 ef 48 92 3b 70 c6 9f 3d 5f 84 c2 bd 03 06 41 bf
       0.004464261 0.07801521 -0.09497904 -0.753998
0001c0 ea 25 23 3f 18 8a 59 be d8 45 6e bf 2b 2c 27 3f
       0.6372973 -0.21244085 -0.93075323 0.6530177
0001d0 11 3f c2 bd 2c 3a 6e be ae a7 92 bf da fe 65 3f
       -0.09484685 -0.23264378 -1.1457422 0.89842
0001e0 25 14 20 bf 22 7c 4f 3f fe 19 73 be 45 49 1e bf
       -0.6253074 0.81048787 -0.23740384 -0.6183055
0001f0 40 ec 3b bf ef ff b5 3f d6 a4 01 bd ca 5f d8 3e
       -0.73407364 1.421873 -0.03165134 0.4226058

fc2.weight f4 [128, 128]
000000 b2 05 df 3c 57 c4 c5 bc d1 73 67 3d fa b2 18 be
       0.027224395 -0.024141474 0.056506936 -0.14912024
000010 2c ac 69 3d 8a fe d8 3d e3 a6 3b be 77 e4 95 bd
       0.05704896 0.105954245 -0.18325381 -0.07318967
000020 19 a0 97 be 41 99 56 bc b8 2a ca be 18 fc 16 be
       -0.29614332 -0.013098062 -0.39485717 -0.14744604
000030 fd 58 fa 3c 36 06 c2 be 0e 51 f3 3c 72 ea 28 3e
       0.030560011 -0.37895364 0.029701736 0.16495684
000040 4c 8c 56 bd 01 4d 29 3e 4e ba 28 3d 55 bc 0b bf
       -0.05237989 0.16533281 0.0411933 -0.54584247
000050 fe 60 a2 b9 c0 cb 1b 3d 7a 87 2c bd ff 25 00 be
       -0.00030971313 0.038036108 -0.042121388 -0.12514494
000060 2c 9b fd 3c 38 2b 19 be d4 02 17 be f8 78 19 3d
       0.03095778 -0.14957893 -0.14747173 0.03746888
000070 cf 3a 4d be 0b 5e 33 be fe f9 46 be c2 9d eb 3d
       -0.20041965 -0.17516343 -0.19431302 0.11504699
000080 9a 10 bf bd 18 7c 4b bd f9 19 8a bd 09 71 f8 3b
       -0.09329338 -0.049678892 -0.06743235 0.007581834
000090 91 d0 0d be ff 67 af be 97 8d 83 be b6 42 bf bd
       -0.13849093 -0.3425903 -0.25693962 -0.09338896
0000a0 80 51 b4 be f0 e0 20 be a8 97 0b be 55 7c 6e be
       -0.3521843 -0.15710807 -0.13632071 -0.23289616
0000b0 21 99 b1 bc 0c a2 a0 bd 09 de 0e be 34 77 ea 3c
       -0.021679463 -0.07843408 -0.13951887 0.028621294
0000c0 54 8b 41 bd 58 86 49 be 4a 5d b3 bd bb 41 0a be
       -0.047252014 -0.19680154 -0.08758028 -0.13501637
0000d0 2c 1f 50 be 25 06 77 bd 5e f3 8f 3c 90 33 0c bd
       -0.20324391 -0.060308594 0.017572101 -0.03422886
0000e0 d2 eb b7 bd 6d 05 22 be 41 fe 03 be 8b 66 3f 3d
       -0.08980526 -0.15822382 -0.12889959 0.046728652
0000f0 68 d5 ad be 39 be 0d be a9 3d 58 bd dd 92 82 bd
       -0.3395188 -0.13842095 -0.05279318 -0.06375668
000100 7a 51 02 3c 40 09 4c bc 73 d0 01 be 35 30 03 3d
       0.007953996 -0.012453377 -0.12677173 0.032028396
000110 9d fa 95 bd b8 2e 23 3e cb 69 2d be 68 f8 36 bd
       -0.07323191 0.1593579 -0.16934888 -0.044670492
000120 15 5f 66 3d c7 07 6d be 42 b4 c0 bd 1b d0 20 bd
       0.05624302 -0.23147498 -0.094093814 -0.039260965
000130 b4 fe 9e bd 8e cb b4 bd 94 c5 b0 3b ea 6f 87 3d
       -0.077634245 -0.088278875 0.005394647 0.06613143
000140 1c fe cf be 8d b4 82 bd 2d 1e 8d bd 0f ab 91 be
       -0.40623558 -0.063820936 -0.06890521 -0.2845082
000150 cb 8a b0 bd 3a c7 4f be 1c b3 0b be 6b 69 85 3d
       -0.08620223 -0.20290843 -0.13642544 0.065142475
000160 fb 6a 9e be 5a 3c 95 bd 2f d1 00 be 45 71 ae bd
       -0.30940995 -0.07286902 -0.12579797 -0.08517698
000170 9e b4 d9 be f6 60 53 be 58 3c 87 bd 96 b6 5c bd
       -0.42520612 -0.20642456 -0.066033065 -0.053885065
000180 db 50 c5 bc 18 8d 01 3d 89 18 23 be 2f 8b ef 3d
       -0.024086406 0.031628698 -0.15927328 0.11696469
000190 bf da de 3b 67 52 87 be f9 9e b3 bc c0 fe 0b be
       0.006800979 -0.26430055 -0.02192639 -0.13671398
0001a0 63 14 98 3b 90 8a 88 be c3 07 34 bd c4 1c 34 be
       0.004641102 -0.26668215 -0.043952715 -0.17589098
0001b0 30 d7 90 3c 2f 76 a2 bd 47 d5 6f 3d 16 33 2e be
       0.017680734 -0.07932698 0.058553007 -0.17011675
0001c0 50 f9 98 3d 00 a4 b3 3d 40 bb 5c bd 61 f2 18 be
       0.074694276 0.08771515 -0.053889513 -0.1493621
0001d0 72 1b 54 be ab 79 c5 be b5 1b 29 bd 4a 38 fa 3c
       -0.20713595 -0.38569388 -0.04128619 0.030544419
0001e0 43 d8 04 be 3d b0 cf bd e7 db e9 bd 42 83 28 3d
       -0.12973122 -0.10141037 -0.11418896 0.041140802
0001f0 93 80 b3 bb 8f fc 44 be ff 34 12 be 56 07 af bd
       -0.0054779737 -0.19236968 -0.14278029 -0.08546321
000200 77 e0 ec bb 04 98 22 3e be 26 6d bd 21 04 b5 3e
       -0.0072289067 0.15878302 -0.057898276 0.35354713
000210 f3 ac b6 be d5 98 a4 be 1f 86 f5 3e bf ee de 3c
       -0.35678825 -0.32147852 0.4795389 0.027213452
000220 4f f0 d0 3e b9 a7 90 3e b5 a9 af be 88 19 66 3e
       0.4080834 0.28252962 -0.34309164 0.22470677
000230 09 80 f9 bb 65 51 5e 3e fd d0 0e be c1 da 9f be
       -0.00761414 0.21710737 -0.1394691 -0.31221583
000240 88 d5 71 3e 78 c7 81 be cf a8 ad be dc b2 7a be
       0.23616612 -0.25347495 -0.33917853 -0.24482292
000250 a0 01 f7 3e 63 54 e2 be c8 cd 5b 3e 43 7c 8d bd
       0.48243427 -0.44205007 0.21465218 -0.06908467
000260 77 08 ab be c9 90 8c 3e af 30 47 bd 16 21 34 be
       -0.33404896 0.27454212 -0.048630413 -0.17590746
000270 ae 93 af 3e b3 8e 02 bf 56 d0 6b bc b3 a5 e7 be
       0.34292358 -0.5099899 -0.014392933 -0.45243606
000280 ed 6a ee 3e 24 59 94 bd 2e e7 57 3e 58 d7 aa 3d
       0.46565953 -0.07243565 0.21084282 0.08341855
000290 02 7c a7 3e 7f 7d 23 be 06 72 32 3e 63 60 2d be
       0.32711798 -0.15965842 0.17426309 -0.169313
0002a0 6e 4a 9f 3e a5 a4 01 bd d4 b2 58 be 89 38 8d 3e
       0.31111473 -0.031651158 -0.21161968 0.27582195
0002b0 75 7d b2 bc 44 ca a6 3d 8b 50 63 3e 71 03 f0 bd
       -0.021788338 0.08144048 0.22198693 -0.117194064
0002c0 4d f1 94 3d b8 ae 2e bd 39 09 bd 3d ab 5a dd 3c
       0.07272587 -0.042647094 0.09230275 0.027020773
0002d0 e5 c0 81 3e dc 08 2e 3e e0 f3 2a 3e dd 5e d5 3e
       0.2534248 0.16995567 0.16694593 0.41673937
0002e0 86 18 82 be 43 09 1f 3e 0b ee 3d 3e 58 3e 91 3d
       -0.25409335 0.15530877 0.18547837 0.07091969
0002f0 b0 b6 6b 3e fd 81 14 3e 63 86 78 be 9c e2 04 3d
       0.23018909 0.14502712 -0.24270014 0.032442674
000300 2b 49 53 bd 02 2d 18 3c 4e b6 33 be 0d 13 6c 3e
       -0.05158345 0.009288074 -0.17550012 0.23054142
000310 22 a5 41 be 75 7a a8 be 35 5f 85 3e 84 6c 57 bc
       -0.1891065 -0.32905927 0.260492 -0.013148431
000320 97 db 2f 3e d6 94 3e be d9 49 a3 3e bf c0 bf 3c
       0.1717361 -0.18611464 0.3189228 0.023407338
000330 ff 5e 38 3e 1c 2c 48 bc c7 37 f0 bd 74 8d 30 3e
       0.18004988 -0.012217548 -0.11729389 0.1724146
000340 45 a3 94 3d d1 f8 02 be b8 e8 6e 3b cc 43 33 bd
       0.07257704 -0.12790228 0.003645463 -0.043765828
000350 b5 00 6f 3e ca 91 0f 3e 26 05 e7 3e d0 89 e5 bd
       0.23340113 0.14020458 0.45121115 -0.11207926
000360 b6 9e bb 3e 0f 1a a5 be 9c a8 cd 3d 16 7e c2 be
       0.36644524 -0.32246444 0.10041925 -0.3798682
000370 24 95 81 be 4a 98 5b 3e 6f 0e b5 bd 00 89 05 3d
       -0.25309098 0.21444812 -0.088406436 0.032601357
000380 cc e0 9e be 37 37 1f bf 70 d8 e0 3d 21 37 36 3e
       -0.3103088 -0.62193626 0.10978782 0.17794468
000390 a8 f1 0c 3e 98 dd b6 3e 17 80 30 3e 01 87 1b be
       0.1376406 0.35715938 0.17236362 -0.15188219
0003a0 45 90 70 3c 06 ea b7 3e 62 a1 c8 3e 0d a3 fd bd
       0.014682834 0.35920733 0.39185625 -0.12384615
0003b0 62 92 d7 3d aa 74 ef bc a6 eb d6 3d 00 77 2a 3e
       0.10525967 -0.029230434 0.10494165 0.16646957
0003c0 89 ac 74 3e 56 87 34 be 5c 78 ef bd 9e ce 70 3e
       0.23893942 -0.17629752 -0.116928786 0.23516318
0003d0 9b 1f 4e 3b 7d 28 03 3e c5 65 81 bd 3e 83 1f 3f
       0.0031451944 0.12808414 -0.06318239 0.62309635
0003e0 0a 9a 20 bf a8 a3 8f 3e a4 b1 b9 ba ce 32 b4 be
       -0.62735045 0.28054547 -0.0014167321 -0.3519501
0003f0 ef 8c 70 be 41 c7 b7 3e 03 42 32 3e b3 ed 86 3e
       -0.23491262 0.35894206 0.17407994 0.26353225

fc2.bias f4 [128]
000000 2d 32 d1 be 34 22 47 3f 50 f0 23 3f 22 f0 67 bd
       -0.40858594 0.77786565 0.6403856 -0.056625493
000010 fb ae de 3b b7 e9 79 3c ce f9 82 be c7 d3 30 be
       0.0067957616 0.015253476 -0.2558121 -0.17268287
000020 a3 9f 05 3d e6 e8 3a 3f b0 41 38 bf 82 b7 86 bc
       0.032622945 0.73011625 -0.7197523 -0.016444925
000030 be d3 29 3d 40 2a ce be 3a 94 9e 3e f8 3b 45 bf
       0.0414617 -0.4026661 0.30972463 -0.7704463
000040 53 c3 db be fd ff 62 3e 39 99 aa bd 53 01 40 3f
       -0.42922458 0.22167964 -0.08330006 0.7500202
000050 37 35 50 3e 60 5a 35 bf 09 b9 30 3d b5 de be be
       0.203328 -0.70841026 0.043145213 -0.37279287
000060 5b 8a 82 bd c2 a7 8e bd 75 05 00 3d 3e a3 dd 3a
       -0.063740455 -0.06965591 0.031255204 0.0016909612
000070 9c 8b b0 be e2 c9 57 3d ea 73 59 bd 62 4c 8f bd
       -0.34481514 0.052682765 -0.05308906 -0.06996991
000080 fe 0a ad 3d 8b 54 8c be 59 a0 04 3f f1 04 6e bc
       0.08449362 -0.2740825 0.5180717 -0.014527545
000090 7a 83 9f 3c a5 9a 9d 3f 55 ab 94 bd 50 cc a9 bc
       0.019471873 1.2312819 -0.072592415 -0.020727307
0000a0 27 65 31 bd 0b b4 e4 be 60 5a 97 be f1 3a cc be
       -0.043309357 -0.44668612 -0.29561138 -0.3988872
0000b0 4c e4 be be c0 6a b2 bd dc de cd 3e ad a2 fc 3e
       -0.37283552 -0.08711767 0.4020909 0.49342862
0000c0 6f 93 9e 3a a7 d8 97 3c 58 aa 33 be a7 e5 aa bd
       0.0012098382 0.018535925 -0.1754545 -0.08344584
0000d0 49 d6 54 3e 64 1d 5a be 71 0e b2 3e b5 96 ef be
       0.20784868 -0.21300274 0.34776643 -0.46794668
0000e0 95 b5 59 3c 59 ca f1 bd 66 0c 39 3f 10 78 07 be
       0.013287921 -0.11806173 0.72284544 -0.13229394
0000f0 25 60 28 bc 36 97 8b 3f f0 ec 85 3f 92 66 17 3f
       -0.010276829 1.0905521 1.0462933 0.59140885
000100 d1 bc c8 be c1 99 0d bf 88 63 a3 bf 93 82 32 be
       -0.39206555 -0.55312735 -1.276475 -0.17432623
000110 df cd 13 bd f1 ff 23 3f de 77 3b bd aa 34 e8 3b
       -0.036085006 0.6406241 -0.04576861 0.007086356
000120 14 3b 6f 3d 24 89 1b be 0f 4f 3e 3d be 66 bb be
       0.05840595 -0.15189034 0.046462115 -0.36601824
000130 8b f0 73 be f8 b3 62 3d 71 6e 34 be 2f 17 71 bf
       -0.23822229 0.055347413 -0.17620255 -0.94176
000140 e6 fd 9b bf 18 c9 c9 be 17 65 8d bc 91 92 4f 3e
       -1.2186859 -0.39411235 -0.017260117 0.20270754
000150 5a 1c c4 3c af 46 e7 be 85 57 f2 3e eb fc bc be
       0.0239393 -0.45171115 0.47332397 -0.3691171
000160 75 f1 50 be 79 4b ec bd 15 5e 11 bf b6 56 db 3c
       -0.20404609 -0.11537833 -0.5678418 0.026774745
000170 a0 01 f5 bd ba 47 e1 3e 5d db 51 bf d5 d7 fa 3d
       -0.119632006 0.44000036 -0.81975347 0.12248198
000180 f4 ca 03 bd 8f b0 da 3e db 5d 56 3d 62 ad 1f be
       -0.032175973 0.4271283 0.0523356 -0.15593484
000190 4b b9 81 be 19 85 8f bd 0c e8 1a bd 03 a2 99 3d
       -0.2533668 -0.07007808 -0.037818953 0.075016044
0001a0 45 3b 9c be d3 31 9d bb f3 11 f7 bd 9c 4a f3 3e
       -0.3051397 -0.0047971993 -0.120639704 0.4751786
0001b0 c8 18 ce bd c1 1c d2 be 6c 5d 16 3d c9 65 d1 be
       -0.100633204 -0.41037562 0.036710188 -0.40897968
0001c0 43 fc c4 3e 8c be 5e bf d5 2f 72 be be 3c 92 bf
       0.3847371 -0.870095 -0.23651059 -1.1424787
0001d0 ff 5f fa bd 87 1c 0b 3f 2f 62 12 3f f4 89 29 be
       -0.12225341 0.54340404 0.57181066 -0.16556531
0001e0 1a 30 f9 3d a3 cc 97 bd ff 3d d4 bd c3 99 1b be
       0.12167378 -0.07412078 -0.10363387 -0.15195374
0001f0 8f 42 c5 3d 67 0c 1a 3e f0 4f 4d 3b f0 52 39 be
       0.09631836 0.15043794 0.0031328164 -0.18098044

fc3.weight f4 [128, 128]
000000 89 18 d7 bd 90 54 fd 3c 09 e8 75 bf 64 3f 66 3d
       -0.105027266 0.030924112 -0.9605718 0.056212798
000010 06 a1 d9 3d 7f 12 ca 3e f4 f4 29 3d 41 27 6e bd
       0.10626416 0.39467236 0.04149337 -0.058142904
000020 16 f1 4b 3d 60 1e 01 bf d2 c0 83 bf 79 0b f1 bd
       0.049790464 -0.50436974 -1.0293219 -0.11769766
000030 9b 60 40 bd b6 76 96 3e 56 a9 2c be 48 bf 52 3d
       -0.04696713 0.29387444 -0.16861472 0.05145195
000040 2c 3f 90 3e b0 8e 2d bc f6 47 5d bd 89 f1 df bb
       0.28173196 -0.010593101 -0.054023705 -0.006834213
000050 a8 bf 11 3b 08 4f 41 3e c7 48 63 3d 86 4a 7e be
       0.002223948 0.18877804 0.055489328 -0.24833116
000060 16 48 d8 bd da b8 14 3c 6b d6 1b be bd ae 83 bd
       -0.10560624 0.009077275 -0.15218513 -0.06429813
000070 96 2c d1 3e 45 41 21 be 54 ef e9 bd 8a 3a 4c 3e
       0.4085433 -0.15747555 -0.11422601 0.19944206
000080 ef 68 1d be ce 3a fa bd a7 f8 32 bd da 51 ba 3d
       -0.1537206 -0.12218247 -0.043694165 0.09097643
000090 d4 25 89 bd af a8 8c be 82 f8 9d bc 98 30 1a be
       -0.06696668 -0.27472445 -0.019283537 -0.150576
0000a0 58 55 4b 3e b1 ab 8c 3e 45 9a 86 3e 0c 4a aa 3d
       0.19856775 0.2747474 0.26289573 0.083149046
0000b0 ca c1 01 be 70 c0 d0 bc e9 f9 b0 be c0 b2 78 be
       -0.12671581 -0.025482386 -0.34565666 -0.24286938
0000c0 9c 53 58 3d c9 d2 89 3b 7e 8a 23 3e 44 90 cc bd
       0.05281411 0.0042060358 0.159708 -0.09988454
0000d0 9d 1c bb bd 88 55 73 be c2 06 d2 3d 3f 02 8d 3e
       -0.09136317 -0.23763096 0.10255195 0.27540776
0000e0 20 18 71 3d f4 56 10 3d 55 77 fd be 92 73 a3 3e
       0.058860898 0.035239175 -0.49505106 0.3192411
0000f0 be d6 a1 bd 91 85 a2 be 33 4f 9c 3d 0f 8e 28 3e
       -0.07902287 -0.31742528 0.076322936 0.16460441
000100 1d de c0 3e f3 e0 36 3d d6 a0 bd be 99 ef 4c 3d
       0.3766946 0.044648122 -0.3703677 0.050033186
000110 00 57 25 3e e2 8e 4a be 66 a0 f0 3c ce cb c1 3d
       0.16146469 -0.19781068 0.029373359 0.09462701
000120 e6 d3 da be fb 30 29 be dd 34 94 be 0d f4 36 bf
       -0.4273979 -0.16522591 -0.2894658 -0.7146614
000130 d1 6c 38 bb 45 43 7c 3d a0 c7 48 be b5 ee ee 3d
       -0.0028141032 0.06158759 -0.19607401 0.116666235
000140 2e 99 1e 3f a7 54 2b 3f 08 bf 84 be f8 ba a1 bf
       0.61952484 0.66926044 -0.25926995 -1.2635183
000150 59 43 89 bd b5 2a 22 3d 12 49 df bc 00 35 f7 3e
       -0.06702299 0.03959151 -0.027256522 0.48282623
000160 d4 1c ac 3e 7b b5 b5 3d c7 72 e8 bd 0f 15 06 3e
       0.33615744 0.08872505 -0.11350017 0.1309397
000170 4f 8f d8 3c ad 15 a6 bd 06 7f 77 3d fb 8e be be
       0.026435522 -0.08109603 0.060423873 -0.3721846
000180 d6 73 0b be 1f 5f 68 bd af b0 1f 3d 62 8a 6d 3d
       -0.13618407 -0.05673134 0.038986858 0.0579933
000190 f9 90 fc be b2 10 e0 be 1e 02 b6 3c 06 ad bb bc
       -0.49329355 -0.43762738 0.022217806 -0.022909652
0001a0 4e c1 71 3c d2 6f 9d 3d 64 cc 37 3d f5 0b 97 3d
       0.01475556 0.07687344 0.044872656 0.073753275
0001b0 dd 9c e2 be d3 c6 93 3c 25 fd 05 bc 2b 86 42 be
       -0.44260302 0.018039143 -0.00817803 -0.18996494
0001c0 0a f1 2d be 5e 9e 10 3f 2e 6b 58 bd 41 64 3e bd
       -0.1698648 0.5649165 -0.05283659 -0.04648233
0001d0 be 30 e1 be b3 2e 23 3e b4 a7 41 bf 49 f5 e1 bc
       -0.439825 0.15935783 -0.7564652 -0.027582781
0001e0 2e e1 e5 bd 43 b1 18 3c 41 71 7f be cb 48 57 3d
       -0.1122459 0.009319606 -0.24945547 0.052559655
0001f0 de b7 5b be fa 74 05 bf b6 65 6c bd d8 37 65 be
       -0.21456859 -0.5213162 -0.057714187 -0.22384584
000200 e0 58 1b be dd 8c 70 be 6c c9 9d 3c 65 f1 09 3e
       -0.15170622 -0.23491235 0.019261084 0.13470991
000210 09 36 b7 be 46 43 c7 3e 3b da 7b be b2 e0 4a 3d
       -0.35783413 0.38918513 -0.24594967 0.049530692
000220 4e 7c 3a bd a0 c4 86 be a6 df 85 3e 8b e7 c4 bd
       -0.045528702 -0.26321888 0.26147193 -0.09614476
000230 29 12 ba bc e7 eb 4c 3d 41 f0 8a 3c e2 7c e0 be
       -0.022713738 0.05002966 0.016960265 -0.43845278
000240 cc bb 9f 3e 12 f7 0e 3e 4a 4b 20 bd 99 ac 11 be
       0.31197965 0.13961437 -0.0391343 -0.14225997
000250 c1 79 81 bd e0 95 68 3d 6b b4 0e be fc c4 32 be
       -0.06322051 0.056783557 -0.13936011 -0.17457956
000260 06 2d a5 bc 2f 14 6b bd ba fc 30 be eb 8b 47 bd
       -0.02016307 -0.057392295 -0.17283908 -0.04871742
000270 67 9e 61 bd 98 67 78 bd d5 cd 87 3e 48 f4 e7 3e
       -0.055082705 -0.06064567 0.26524225 0.4530356
000280 f6 99 1e 3e d4 c1 01 3e 8a 9c c9 be 7e 48 4a be
       0.15488419 0.12671596 -0.39377242 -0.19754216
000290 27 45 8f 3b 7c c7 d8 be 28 1c 95 bc e1 ec 82 bc
       0.0043722573 -0.42339694 -0.018201903 -0.015982093
0002a0 72 ee fd 3d 12 90 ec be 39 bb 89 3e e5 b4 77 3e
       0.123989955 -0.46203667 0.26900652 0.241901
0002b0 cb 42 68 3e f6 b5 c7 bd 05 61 85 3c ee 63 f3 3c
       0.2268173 -0.09751503 0.016281614 0.029710736
0002c0 5e 5b 86 bc 97 9e 1c be a7 cd 89 bd 89 6b d0 3c
       -0.01640099 -0.15294872 -0.06728678 0.025441902
0002d0 78 93 fe be b7 87 ac bd ab a3 09 3e 8f ad 8c 3e
       -0.49721885 -0.08424323 0.1344134 0.27476165
0002e0 ce 0e 6f bd 23 8b 1b 3d 6d c0 e6 3d 7c 1e 4a be
       -0.05836373 0.037974488 0.11267171 -0.19738191
0002f0 cc 93 e9 3d 17 08 9a be 8a 72 47 be c8 a0 e2 be
       0.11405143 -0.30084297 -0.19477287 -0.4426329
000300 b0 32 06 bf 43 e9 a9 3e 9f bf 56 3e 80 9c 6d be
       -0.52421093 0.33185777 0.20971535 -0.23204231
000310 62 f4 a6 be 4e 00 6b bf 5c 3c ee bc 16 2e 2a 3b
       -0.32608324 -0.9179734 -0.029081516 0.002596741
000320 c9 f3 a6 3d 77 42 10 be 45 0b 59 be 61 a4 c0 be
       0.08151967 -0.14087854 -0.21195705 -0.3762541
000330 d3 4b 3d be 78 c2 b2 3b aa 82 b9 bd dd 99 95 3e
       -0.18485956 0.0054553114 -0.09058125 0.2921895
000340 59 a2 d4 3e a9 db bb be e3 e8 2b be 4c e1 a0 3d
       0.4153011 -0.36691025 -0.16788058 0.07855472
000350 de c2 02 3e 9b fb bd bd c6 fc 1a be d5 14 07 be
       0.12769648 -0.092765056 -0.15135488 -0.1319154
000360 5f 9f 04 3e 13 7f fb bd 4f d2 d5 be 21 5d f4 be
       0.1295142 -0.12280097 -0.41762015 -0.47727302
000370 b0 de e6 bd e8 d5 ae be 76 09 0e 3e 3d ce f6 3d
       -0.11272943 -0.34147573 0.13870797 0.120510556
000380 a7 ce 98 3d 8b f8 74 be 08 f3 90 3d 07 a5 ca bc
       0.07461291 -0.23922937 0.070776045 -0.024736894
000390 89 fd 23 3e f3 0a 53 bb 31 f6 98 bc d1 15 7a 39
       0.16014685 -0.0032202571 -0.01867208 0.00023849985
0003a0 cf 78 16 be c2 5f a7 3d 8d b5 31 bd 3c b9 52 3e
       -0.14694522 0.08172561 -0.04338603 0.20578474
0003b0 d2 29 0b be 13 c1 36 be 44 c7 b2 bd 6c 44 84 3c
       -0.13590172 -0.1784709 -0.08729413 0.016145907
0003c0 70 46 83 be f1 bd a2 3e 84 e9 74 bd b3 3b ba 3e
       -0.25639677 0.3178554 -0.05979301 0.36373672
0003d0 fb d8 cd be cf d7 38 3e a0 43 94 3e 33 0a b9 3e
       -0.40204605 0.18051074 0.28957844 0.36140594
0003e0 f4 c5 80 3c b3 9c 79 be 2c 2e 44 3e df f9 2b bd
       0.015719391 -0.24376182 0.19158238 -0.041986343
0003f0 cc 94 43 be e6 30 30 bd 1d 94 c5 bc 2f 4d 12 3e
       -0.1909973 -0.043015383 -0.024118477 0.14287256

fc3.bias f4 [128]
000000 76 c9 e3 be a4 32 03 bf 76 31 51 3f e4 d2 93 3e
       -0.4448964 -0.51249146 0.81716096 0.28871834
000010 6d d5 10 3f f6 22 3d 3e f6 99 d8 be 21 73 06 bf
       0.5657566 0.18470368 -0.42304963 -0.5251942
000020 bb 5e c0 be 36 6b a3 3d 39 d6 e4 be 99 37 b3 3d
       -0.37572274 0.07979433 -0.4469469 0.08750839
000030 1f 0d 49 be 6a 92 19 bf 28 a2 17 3f 9e f9 2a 3f
       -0.19633912 -0.59989035 0.59231806 0.66787136
000040 88 cd a8 be 97 9f 76 be 3c a9 16 3f eb 49 e9 3d
       -0.32969308 -0.24084316 0.5885198 0.11391052
000050 96 f4 95 be 14 76 19 be f4 22 74 bc 7e 60 e5 bc
       -0.29288167 -0.1498645 -0.014900912 -0.028000113
000060 56 45 0f 3e d5 7e 96 3e be a4 af bd 08 5b a1 3d
       0.13991293 0.2939364 -0.08576344 0.07878691
000070 86 40 15 3e bd 46 a7 be ba 03 b5 3e a5 ed cc 3e
       0.14575395 -0.32671157 0.35354406 0.40025058
000080 3d fd a0 3e 01 dc 26 3e 39 0b 03 be ce a8 0c be
       0.31443205 0.16294862 -0.1279725 -0.13736269
000090 d7 45 34 be 37 51 7e 3e 1c 45 94 3e 0f 2f b6 3e
       -0.17604767 0.24835669 0.28958976 0.35582778
0000a0 2d 5b ac be 24 e5 a9 3e 8b 82 52 be a1 fe 18 bf
       -0.33663312 0.33182633 -0.2055761 -0.5976353
0000b0 55 b9 13 3e f5 90 58 be 98 1d de bd 82 45 04 3f
       0.14426167 -0.21149047 -0.10845488 0.5166856
0000c0 79 0f 48 3e b5 54 af 3e e4 55 d7 3b d7 a4 c4 be
       0.19537152 0.34244314 0.0065715183 -0.38407013
0000d0 38 a3 70 be fe 15 cb 3e 4a 68 41 bf 5d 69 db bd
       -0.23499763 0.39665216 -0.7554976 -0.10713456
0000e0 9d 27 b0 3e 16 ae bc be 84 01 99 3d 9c a1 9e 3e
       0.34405223 -0.36851567 0.07470992 0.30982673
0000f0 cb db 69 be df ad 9e 3c 13 02 99 3e 13 bc f0 3e
       -0.2283775 0.019370018 0.29884395 0.4701849
000100 18 bf ba bd 36 00 f4 3c 8f ce d2 be e2 50 c3 3d
       -0.091184795 0.029785257 -0.41173217 0.095369115
000110 2b 78 2b bd 26 a2 a9 3d 19 b3 1c be fe fa 1c bf
       -0.041862648 0.082828805 -0.15302695 -0.61320484
000120 79 a3 bd 3e a4 9e a6 bd fb 49 9b be 0c 3a b9 3e
       0.37038782 -0.08135727 -0.3032988 0.361771
000130 69 fd 6c be 84 04 bc be c5 1f 5a 3e 27 1e ed bd
       -0.23143543 -0.36722195 0.21301182 -0.11578017
000140 98 9d f4 be 28 45 88 3d 73 18 5f be 3b c2 1a 3c
       -0.47776484 0.066538155 -0.2178667 0.009445722
000150 94 19 87 be c5 de ac be 78 8a a5 3e 52 41 f3 be
       -0.26386702 -0.3376371 0.32332206 -0.47510773
000160 79 41 ca be 82 4b 44 be 0d 9e 47 3e dc 19 51 bd
       -0.39503077 -0.19169429 0.19493885 -0.051050052
000170 22 b1 c4 be b1 69 7e 3d 36 1a 1d be ad d4 8b 3e
       -0.38416392 0.062112514 -0.1534203 0.27310696
000180 20 2b b6 3e a5 60 da 3c 10 32 ce 3e ca b9 3c bf
       0.35579777 0.026657412 0.4027257 -0.7372099
000190 b7 27 32 bf b9 3f 0c 3e 1e d5 90 bc 6d eb b7 3d
       -0.6959185 0.13696183 -0.017679747 0.08980451
0001a0 d6 ec 34 3e 5d 36 48 be 24 49 36 be 76 e6 61 3d
       0.1766847 -0.19551988 -0.17801338 0.055151425
0001b0 41 a5 f3 be 8c c2 40 bf 84 d4 9d be f0 9f f6 bd
       -0.47587016 -0.75296855 -0.308262 -0.120422244
0001c0 19 fe 9a 3e 5a 43 72 3e 65 34 60 3f bd 26 67 be
       0.30271986 0.23658505 0.8757995 -0.22573371
0001d0 e4 53 25 bf 4a 49 46 bf 55 3b ec 3d 70 71 d9 be
       -0.6458113 -0.7745558 0.11534754 -0.42469358
0001e0 57 e3 ba be d8 01 0b bf 9e b4 aa bd 27 0a 0f bc
       -0.36501572 -0.5429969 -0.08335231 -0.008730448
0001f0 8c 0d 2f be 68 ff 62 be 23 8c 56 3e 26 a4 f4 3e
       -0.17095011 -0.22167742 0.20951895 0.47781485

dir.weight f4 [2, 128]
000000 e1 58 5a bf b7 91 c5 3e 2e ca be be 8e 9e 96 3e
       -0.8529187 0.38587734 -0.37263626 0.29417843
000010 f5 a1 98 be 06 62 c6 be 55 94 03 3f df d7 81 3f
       -0.29811063 -0.3874666 0.5139821 1.0144004
000020 f4 d5 b3 be ec 5a 99 be 16 d2 b2 3e c4 d1 2a bf
       -0.3512417 -0.2995218 0.34925908 -0.66726327
000030 81 01 14 bf fd 44 a6 be 8c c4 66 3e 53 c1 e4 be
       -0.57814795 -0.3247451 0.22535914 -0.44678745
000040 d4 03 b5 3e 0b 8c 03 3d 34 4d 15 bf 3d 1f 74 3d
       0.35354483 0.032115977 -0.5832093 0.059600104
000050 5f 35 16 3e c9 31 94 3e d4 ae ac be 45 7e 86 be
       0.14668797 0.28944233 -0.33727133 -0.2626821
000060 be 03 e2 be cf 70 af 3e 84 4a 2a 3d 7a e0 3f bc
       -0.4414348 0.34265754 0.04157497 -0.011711234
000070 27 5f 0d 3e 84 92 1e 3e 7c 04 35 3f ac 58 85 be
       0.13805829 0.15485579 0.7070997 -0.26044214
000080 f0 90 89 3d 20 38 ac 3e 18 ba 84 bd 4f 9e 10 3d
       0.06717098 0.3363657 -0.06480807 0.035307225
000090 a4 6c 7f be e6 9b f7 be ba 6c b9 3e f7 53 bf be
       -0.24943787 -0.4836113 0.36215764 -0.37368748
0000a0 e0 be cd 3e 69 70 34 bc 75 fd 93 3e 6d 59 ea 3b
       0.4018469 -0.011013129 0.2890431 0.0071517737
0000b0 4c 4c b3 3e 75 d0 20 be 16 c8 ed bd 47 ef 3f 3f
       0.35019147 -0.1570452 -0.11610429 0.74974483
0000c0 1a 34 89 be 58 e8 ad 3e 47 cc 85 be b3 f1 29 3e
       -0.26797563 0.33966327 -0.26132414 0.16596107
0000d0 0d c0 30 be d5 38 9b 3d 7a 15 00 bf 91 ff 3f 3e
       -0.17260762 0.07579199 -0.5003277 0.18749835
0000e0 06 0b f5 bd c1 e7 96 3e 1f 4e 3c 3e d3 21 1c 3f
       -0.11964993 0.2947369 0.18389176 0.6098911
0000f0 c1 b6 1d bd 68 a9 ae 3d 0b 55 6e be 62 21 ae 3e
       -0.038504366 0.085284054 -0.23274629 0.34009844
000100 72 ce 84 3d 8c 7a 37 be c9 f2 fc 3d 3b 94 44 be
       0.06484689 -0.17917842 0.12350995 -0.1919717
000110 8b f7 be bb 48 ef ec bd 08 ff 1a 3e a6 97 d0 3c
       -0.0058278493 -0.11569077 0.15136349 0.025462937
000120 04 08 41 be 85 23 4a 3e 52 1b dd 3e 81 f2 31 bf
       -0.18850714 0.19740112 0.43184906 -0.69510657
000130 b1 1e 82 3e b5 ff b0 3e 18 82 c5 3e f4 e4 d1 be
       0.2541404 0.3457009 0.38575816 -0.4099499
000140 87 c5 a6 be dc 1a 99 bc 70 f0 64 3e 48 3a 81 be
       -0.32572576 -0.018689565 0.22357345 -0.25239778
000150 8a 0e 25 3d 77 66 d4 be 80 f4 fb 3e bf 76 58 3e
       0.04029707 -0.41484424 0.49209976 0.21139048
000160 83 ba 81 3e b8 b5 0a 3f 64 45 26 3e e7 bc 87 bc
       0.2533761 0.5418353 0.16237408 -0.016569568
000170 7a 97 8b 3d 5e 28 5b 3e aa 0c ab bd b5 10 82 bd
       0.06816001 0.21402118 -0.08352025 -0.06350843
000180 d8 9b 42 be 94 48 e0 3e bd 02 79 bf 7a 7c 14 3f
       -0.19004762 0.43805373 -0.97269803 0.58002436
000190 d9 a0 cf 3d a7 21 9b 3e 89 a8 16 3e d4 27 a7 3e
       0.10138101 0.30299112 0.14712729 0.32647574
0001a0 52 19 eb bd 4f 6c 62 be d7 bf 37 3e 98 46 05 be
       -0.11479439 -0.22111629 0.17944275 -0.1301521
0001b0 0a 8f c8 3e 12 61 05 3f af 2d 83 3d 26 05 81 3e
       0.3917163 0.5210124 0.06405198 0.2519924
0001c0 e7 f5 35 3f eb 8e 80 3e c4 5a 63 3e c0 86 cd 3d
       0.7107834 0.25109038 0.22202593 0.10035467
0001d0 8e 4d 8c 3e eb 1e a9 be 55 65 05 3f 15 5d 1e bc
       0.2740292 -0.330314 0.52107745 -0.009665747
0001e0 04 58 10 bf b1 fb eb 3d 27 77 62 bc 2a 54 0d 3f
       -0.563843 0.11522616 -0.013822353 0.5520655
0001f0 ef f5 ef 3e d3 79 5c be e7 b6 4b 3e 3f 3d e4 3e
       0.4686732 -0.21530847 0.1989399 0.44577977
000200 e1 90 76 3e 45 72 8b be 97 44 bb be 76 e0 04 3f
       0.24078704 -0.27235618 -0.36575767 0.51905
000210 92 ba 49 be a4 6d 71 bd 4e ef 89 3e 9d ce f6 be
       -0.19700077 -0.058942452 0.26940387 -0.48204508
000220 1d 8e 56 3f 2c 97 8c 3d 19 b8 2d 3f f2 3d a8 3d
       0.838106 0.06864771 0.67859036 0.0821494
000230 2d 83 e7 bc c8 9c 55 bf db 55 74 be f0 15 9f 3b
       -0.028260792 -0.83442354 -0.23860876 0.00485491
000240 a7 d3 b9 3e 9f ae 31 3f 77 65 b0 bd ba 29 5b be
       0.3629429 0.69407076 -0.08613103 -0.21402636
000250 ca c7 cd 3d 21 6f 94 3a ce 34 ce 3e 1e 4c 00 bd
       0.10047872 0.0011324623 0.40274662 -0.03132259
000260 b8 50 6d 3e bb 72 93 3e 15 31 05 3d c8 9e 9a 3e
       0.23175323 0.2879847 0.03251751 0.30199265
000270 ed 3f a2 be e1 64 9a bd c4 87 f7 3d 74 7d e9 be
       -0.31689397 -0.075387724 0.12086442 -0.45603526
000280 03 5a c9 3e ca 0f e6 be eb 10 b7 be b8 4c 21 3d
       0.39326486 -0.4493392 -0.35755095 0.039379805
000290 7c 3a 91 3e 6b c6 36 be 67 f1 c1 3e 51 e5 86 3e
       0.28364933 -0.17849128 0.37879488 0.2634683
0002a0 2c 0e 9f bd 3e 3f 24 bf 03 ab 8c 3e a8 d7 4f be
       -0.07766375 -0.64159 0.27474222 -0.2029711
0002b0 1e 00 ea 3e c3 f4 38 bf 6d 10 f6 be 90 01 c7 bc
       0.45703214 -0.72248477 -0.48059407 -0.024292737
0002c0 24 6a c2 3e d0 34 76 bd 52 77 52 3e 77 59 99 be
       0.37971604 -0.06010896 0.2055333 -0.2995107
0002d0 e4 0e de 3e cf 6b 0e be ac 0f db 3e fc 12 70 3e
       0.43370736 -0.13908313 0.42785394 0.23444742
0002e0 97 b3 cc be 46 03 00 bf 9d 0f a9 3e fa 18 a0 3e
       -0.39980766 -0.50004995 0.33019724 0.31269056
0002f0 e7 0b 53 3e ab 23 1e be fa ec ac bd c3 5d 85 3e
       0.20610009 -0.15443294 -0.08443637 0.26048097
000300 06 9c b4 bc 6c c8 89 bf b7 4e 09 be 51 18 8d bc
       -0.022047054 -1.0764289 -0.13408934 -0.017223509
000310 12 0b 89 bc 5d a1 67 be 12 51 1b 3d 3e 84 79 3e
       -0.016728912 -0.22620149 0.03791911 0.24366853
000320 1a dc 89 3d 69 27 5d 3c 20 f0 84 3e fa 69 8d be
       0.06731434 0.013498166 0.2596445 -0.27619916
000330 a6 54 1c be 4c bf 72 3e 4b 3d 06 3e 82 c9 bd bd
       -0.15266666 0.23705786 0.13109319 -0.0926695
000340 0e c1 89 3e 8c 19 e2 bc 09 99 d0 3d ba 0c aa 3e
       0.26905102 -0.027600072 0.10185439 0.33212835
000350 f2 e4 b8 3e b6 1b 15 3f 03 56 0e 3f ca e9 a1 3e
       0.3611217 0.5824541 0.55599993 0.3162368
000360 c5 0a 0d 3f 94 b0 d4 be 6c 19 1c bd 07 ff 7e 3e
       0.5509456 -0.41540968 -0.03811018 0.24901973
000370 55 c6 57 3e 97 8d c7 be 93 b0 6b bc 64 c7 84 be
       0.21071751 -0.38975212 -0.01438536 -0.25933373
000380 70 bc 9e 3e 98 24 1a 3d 65 e1 57 be 97 2d 5b 3d
       0.3100314 0.037632555 -0.21082075 0.053510275
000390 66 59 51 bf 16 ab f2 3b 5b b9 5c be df ff e2 3d
       -0.81777036 0.007405649 -0.21555082 0.1108396
0003a0 d5 ea 54 3e 6d db 18 3f fc ca 4d be a2 e6 ae 3c
       0.20792706 0.5970982 -0.20096964 0.021350209
0003b0 35 d1 9e 3e 78 7a 23 be 5a 5e ea bb b2 ba ac 3e
       0.31018987 -0.15964687 -0.007152361 0.33736187
0003c0 da 83 3c 3d 1a c2 5e 3e 37 be b8 bd d5 c5 45 3e
       0.04602418 0.21753731 -0.090206556 0.19313748
0003d0 22 13 9a 3d ea eb ab 3e 6a 14 e5 be fe b0 78 be
       0.075231805 0.33578426 -0.44742137 -0.24286267
0003e0 e6 c5 ec 3e cf c0 75 be 83 f0 e5 bc 5a 61 1e 3e
       0.46244735 -0.23999332 -0.028068786 0.15466824
0003f0 b7 44 b7 be 13 2d 63 be e7 8b ef bd 08 fa 44 be
       -0.35794613 -0.22185163 -0.11696606 -0.19236004

dir.bias f4 [2]
000000 a9 35 e0 be 6a b6 68 be
       -0.4379094 -0.22725835

distance.weight f4 [1, 128]
000000 78 41 52 3d 02 d4 a9 3e 06 19 95 3e 83 66 bc 3d
       0.051331967 0.33169562 0.29120654 0.0919924
000010 f2 8e d3 3e 52 c9 e7 3d b1 fe 7c 3d 4c b4 4d 3e
       0.41319996 0.11317696 0.06176633 0.20088309
000020 8b 7b 48 3c c8 b4 0b 3d 8c a0 bd 3e 1f 36 7f 3e
       0.012236486 0.034107953 0.3703655 0.2492299
000030 fb 3f 56 3d 32 f9 2e 3f 05 47 9d 3f 62 03 ff 3d
       0.05230711 0.6834899 1.2287298 0.12451817
000040 ce 0c 7e 3e bb c2 b9 3e 69 13 31 3f 72 32 8d 3d
       0.24809572 0.3628138 0.6917024 0.06894387
000050 b3 7a 2d 3e 59 7e 0c bd 9c a1 40 3e 83 8c 16 3f
       0.16941337 -0.034300182 0.18811649 0.58808154
000060 c5 11 2d bc 94 2e c6 3d d6 b3 29 3d 51 7c bb ba
       -0.010563319 0.09676853 0.04143127 -0.0014304017
000070 20 8c 2a 3f c2 c2 96 3e 59 d6 a4 3e 9d 4e 07 bd
       0.66620064 0.29445463 0.32194784 -0.033033956
000080 60 11 1a bd 3b f6 e5 3d 8b 58 a3 bd 40 4d 14 3e
       -0.037614226 0.11228605 -0.079758726 0.14482594
000090 46 20 5e 3d dd 01 16 be 40 67 c5 3e 5a 32 2d bd
       0.054229997 -0.14649148 0.38555336 -0.042284347
0000a0 5b 18 be 3d bd 5b 8b 3e 86 03 a0 3c a7 00 51 3d
       0.09281989 0.27218428 0.01953293 0.051026013
0000b0 d0 7c b0 bb 81 03 bf bc 0d 05 4e be 6a 4e eb 3d
       -0.0053859726 -0.0233171 -0.20119114 0.11489566
0000c0 e2 2a 3b bd 67 c4 52 3e 6c e6 2e 3e 4f 22 fa 3d
       -0.045695193 0.20582734 0.17080086 0.12213575
0000d0 39 dd f4 3e 10 a2 ba 3e 7d 2a a6 bd be 3b d5 3c
       0.4782503 0.3645177 -0.08113573 0.026029464
0000e0 f6 50 89 bb 47 56 66 3e c1 e6 24 3e c1 6b a0 3d
       -0.0041905595 0.2249385 0.1610365 0.078330524
0000f0 f8 01 0f 3d 40 51 1e be ac ea eb 3d bf 55 a7 3e
       0.034913987 -0.15460682 0.115193695 0.32682607
000100 5a 75 5a bd e7 0a c5 3e 99 36 04 bd 81 f2 37 bd
       -0.05333457 0.3848488 -0.03227863 -0.044909004
000110 f3 75 b0 3e 47 ad 28 be 74 6e 4a 3d 51 20 7f bd
       0.34464988 -0.1647235 0.049421743 -0.06228668
000120 4c 98 ea 3e d8 ce 80 3d c9 68 a9 3c 8f 6c 04 3e
       0.45819318 0.06289452 0.020679848 0.12932037
000130 74 af 5d 3d a6 81 52 3e 11 a6 74 be cc a3 35 bd
       0.054122403 0.2055727 -0.23891474 -0.044345662
000140 ea 47 be bc 30 dc 9c 3e a9 a0 bc bd c7 fc 70 3c
       -0.02322765 0.3063674 -0.09210331 0.014708704
000150 a3 97 28 3f b6 c8 34 bd b5 b6 a4 3d 13 9f 97 3e
       0.6585638 -0.044136725 0.08042661 0.29613551
000160 b0 f6 37 bd 3c b2 f3 3e ad fe f0 3d 93 7c c6 bc
       -0.044912994 0.4759692 0.117673256 -0.024229323
000170 f1 14 e3 3d 89 65 df bb 46 35 46 3e 05 52 06 3f
       0.11087979 -0.006817524 0.1935626 0.524689
000180 68 d8 e2 3d 9e c7 57 3d 6f eb 93 3e 6f 16 61 3d
       0.110764325 0.052680604 0.2889056 0.054953035
000190 6b 60 8e 3e 2d cb 1c 3f fb 8e e2 bd d7 f2 df 3e
       0.27807936 0.6124752 -0.110624276 0.4373996
0001a0 a9 45 62 3e 95 d0 9b be fd b5 3d 3d 53 f7 37 3e
       0.22096886 -0.30432573 0.046316136 0.1796544
0001b0 0f 1f 2f 3e a0 00 ec 3c f8 ad 65 3d 22 38 bb bd
       0.17101692 0.028808892 0.056074113 -0.09141566
0001c0 83 19 13 be b2 30 4b 3e bd e4 51 3f 89 e9 87 3e
       -0.143652 0.19842795 0.8198965 0.2654536
0001d0 dd bf 03 3f cd 66 84 3e d8 ba d2 bd ad 37 f1 3e
       0.51464635 0.2585968 -0.10289544 0.4711279
0001e0 1b 93 33 3e a2 6e e5 3e 8f 35 7d bd 46 54 64 bd
       0.17536585 0.4481097 -0.061818656 -0.055744432
0001f0 60 d2 ee 3d d4 e8 e9 bc 4c 26 ae 3e 3c 1f 66 3f
       0.116612196 -0.028553404 0.34013593 0.8989141

fc1.weight f4 [128, 16]
000000 2b 64 1a 3f c4 f9 00 be 7b 11 8e 3f bc 0d 7e 3f
       0.60309094 -0.12595278 1.1099085 0.99239707
000010 30 60 eb be 48 36 00 3e fc 70 43 3e 66 94 bb be
       -0.45971823 0.12520707 0.19086069 -0.36636657
000020 cb c6 f5 3e 6b e2 fc be 58 12 84 be ec c2 71 3e
       0.4800323 -0.49391493 -0.25795245 0.23609513
000030 35 d9 a1 be 78 22 b7 be 84 55 18 be 8c 8a 38 3e
       -0.31611028 -0.35768485 -0.14876372 0.18021601
000040 1d c3 3c 3d a7 6c 72 3e 84 7d 0c bf 62 e5 37 3f
       0.046084512 0.2367426 -0.5487902 0.71834385
000050 ef 07 2f be 08 77 9c 3b f4 bf 42 3d 53 a6 b3 3e
       -0.1709287 0.004774932 0.047546342 0.35087833
000060 f8 4c 42 3d 85 e2 7b bd d2 91 c7 3e a9 03 97 3d
       0.047436684 -0.061495323 0.3897844 0.07373745
000070 03 4a d7 3e 33 d0 fb be 40 cd f3 3d ec 9f 44 be
       0.42048654 -0.4918228 0.11904383 -0.1920163
000080 6f b5 db 3e a0 0f dd 3e bd e9 50 3f e1 1b c7 3f
       0.4291186 0.43175983 0.81606656 1.5555383
000090 2e a7 21 bf ef eb 7b 3d 3c c2 03 be 9a 0c 23 3c
       -0.6314572 0.0615043 -0.12867063 0.009951735
0000a0 2f 6b bf b9 e8 ea 4f bf 19 16 ae be 26 9a 3c be
       -0.00036510217 -0.81217813 -0.34001234 -0.18418178
0000b0 8f f3 2b be b3 38 05 bf 84 6c d0 bd a8 e3 0b 3e
       -0.16792129 -0.5203964 -0.10176948 0.13661063
0000c0 57 64 44 3e 4c 1d 5f 3c 86 dd c2 be 61 0b e8 3e
       0.19178902 0.013617825 -0.38059634 0.4532118
0000d0 ce c7 3b 3f 90 e3 f5 bc cb ec e6 bd 95 ac ef 3d
       0.7335175 -0.030015737 -0.112756334 0.11702839
0000e0 4f 39 de bc cd b3 49 3f 5b 0a 9d 3e 72 c7 71 be
       -0.027126936 0.7878998 0.30671963 -0.23611239
0000f0 64 1a 97 3e 3a 02 51 bf 84 a9 d7 3d 80 e8 94 bc
       0.29512322 -0.8164402 0.105303794 -0.01817727
000100 df 41 88 3e 1e c4 f2 3e 68 f3 4e 3d 52 0a a2 3f
       0.26612756 0.4741525 0.0505251 1.26594
000110 5d 14 fc be 17 92 c8 3d 48 c7 5a 3d e5 e0 ab 3e
       -0.49234286 0.097934894 0.053412706 0.33570018
000120 4c a8 7b 3e da 73 2f bf 6c 4d d8 b9 a4 bf 91 be
       0.24575919 -0.6853615 -0.00041256414 -0.28466523
000130 5c 04 a5 bc a7 f2 5e be 52 52 77 3e 0e 00 2b 3e
       -0.02014368 -0.21772252 0.24152496 0.1669924
000140 69 83 41 3f bf 8c ab 3d 7a f6 78 3f 75 fc 78 3f
       0.7559114 0.083764546 0.97251093 0.9726022
000150 4c 51 72 bf 01 27 e7 3d 69 6a a4 3c 84 dc 93 bd
       -0.946553 0.11286736 0.020070272 -0.072197944
000160 4f 5c 40 3e 90 c2 62 bf fc 54 a8 be 7c 64 c1 3e
       0.18785213 -0.8857813 -0.32877338 0.37771976
000170 8e 36 72 bf ad 27 82 3e 36 3d 14 be 98 f0 de 3d
       -0.94614494 0.25420895 -0.14476475 0.10885733
000180 da 23 aa 3e c0 9d b5 3d ef 4e df 3e 38 01 33 be
       0.33230478 0.08867979 0.4361491 -0.17480934
000190 a4 09 2d 3f fa 10 c2 bd 1b 89 76 be 3a 95 30 3e
       0.67592835 -0.09475894 -0.24075739 0.17244425
0001a0 db 5a c5 be 70 f4 69 3f bb b7 4f 3d 06 29 08 bf
       -0.3854588 0.9138861 0.05071233 -0.53187597
0001b0 3a c9 8c be 77 bf db be 80 3b a6 3c 60 9e f7 bd
       -0.27497274 -0.42919514 0.020292044 -0.120907545
0001c0 36 32 34 3e 18 d3 34 3f 54 be 99 3e 8a 26 ec 3f
       0.17597279 0.70634604 0.3002802 1.8449261
0001d0 72 17 06 bf 6d dc 90 bd e4 32 93 bc 4e ad 37 3e
       -0.52379525 -0.07073293 -0.017968602 0.17937204
0001e0 80 e1 84 3d e4 b3 19 bf ae b3 f2 b6 29 29 f2 bd
       0.06488323 -0.60040116 -7.2330795e-06 -0.11824257
0001f0 94 99 88 3e 5b e4 0a bf b6 00 5c be 38 7f 2b 3e
       0.2667967 -0.5425469 -0.21484646 0.16747749
000200 ff 77 cd 3b 29 f0 45 be 99 9f 7b 3f ce 4d b5 bf
       0.006270408 -0.19329895 0.982904 -1.4164369
000210 f9 f7 23 bf cc a2 32 bd b4 45 c5 bd fe 98 8f 3e
       -0.6405025 -0.043612286 -0.096324354 0.2804641
000220 2c 90 e8 bd 2f 97 07 bf cc a4 73 bf 5e 18 fc 3e
       -0.113556236 -0.5296506 -0.95173335 0.4923734
000230 43 f4 2a bf b5 9b ac 3e 24 df 0d 3e 60 74 cf 3d
       -0.66778964 0.33712545 0.13854653 0.10129619
000240 ce fe 32 be 9f 32 1c 3f 2a 22 e5 3e cc b4 1d 3f
       -0.17480013 0.6101474 0.44752628 0.61604
000250 a3 69 01 3e 32 30 ca 3b b3 a8 c6 bd 40 8e 49 3f
       0.12637953 0.006170296 -0.097001456 0.7873268
000260 51 c2 01 3f a2 5f cb bd c8 09 f5 be 8c 3d 9b 3e
       0.5068713 -0.0993035 -0.47859025 0.30320394
000270 ee 9f 62 be cb 1a e3 3d 15 f0 af 3d 10 fe d1 3d
       -0.22131321 0.11089095 0.08590714 0.10253537
000280 df 10 bc 3d f0 f5 77 3e 4c d9 de bf 00 46 67 3f
       0.091829054 0.24214911 -1.7410064 0.90341187
000290 0d 4b 4f bf 1d 60 de bc dd 7e 18 be 90 65 82 be
       -0.80973893 -0.02714544 -0.14892145 -0.2546811
0002a0 2f c7 fa be 2d f7 1c bf 14 e4 62 3f c6 fb 27 bf
       -0.4898009 -0.6131466 0.8862927 -0.6561855
0002b0 47 be 71 3f c8 0c cf be 72 3c 35 3e 7e da 67 3e
       0.94430965 -0.4043944 0.1769884 0.22641942
0002c0 c9 a2 a7 3d ae 5b a9 3e 3e 0d 3a 3f 2f 58 b3 be
       0.08185346 0.3307776 0.72676456 -0.35028216
0002d0 44 ae 80 3e 2d 64 42 3e 88 37 8b bd 04 6e aa 3e
       0.25132954 0.18983527 -0.06797701 0.3328706
0002e0 ac b4 a5 3e d4 1e 28 3f a7 fd 07 be 54 66 73 3f
       0.32364404 0.6567204 -0.13280354 0.95078015
0002f0 13 07 56 3d fc 50 80 3f 8c 5b 5f 3e 5a 23 42 be
       0.05225284 1.0024714 0.21812266 -0.18958798
000300 e1 35 d7 be 5f da d7 3d 80 29 4c bf 20 4a 22 3e
       -0.42033294 0.10539698 -0.79750824 0.15848589
000310 6c 94 3c bf e6 a6 2b 3d 24 5a b2 bd d1 cc 8f 3c
       -0.73663974 0.041907214 -0.08708599 0.017553719
000320 8b f6 af 3d 2f 13 64 bf bc 8c 8b 3d 11 d5 ea 3e
       0.08591946 -0.8909177 0.06813952 0.45865682
000330 f0 03 8f 3e 66 36 a5 3b 54 6c a0 bd 3c 20 da bd
       0.27932692 0.005041885 -0.07833162 -0.106506795
000340 ad 5b 3a be bd ea 34 be a6 77 98 3e c3 95 fc bf
       -0.18199034 -0.1766767 0.29778785 -1.9733204
000350 18 1f 10 3f bc 5f ef 3c 8e 97 96 bd f3 eb d0 be
       0.56297445 0.029220454 -0.073531255 -0.40805015
000360 12 32 14 bf 84 43 16 3f da a2 39 bf 96 39 17 3e
       -0.578889 0.5869677 -0.72514117 0.14768061
000370 eb 2f 0b bf f1 ee bf 3e 36 46 37 3e 24 13 38 3e
       -0.5436999 0.37486985 0.17897877 0.17976052
000380 12 9d dd bd 09 fb e7 3e d7 8c 94 be 90 d2 c5 3f
       -0.108209744 0.45308712 -0.29013702 1.5454884
000390 ef 29 93 bf 48 86 59 3e 7a 37 09 3e 7c c1 34 3e
       -1.1497172 0.2124263 0.13400069 0.17651933
0003a0 50 55 88 3e 9e 73 72 bf 91 8c 82 3e 9c 7e 6d bf
       0.26627588 -0.9470767 0.2549787 -0.92771316
0003b0 b5 d9 07 3f db cf 09 bf 1c ad 54 be 44 a3 2c be
       0.5306657 -0.5383279 -0.20769161 -0.16859156
0003c0 11 63 da 3e 5d a7 69 be db 66 93 3f 51 ee 0f bf
       0.42653707 -0.2281775 1.1515764 -0.56223017
0003d0 34 8f 42 bf 58 dd 95 3d 90 46 57 bd f2 3e f1 be
       -0.7599976 0.073176086 -0.052557528 -0.47118336
0003e0 41 45 87 3e 8d 38 36 bf 70 44 9c bf 7f 9e e7 3e
       0.26420024 -0.7118004 -1.2208385 0.4523811
0003f0 eb e7 85 bf 10 d7 cc 3e 38 4e b7 bd 98 26 39 3d
       -1.0461401 0.4000783 -0.08950466 0.04520282
