models/good_moving_weights.pt (torch, 620389 bytes, 48 tensors)

fc1.weight f4 [128, 13]
0	0xbdb4b881	-0.08824254
1	0x3ebe6946	0.37189692
2	0x3e5cd11f	0.21564148
3	0x3e73a44c	0.23793143
4	0x3d56d5a2	0.05244983
5	0x3c96ba6b	0.018399438
6	0xbd893030	-0.06698644
7	0x3f4d888c	0.8028648
8	0xbf376579	-0.7163921
9	0x3f5ba155	0.8579305
10	0xbef84529	-0.48490265
11	0xbe48d074	-0.19610769
12	0xbe2f70b0	-0.1713283
13	0xbece8f6b	-0.40343794
14	0x3d818f71	0.063261874
15	0x3e419056	0.18902716
16	0x3f7ccacd	0.9874695
17	0xbde96b73	-0.113974474
18	0xbd6086ac	-0.054815933
19	0x3fa479dd	1.284969
20	0x3f88dca3	1.0692333
21	0xbe400f95	-0.18755944
22	0x3f1196f7	0.5687098
23	0x3e21071c	0.15725368
24	0x3e0a5b1b	0.13511316
25	0xbe2ce415	-0.16883881
26	0xbeb43fc0	-0.35204887
27	0x3e572005	0.21008308
28	0xbf0795ea	-0.52963126
29	0x3fa0d23e	1.2564161
30	0x3d31e7bd	0.043433893
31	0x3e2c6716	0.16836199
32	0x3fa0f4bb	1.2574686
33	0x3f8f155e	1.1178396
34	0xbf2b2f7d	-0.66869336
35	0x3f883312	1.0640585
36	0xbe8e57a9	-0.27801254
37	0x3dfa1722	0.122114435
38	0xbe70105d	-0.23443742
39	0xbf6872c6	-0.9080013
40	0x3f1ec632	0.6202117
41	0xbd82bfb7	-0.06384223
42	0xbf62181e	-0.8831805
43	0xbc4b9d49	-0.012427636
44	0xbcb44280	-0.022004366
45	0xbf7b0c80	-0.9806595
46	0x3e8a0d9d	0.2696351
47	0x3da050ba	0.07827897
48	0x3f7812ab	0.96903485
49	0x3ee09e71	0.4387088
50	0x3e575acb	0.21030729
51	0xbe6a6195	-0.22888787
52	0x3e63a8b7	0.22232328
53	0x3f13ead1	0.57780176
54	0x3fab79dd	1.3396565
55	0xbfdae0a3	-1.7099804
56	0x3c67c035	0.014144947
57	0x3dcb5abe	0.09929417
58	0xbfcfd259	-1.6236068
59	0xbe8ee6af	-0.27910373
60	0xbfce0dd4	-1.609797
61	0xbf449693	-0.7679226
62	0xc01f18b3	-2.4858825
63	0xbe811616	-0.25212163
64	0x3e0bb695	0.13643868
65	0x3eb36087	0.35034582
66	0xbf873f5d	-1.0566212
67	0xbebf579b	-0.37371525
68	0xbfb821cc	-1.4385314
69	0x3dedcbff	0.11611175
70	0xbe0a1b52	-0.13486984
71	0xbfaaafaf	-1.3334864
72	0xbf23fa88	-0.64054155
73	0x3fa4aaad	1.2864586
74	0xbeb1dd55	-0.34739175
75	0x3f8bbabe	1.0916364
76	0x3da4cddf	0.08047079
77	0xbe66c281	-0.22535135
78	0xbec86f9a	-0.39147645
79	0x3f0bcfc4	0.546139
80	0xbfb3df6d	-1.4052559
81	0xbf13b790	-0.5770197
82	0xbe1d0747	-0.15334807
83	0xbdc0d872	-0.09416284
84	0xbf56c7c4	-0.8389857
85	0x3f916cf1	1.1361371
86	0xbfc67ed0	-1.550745
87	0x3f67834b	0.9043471
88	0xbfefd7c7	-1.8737725
89	0xbe50fcf9	-0.20409001
90	0x3e5c5403	0.21516423
91	0xbd0f72be	-0.035021536
92	0x3d4fe92f	0.05075949
93	0xbf188343	-0.5957529
94	0x3f06d208	0.5266423
95	0xbebf4c30	-0.37362814
96	0x3c9cb6df	0.019130168
97	0x3f1fa80a	0.6236578
98	0xbf0e1f9a	-0.5551697
99	0x3ed1799b	0.4091309
100	0xbf37ce8c	-0.7179954
101	0x3f281845	0.6566203
102	0xbe77107a	-0.24127379
103	0x3d6ad4b5	0.05733176
104	0xbe97e03a	-0.2966326
105	0x3eb6cf0c	0.3570484
106	0xbe8d6556	-0.27616376
107	0x3f9cade8	1.2240572
108	0xbddcf238	-0.10788387
109	0xbeaeac1b	-0.3411568
110	0x3f9c4c75	1.2210833
111	0xbf6fce94	-0.9367459
112	0x3e693e0d	0.22777577
113	0xbe08ff2a	-0.13378587
114	0xbea05993	-0.3131834
115	0x3e75534e	0.2395756
116	0x3d3ea1ef	0.04654115
117	0x3ed55647	0.41667387
118	0x394cbdd8	0.00019525678
119	0x3df60ae0	0.12013793
120	0x3e535aad	0.20640059
121	0xbe4fc24b	-0.2028896
122	0x3de51511	0.11185659
123	0xbd59fb7a	-0.053218342
124	0xbed6ba1c	-0.41938865
125	0xbed47cef	-0.41501567
126	0x3d1a81ad	0.037721325
127	0xbf3c7bff	-0.73626703
128	0xbe2911e7	-0.16510735
129	0x3d7e8724	0.0621406
130	0x3f2920e0	0.6606579
131	0xbed5b2eb	-0.41738066
132	0x3fbed3d7	1.4908398
133	0xbea97480	-0.33096695
134	0x3d8f6dd6	0.070033714
135	0x3d99c9d0	0.07509196
136	0xbf3eb69f	-0.7449741
137	0x3e2c00fa	0.16797248
138	0xbeaa1688	-0.33220315
139	0xbd8859ea	-0.06657775
140	0xbe80456f	-0.25052974
141	0xbdd8c22a	-0.10583909
142	0x3dc072ee	0.09396921
143	0xbf420d48	-0.75801516
144	0x3ed043c6	0.40676707
145	0xbf3ed174	-0.7453835
146	0xbfacfe0e	-1.3515031
147	0x3ddf6774	0.10908404
148	0xbd9a894f	-0.07545721
149	0xbfa90cd8	-1.3207045
150	0x3f138b20	0.5763416
151	0xbfb5776e	-1.4177072
152	0x3fa8c53f	1.3185195
153	0xbfe63f6b	-1.7988104
154	0x3d56a98f	0.052407797
155	0xbe37a9b9	-0.17935838
156	0xbeee1f3d	-0.46508208
157	0xbe592bf3	-0.21208172
158	0xc0168906	-2.3521132
159	0xbf92dd79	-1.1473838
160	0x3e0fb6c7	0.14034568
161	0x3dd37d5a	0.10326643
162	0xbf8d2aad	-1.1028649
163	0x3d3db7c6	0.046317838
164	0x3e5e3b10	0.21702218
165	0x3dfe6f44	0.12423566
166	0x3f30f8d4	0.6912968
167	0x3e299cbc	0.16563696
168	0x3db1da92	0.08684267
169	0x3e3d2e48	0.18474686
170	0xbd9facb1	-0.0779661
171	0xbe02f4c8	-0.12788689
172	0x403bfc56	2.9372764
173	0xbc4252f2	-0.011860596
174	0xbc01e22d	-0.00792746
175	0x403a0ab3	2.906903
176	0x3e543b3d	0.20725723
177	0x3e98a9b0	0.2981696
178	0x3f886e3f	1.0658644
179	0x3f16de3a	0.5893284
180	0x3d8a1ef3	0.06744184
181	0x3da9f2bb	0.0829825
182	0xbf36ca31	-0.7140227
183	0xbea0e1c9	-0.3142226
184	0xbfb93fe7	-1.4472626
185	0xbee47691	-0.4462171
186	0xbde3b8bd	-0.111192204
187	0xbe453789	-0.19259466
188	0xbf2d43b5	-0.6768144
189	0xbda12344	-0.078680545
190	0x3d1b9830	0.037986934
191	0x3ce51581	0.027964355
192	0x3b4834a6	0.003054896
193	0x3e84c927	0.25934717
194	0xbdcbe1f6	-0.09955208
195	0x3f4a1867	0.78943485
196	0xbdc8d31e	-0.098058924
197	0xbed24cbc	-0.4107417
198	0xbef8d354	-0.4859873
199	0x3d875b69	0.06609232
200	0xbd4fd0bf	-0.050736185
201	0xbe9a9d54	-0.30198157
202	0xbe8444df	-0.25833794
203	0x3f4c967d	0.79917127
204	0x3e7515ce	0.23934099
205	0xbe593f24	-0.21215492
206	0xbe2baad5	-0.16764386
207	0x3e4137e8	0.18868983
208	0xbf0f53b5	-0.559871
209	0xbebbbcac	-0.36667383
210	0x3d57fa66	0.052729033
211	0x3f46254a	0.7740065
212	0x3d98a2fb	0.07452961
213	0xbde7be8c	-0.11315641
214	0x3f4409c4	0.765774
215	0xbf8a9225	-1.082585
216	0x3f1d115c	0.61354613
217	0xbfb55972	-1.4167922
218	0x3e85980b	0.26092562
219	0xbe363bac	-0.177962
220	0xbe8b89a2	-0.27253443
221	0xbeb17274	-0.34657633
222	0x3f2ac287	0.66703075
223	0x3f577809	0.84167534
224	0x3e8ddd73	0.27708015
225	0xbd8a73e4	-0.06760386
226	0x3d960a40	0.07326174
227	0x3ef00940	0.46882057
228	0x3f0c617c	0.5483625
229	0x3f93105e	1.148937
230	0xbec6a052	-0.3879419
231	0x4017140b	2.3605983
232	0xbe8485f0	-0.25883436
233	0x3e498370	0.19679046
234	0xbed160ef	-0.40894267
235	0xbe66f97c	-0.22556108
236	0xbed6e5b8	-0.41972136
237	0xbf9f9ae4	-1.2469144
238	0x3dfcc37f	0.123419754
239	0x3de00acd	0.1093956
240	0xbfbac97f	-1.4592742
241	0x3dafe3fc	0.085884064
242	0x3f61eb58	0.8824973
243	0x3ea283bd	0.31741133
244	0x3f847cb8	1.0350561
245	0x3e60a3e2	0.21937516
246	0xbceae8ec	-0.028675519
247	0x3f2a2230	0.66458416
248	0xbe5b1813	-0.21395902
249	0xbe3f1fee	-0.18664524
250	0xbf67c610	-0.90536594
251	0x3e0a2a4e	0.134927
252	0x3e45c45a	0.19313183
253	0xbf1d520a	-0.61453307
254	0xbf20aac9	-0.627606
255	0x3f58b5b9	0.84652287

fc1.bias f4 [128]
0	0xbe3a7651	-0.18209197
1	0x3f592668	0.8482423
2	0x3f650304	0.89457726
3	0xbf835568	-1.0260439
4	0xbfb4e805	-1.4133307
5	0xbf9df33a	-1.2339852
6	0xbf50544d	-0.8137863
7	0x3f2b7423	0.66974086
8	0x3f46d184	0.77663445
9	0x3d4d3bd2	0.050105877
10	0xbf0dd4a9	-0.5540262
11	0xbf6d5907	-0.9271397
12	0xbf47730b	-0.77909917
13	0x4032434c	2.7853575
14	0xbf5d1118	-0.8635421
15	0xbf34433c	-0.7041509
16	0x3ee126d3	0.43974933
17	0x3f15407d	0.58301526
18	0xbfde858d	-1.7384506
19	0xbf855c7b	-1.0418848
20	0xbf2019df	-0.62539476
21	0xbf60719a	-0.8767334
22	0xbe009b6a	-0.12559286
23	0xbe90f550	-0.2831216
24	0x3f7bea1e	0.9840411
25	0xbec15773	-0.3776203
26	0xbfaa7d36	-1.3319461
27	0x3e42bb3a	0.19016734
28	0xbeb6d3a9	-0.3570836
29	0xbf506094	-0.81397367
30	0xbe03c0bb	-0.1286649
31	0xbe6f02fe	-0.23340985
32	0xbfa90846	-1.320565
33	0x3f81d161	1.0142022
34	0xbfae0567	-1.3595399
35	0xbfd73294	-1.681231
36	0xbdd02a1a	-0.1016428
37	0xbf642c52	-0.8913013
38	0xbf47176d	-0.7777012
39	0xbfc9a7ce	-1.5754335
40	0xbf5dfc8b	-0.86713475
41	0xbe5bea85	-0.21476181
42	0xbfb03119	-1.3764983
43	0xbec46d2f	-0.3836455
44	0xbf52898d	-0.82241136
45	0xbf6508ea	-0.89466727
46	0x3f601a74	0.87540364
47	0xbe0755e8	-0.13216364
48	0xbf9001da	-1.1250565
49	0xbc345c56	-0.011008343
50	0xbfc1181d	-1.5085484
51	0xbf79264f	-0.9732408
52	0xbf32fbd1	-0.6991549
53	0xbf560c2a	-0.8361231
54	0xbf30fbaa	-0.6913401
55	0x3f923f10	1.1425495
56	0x3fa1dac4	1.2644887
57	0xbeaf8b18	-0.34285808
58	0xbf91c16e	-1.1387155
59	0x3ecc2a1c	0.39875877
60	0xbf82354b	-1.0172514
61	0x3e8614cf	0.2618775
62	0xbf98e09b	-1.1943544
63	0xbecac86b	-0.39606032
64	0x3f803017	1.0014676
65	0x3f65c7f9	0.8975826
66	0xbf109dff	-0.5649108
67	0xbe936568	-0.28788304
68	0xbe030558	-0.12795007
69	0x3f1feabe	0.62467563
70	0x3f59656c	0.8492038
71	0xbee759c3	-0.4518567
72	0xbee072ba	-0.4383753
73	0xbf6caa22	-0.924471
74	0xbf53da83	-0.827553
75	0xbf631ed5	-0.8871892
76	0x3e37e9f1	0.17960335
77	0xbed9c010	-0.42529345
78	0x3f82fa86	1.0232704
79	0x3e1e916e	0.15485165
80	0x3f3ed6e3	0.7454664
81	0xbfaafdea	-1.3358738
82	0x3f393aa5	0.7235511
83	0x3ef9ecba	0.4881342
84	0x3f009aa1	0.50235945
85	0x3dfae657	0.12250965
86	0xbffc6f51	-1.9721471
87	0xbf1c0a9e	-0.609537
88	0xbfcc262a	-1.5949147
89	0xbf885c86	-1.0653236
90	0xbf64cddf	-0.89376634
91	0xbe37bffb	-0.17944328
92	0xbea7fe17	-0.32811043
93	0xbf2a2e8e	-0.66477287
94	0xbd340251	-0.04394752
95	0x3f5628ed	0.836562
96	0xbe29fa48	-0.16599381
97	0x3ec3f41e	0.38272184
98	0xbd8daa5c	-0.06917259
99	0xbfa7ac64	-1.3099484
100	0xbfd924b6	-1.6964328
101	0xbef6d39d	-0.48208323
102	0x3f0adbd1	0.54241663
103	0x3fa2cb8e	1.271837
104	0xbf211bc5	-0.62933
105	0xbf956ea2	-1.1674387
106	0xbfa0d6f1	-1.2565595
107	0x3fc51836	1.5398014
108	0xbe067c88	-0.13133442
109	0x3e4e77a8	0.20162833
110	0xbf72bed3	-0.94822425
111	0x3e432e99	0.19060744
112	0xbf5b527d	-0.8567274
113	0x3fdaa44d	1.7081391
114	0xbecb8755	-0.39751688
115	0xc01bd718	-2.4350033
116	0xbf9b9b64	-1.2156796
117	0xbf7c19e2	-0.98476994
118	0x3ffd21af	1.9775904
119	0xbf94bde7	-1.1620454
120	0xbe7815db	-0.24227087
121	0x3f2f4b15	0.6847394
122	0x3f5aa0fe	0.85401905
123	0xbf6301b1	-0.88674456
124	0xbf83a0cf	-1.028345
125	0xbe77685d	-0.24160905
126	0x403fb272	2.9952664
127	0x40069b49	2.1032279

fc2.weight f4 [128, 128]
0	0x3ecaec69	0.39633492
1	0xbeeee4ec	-0.4665903
2	0xbf22140b	-0.63311833
3	0xbecc201c	-0.39868248
4	0xbdfa4452	-0.12220062
5	0x3ef187a1	0.4717379
6	0xbf276136	-0.6538271
7	0xbf16c20d	-0.5888985
8	0xbd8487f2	-0.06471242
9	0x3eab0b5a	0.33407098
10	0x3e91b090	0.2845502
11	0xbe81c0dd	-0.25342456
12	0xbfaaeec6	-1.3354118
13	0xbf83f2fb	-1.0308527
14	0x3d084ceb	0.03327648
15	0x3e9a878c	0.3018154
16	0xbf2dce45	-0.6789287
17	0xbd169a46	-0.03676822
18	0x3f6fd390	0.93682194
19	0x3eea53a8	0.4576695
20	0x3e0c4eae	0.13701889
21	0xbcc598a4	-0.024120636
22	0xbd254280	-0.040346622
23	0xbf7cd088	-0.98755693
24	0xbed21459	-0.4103115
25	0xbdcd1b99	-0.100150295
26	0x3e68019f	0.22656868
27	0x3e948cfe	0.29013819
28	0x3eacd672	0.3375736
29	0x3f0b02b5	0.54301006
30	0x3ec3d2af	0.38246676
31	0xbd09a51a	-0.03360472
32	0x3e82339e	0.25430006
33	0xbf624020	-0.88379097
34	0x3cca214b	0.024674078
35	0x3f5e86bc	0.8692434
36	0x3e917c4f	0.28415152
37	0xbe79e85a	-0.24405041
38	0x3e3ec187	0.18628512
39	0x3f04a6ff	0.51817316
40	0xbe86d912	-0.26337487
41	0x3f6bf6f7	0.92173713
42	0xbed9791a	-0.42475206
43	0xbee33c2f	-0.44381854
44	0xbea2fba3	-0.3183261
45	0x3e103300	0.14081955
46	0x3e0ce682	0.13759807
47	0x3dfdc22c	0.12390551
48	0x3f060da2	0.5236455
49	0x3dedb987	0.11607652
50	0xbe7fa544	-0.24965388
51	0x3eee04ae	0.46487945
52	0x3e1506a8	0.1455332
53	0xbedeb88b	-0.4350017
54	0x3ddf86eb	0.109144054
55	0xbe698a73	-0.2280672
56	0xbda1b169	-0.078951664
57	0xbf27c699	-0.6553741
58	0x3ee920cf	0.45532843
59	0xbe53af75	-0.206724
60	0x3f424ad9	0.7589546
61	0xbf204ef5	-0.6262048
62	0x3ec8de0e	0.39231914
63	0x3de951c6	0.1139255
64	0xbe456e6a	-0.19280401
65	0xbe2f294b	-0.17105596
66	0x3e87ae6e	0.26500267
67	0xbe5fc364	-0.2185188
68	0x3e4a8c10	0.19779992
69	0xbe75727e	-0.23969457
70	0x3e594a71	0.21219803
71	0xbf4b3ac0	-0.7938652
72	0x3ea058f9	0.3131788
73	0x3ed555e7	0.416671
74	0xbe898103	-0.2685624
75	0x3e75b51c	0.23994869
76	0x3ca0c1d1	0.019623669
77	0x3d710bdd	0.058849204
78	0xbe9f5508	-0.3111956
79	0xbf551dc4	-0.83248544
80	0xbf0b2d2b	-0.54365796
81	0xbf9545de	-1.1661947
82	0xbd048c38	-0.032360286
83	0xbe966a60	-0.29378033
84	0xbe1900ec	-0.14941758
85	0x3f217989	0.6307607
86	0x3e510dd7	0.20415436
87	0xbf188d09	-0.595902
88	0x3f088eb6	0.5334276
89	0x3eb4317b	0.35194
90	0x3da17d4c	0.078852266
91	0x3ea03eff	0.31298062
92	0xbdd95836	-0.10612528
93	0xbc20af97	-0.009807489
94	0x3dda96ba	0.1067328
95	0xbf01dffd	-0.50732404
96	0xbd8eea45	-0.06978277
97	0x3d973a4a	0.07384165
98	0x3e6909b7	0.22757612
99	0x3ecd605b	0.40112576
100	0x3f519834	0.8187287
101	0x3edab300	0.4271469
102	0xbe8717f5	-0.26385465
103	0xbf8e3ec3	-1.1112903
104	0xbf53d84f	-0.82751936
105	0x3f1a88db	0.60365075
106	0x3f22abcf	0.6354341
107	0xbef13eb6	-0.47118157
108	0x3b942b6c	0.004521778
109	0x3e1ef3e5	0.15522726
110	0x3f1003b5	0.56255656
111	0x3e9a280c	0.30108678
112	0x3ed8b5df	0.42326257
113	0xbf1c9491	-0.61164194
114	0x3e05e26b	0.13074653
115	0x3f236f43	0.63841647
116	0xbf02d0a3	-0.51099604
117	0xbec27406	-0.37979144
118	0xbf62235f	-0.8833522
119	0xbf2821e1	-0.65676695
120	0xbec3a4af	-0.3821158
121	0xbef75926	-0.48310202
122	0xbec4f44f	-0.38467643
123	0x3ec17b8e	0.37789577
124	0x3d022e4a	0.031782426
125	0x3e66433a	0.22486582
126	0xbf5640ce	-0.83692634
127	0xbf90755e	-1.1285818
128	0x3e1606c9	0.14651026
129	0xbf3463d4	-0.70464826
130	0xbf16de00	-0.58932495
131	0xbeb9f368	-0.36318517
132	0xbec0da96	-0.37666768
133	0xbba926c6	-0.005162093
134	0xbf08692b	-0.53285474
135	0xbee657d9	-0.44988897
136	0xbee7e79a	-0.45293885
137	0x3defa772	0.117018595
138	0x3db0ee9a	0.0863926
139	0xbe601693	-0.21883611
140	0xbf0e5308	-0.55595446
141	0xbe1cb463	-0.15303187
142	0xbdf37f75	-0.11889545
143	0x3c5fae74	0.013652433
144	0xbeafc724	-0.3433162
145	0xbf412175	-0.75441676
146	0xbf01db1b	-0.50724953
147	0x3e4246ff	0.18972395
148	0x3e9be967	0.3045151
149	0xbea25d2a	-0.31711704
150	0xbea26048	-0.31714082
151	0xbebb6482	-0.3660012
152	0xbebd1708	-0.36931634
153	0xbf236ad2	-0.6383487
154	0x3d939a0d	0.07207117
155	0xbee1ea1d	-0.44123927
156	0xbf6fe502	-0.93708813
157	0xbd5ee7ee	-0.054420404
158	0x3dd09372	0.10184373
159	0x3d2fef08	0.042952567
160	0xbeeb933d	-0.4601077
161	0xbf681ac4	-0.9066584
162	0xbdad2125	-0.084535874
163	0x3e11da4b	0.14243428
164	0xbe9a6112	-0.30152184
165	0xbf12cbd4	-0.5734227
166	0xbec5fb41	-0.38668254
167	0x3da00186	0.078127906
168	0xbea7feca	-0.32811576
169	0xbeba1417	-0.36343452
170	0x3f024d8c	0.5089958
171	0xbe8f97f6	-0.28045624
172	0xbf8be7a9	-1.0930072
173	0xbe544843	-0.2073069
174	0xbf149c10	-0.5805063
175	0xbea9e0b9	-0.33179262
176	0xbee04859	-0.43805197
177	0xbeaedbeb	-0.3415216
178	0xbf0e3c33	-0.55560607
179	0xbf25d15c	-0.6477258
180	0x3ed8a51d	0.4231347
181	0xbf0e9093	-0.5568935
182	0x3db0dcd3	0.08635869
183	0xbe8b17db	-0.27166638
184	0xbec4fcf3	-0.38474235
185	0xbf26ac51	-0.65106684
186	0x3ebee856	0.37286633
187	0x3e7dda7c	0.24790376
188	0xbe7126ec	-0.23550004
189	0xbdb75314	-0.08951393
190	0x3ee30e16	0.44346684
191	0x3ec1fc25	0.37887684
192	0xbf0d4252	-0.5517932
193	0xbf4a2d02	-0.78974926
194	0x3d93cc7d	0.072167374
195	0xbf3d1c71	-0.73871523
196	0xbf13c665	-0.577246
197	0xbdcf026a	-0.10107882
198	0x3bb303f0	0.005463116
199	0xbf94ee51	-1.1635228
200	0x3c1feff7	0.009761802
201	0x3dab5db9	0.083674856
202	0x3e1926d7	0.14956222
203	0xbef254b9	-0.47330263
204	0x3e8633f7	0.2621152
205	0xbe95ca5e	-0.29255956
206	0xbf42e8ec	-0.7613666
207	0xbe8d11cc	-0.2755264
208	0xbd9fe9b8	-0.0780825
209	0x3e805c50	0.2507043
210	0x3e3e761e	0.18599746
211	0x3e7477fe	0.23873898
212	0xbf30bfec	-0.6904285
213	0xbd25db72	-0.040492482
214	0xbeb01bf3	-0.34396324
215	0xbef25704	-0.47332013
216	0xbf1b0c9c	-0.60566115
217	0xbed4c2b7	-0.41554806
218	0x3e5c7cc2	0.21531966
219	0x3e2ee20d	0.17078419
220	0xbe948b8d	-0.2901272
221	0x3e953570	0.29142332
222	0xbf0471e4	-0.51736283
223	0xbf0527ea	-0.5201403
224	0x3e97f204	0.2967683
225	0x3c9f99e6	0.019482564
226	0xbf06b6f0	-0.5262289
227	0x3eb026fe	0.3440475
228	0x3e93c549	0.28861454
229	0x3dc66947	0.09688049
230	0xbf24424c	-0.6416366
231	0xbec7c4e5	-0.39017406
232	0xbe450cb7	-0.19243132
233	0xbf1b9f47	-0.6078991
234	0x3e27cd40	0.1638689
235	0x3e419c29	0.18907227
236	0x3eab5996	0.33466786
237	0x3d0a74e8	0.033802897
238	0x3e808718	0.25103068
239	0x3d895d22	0.06707217
240	0x3ec72d4e	0.38901752
241	0xbecb5d92	-0.39719826
242	0x3e731989	0.2374021
243	0xbdf6517f	-0.12027263
244	0xbdec8386	-0.115485236
245	0xbe4e4411	-0.20143153
246	0xbecb1b62	-0.3966933
247	0xbf0c8984	-0.5489733
248	0xbd5cd547	-0.053914335
249	0xbea6ebc8	-0.32601762
250	0xbed59b67	-0.41720125
251	0x3e0e0ffe	0.13873288
252	0x3e2af236	0.16693959
253	0xbf2a4448	-0.6651044
254	0xbe976f60	-0.2957716
255	0xbe7a7d69	-0.24461903

fc2.bias f4 [128]
0	0xbf71e3f5	-0.9448846
1	0xbdc7bc43	-0.09752705
2	0x3d83528b	0.06412228
3	0xbefbcc70	-0.4917941
4	0x3ec06732	0.37578732
5	0xbe43d93e	-0.1912584
6	0x3e22fd3d	0.15916915
7	0xbd633fb0	-0.05548066
8	0xbd2f5994	-0.042810038
9	0xbf627d14	-0.88472104
10	0xbe832946	-0.25617427
11	0xbf493f5d	-0.7861231
12	0x3fbab2fb	1.458587
13	0xbeea05ea	-0.45707637
14	0x3f15f7a7	0.5858101
15	0xbe57ab66	-0.21061477
16	0xbf0e3ba4	-0.55559754
17	0xbf39aa52	-0.72525513
18	0x3e62aa5c	0.221353
19	0xbea09d67	-0.31370088
20	0x3e5dcd45	0.21660335
21	0x3ecace14	0.3961035
22	0xbeb1f010	-0.34753466
23	0x3d8c8558	0.06861371
24	0xbf15375f	-0.58287615
25	0xbef36daa	-0.47544605
26	0xbf4cf4d7	-0.80061096
27	0xbe12498c	-0.14285868
28	0x3f8188bc	1.0119853
29	0xbd578593	-0.05261762
30	0x3f31a772	0.69396126
31	0x3f1783d6	0.5918554
32	0x3d231171	0.039811555
33	0xbf9fb14d	-1.2475983
34	0xbe34dfa1	-0.17663433
35	0x3e8c27ec	0.27374208
36	0xbede291d	-0.43390742
37	0xbd313218	-0.043260664
38	0xbdf937c8	-0.121688426
39	0xbe876956	-0.26447552
40	0xbee047fb	-0.43804917
41	0x3e7c8396	0.24659571
42	0x3f5daa38	0.8658786
43	0xbde14c6a	-0.11000903
44	0xbdd91777	-0.10600179
45	0x3e74eed6	0.23919234
46	0xbf0ea222	-0.55716145
47	0xbf0e5852	-0.55603516
48	0x3de4a092	0.11163439
49	0x3f0da9f9	0.5533748
50	0xbf1cf4f0	-0.61311245
51	0xbe0cb6d3	-0.13741617
52	0x3ed09b64	0.40743554
53	0x3f8caaf3	1.098967
54	0xbf024e63	-0.5090086
55	0xbfb034a8	-1.376607
56	0x3e9bd7ce	0.30438083
57	0xbe6bb907	-0.23019801
58	0xbed8d4b0	-0.42349768
59	0x3cd63e8a	0.026152868
60	0xbefb852b	-0.49125037
61	0x3e930a5b	0.28718838
62	0xbe19631d	-0.14979215
63	0xbbd9b00e	-0.006643302
64	0xbe6b57a3	-0.2298265
65	0xbfeacfa4	-1.8344617
66	0xbdad9ef3	-0.08477583
67	0x3e2afd07	0.16698085
68	0xbd1cafc6	-0.038253568
69	0x3e13f713	0.1444972
70	0xbe21146c	-0.15730447
71	0x3d7b984e	0.061424546
72	0xbe148678	-0.14504421
73	0xbd940640	-0.072277546
74	0x3eb32b22	0.34993845
75	0x3d4601a6	0.048341416
76	0x3e692f7b	0.22772019
77	0xbe1ae6f7	-0.15127169
78	0xbfbc012f	-1.4687861
79	0xbf893e23	-1.0722088
80	0xbf0f1386	-0.55889165
81	0x3d316c93	0.043316435
82	0xbf9f4303	-1.2442325
83	0xbebff21b	-0.374894
84	0x3ed6ee83	0.41978845
85	0xbea37b96	-0.31930226
86	0x3e9b9461	0.30386642
87	0xbf0654c3	-0.52473086
88	0x3f0375b7	0.51351494
89	0x3f17f883	0.59363574
90	0xbecfeb7d	-0.4060935
91	0xbd259832	-0.040428348
92	0xbd79d3b3	-0.060992908
93	0xbe67dfaf	-0.22643922
94	0xbd1f62bc	-0.03891252
95	0x3d9da865	0.07698134
96	0x3f97b262	1.1851313
97	0xbeb27641	-0.34855846
98	0x3e19b765	0.15011366
99	0x3e01ba03	0.12668614
100	0xbe245899	-0.16049422
101	0xbf1f2986	-0.62172735
102	0xbef8587e	-0.48505014
103	0x3dca6bfa	0.09883876
104	0x3f13545b	0.5755059
105	0xbfaba271	-1.3408948
106	0xbe3928eb	-0.18082015
107	0xbdd81d21	-0.10552431
108	0xbe6a065e	-0.22853991
109	0x3f380248	0.7187848
110	0xbf3dfc6b	-0.74213284
111	0xbe283ef7	-0.16430269
112	0xbed9cdbc	-0.42539775
113	0x3f1c8d78	0.61153364
114	0xbea5c6f8	-0.32378364
115	0xbd6d328c	-0.057909533
116	0xbf36ebbd	-0.7145346
117	0xbf55c5f4	-0.8350518
118	0xbc6eb04a	-0.014568398
119	0xbd994718	-0.07484263
120	0xbf60a691	-0.8775416
121	0xbcfcf124	-0.030876704
122	0xbf18dfe8	-0.59716654
123	0xbdd0bfd3	-0.101928376
124	0x3ef95db4	0.48704302
125	0xbd88afce	-0.06674157
126	0x3d249e3c	0.040189967
127	0xbf755c99	-0.9584442

dir.weight f4 [2, 128]
0	0x3fa04900	1.2522278
1	0x3f791122	0.9729177
2	0x3ced6eaa	0.028983433
3	0x3f25718d	0.6462639
4	0xbead7ea9	-0.33885697
5	0xbdb91ab4	-0.09038296
6	0x3f4ea4f4	0.8072045
7	0xbd62c0e8	-0.05535975
8	0x3f92084a	1.140878
9	0xbee87ca2	-0.45407587
10	0xbdf1c539	-0.11805195
11	0xbea93a12	-0.33052117
12	0x3ef3d1b7	0.47620937
13	0x3efbdfec	0.49194276
14	0xbe0a9ab5	-0.13535579
15	0xbe14fef1	-0.14550377
16	0xbe06d1c6	-0.1316596
17	0xbf1d1903	-0.6136629
18	0x3cf4f164	0.02990026
19	0xbe3adf0d	-0.1824915
20	0x3ea724ed	0.3264536
21	0x3e190004	0.14941412
22	0xbdb4a156	-0.08819835
23	0x3f39b0b7	0.7253527
24	0xbf41f4ba	-0.7576405
25	0xbe23e40c	-0.16004962
26	0xbe62d36c	-0.22150964
27	0xbe12c399	-0.14332427
28	0x3f6bd1ec	0.9211719
29	0x3e6de5ce	0.23232195
30	0xbfa47ddc	-1.2850909
31	0x3e2a0378	0.16602886
32	0x3f0736e7	0.5281815
33	0xbf9f1db4	-1.243094
34	0xbf260560	-0.6485195
35	0xbe665b8d	-0.22495861
36	0xbc795dc2	-0.0152201075
37	0xbc6bf5b0	-0.014401838
38	0xbbf9682c	-0.007611295
39	0xbf3396a0	-0.7015171
40	0x3e1eef6f	0.15521024
41	0x3ebdcd40	0.37070656
42	0x3e9bb82a	0.30413944
43	0xbdff7531	-0.12473524
44	0xbccf56cc	-0.025309943
45	0x3d420ac8	0.047373563
46	0xbef1ebc2	-0.4725018
47	0x3eb92e46	0.36168116
48	0x3e84a8cd	0.25910035
49	0xbe105c57	-0.14097725
50	0xbdce65a9	-0.10077984
51	0x3edac068	0.4272492
52	0x3ddabce3	0.106805585
53	0x3fc9f0b8	1.5776587
54	0x3dfa593e	0.12224053
55	0x3efe4939	0.4966524
56	0x3e33dd47	0.1756488
57	0x3df8c294	0.12146488
58	0xbe58647c	-0.21132082
59	0x3da03bb6	0.07823889
60	0x3f3677ef	0.71276754
61	0x3db453eb	0.088050686
62	0xbd4e60ed	-0.050385404
63	0xbb9bcead	-0.0047548623
64	0xbef6b124	-0.48182023
65	0x3f80c586	1.0060279
66	0xbcf4c808	-0.029880539
67	0xbd87668c	-0.06611356
68	0xbdc29f65	-0.09503058
69	0x3e51e70f	0.20498298
70	0x3de32513	0.11091056
71	0xbf4628bf	-0.77405924
72	0x3dfb8ebe	0.12283085
73	0xbde5bc8f	-0.11217605
74	0xbf08bdfd	-0.534149
75	0xbd8df38d	-0.06931219
76	0x3dcb4451	0.0992514
77	0xbb94ac8e	-0.0045371717
78	0x3fd353a7	1.6509904
79	0x3cba9a31	0.022778602
80	0xbf31113b	-0.69166917
81	0xbca5843e	-0.02020466
82	0xbf63e234	-0.89017034
83	0x3d6e26ae	0.058142357
84	0x3f032ff7	0.51245064
85	0x3d153e13	0.03643615
86	0xbbb5f7ff	-0.005553245
87	0x3dc7e9d8	0.09761399
88	0xbed1a55c	-0.40946472
89	0x3eeb5c1e	0.45968717
90	0xbcad760e	-0.021174457
91	0x3d247242	0.040148027
92	0x3e0e8c56	0.13920721
93	0xbd8e9c54	-0.06963411
94	0x3d850919	0.06495876
95	0x3ec7634e	0.3894295
96	0xbea3ef83	-0.3201867
97	0x3d218897	0.039436903
98	0x3dfbd2df	0.1229608
99	0x3d6e164e	0.05812674
100	0xbdfa5f8f	-0.122252576
101	0xbd6b37fd	-0.05742644
102	0xbecc79da	-0.39936715
103	0x3d18313b	0.037156325
104	0x3cdb2873	0.026752686
105	0x3ec556d6	0.38542813
106	0x3f2cafdb	0.67455834
107	0x3e5bbfee	0.21459934
108	0x3b9222f0	0.0044597313
109	0x3d267043	0.040634405
110	0x3ef405c3	0.47660646
111	0xbc586f8e	-0.01321019
112	0xbe3b7e14	-0.18309814
113	0xbe2ea9de	-0.17056987
114	0x3e6d45d0	0.23171163
115	0x3e462005	0.19348152
116	0xbf10c5ea	-0.5655199
117	0xbe265466	-0.16243133
118	0x3d8d67c9	0.06904561
119	0xbceb754c	-0.028742455
120	0xbf2cc76c	-0.67491794
121	0x3a5d70a9	0.00084472686
122	0xbeb7482f	-0.3579726
123	0xbd79e9a9	-0.06101385
124	0x3d4831f4	0.048875764
125	0x3f494b86	0.78630865
126	0xbe8d7175	-0.27625623
127	0xbedf3e8f	-0.43602416
128	0xbf252253	-0.645055
129	0xbf16f4b6	-0.5896715
130	0xbc852bc3	-0.016256219
131	0x3d9c9dd0	0.07647288
132	0x3f61088f	0.87903684
133	0x3d55dd5d	0.05221306
134	0x3f4f9e59	0.81100994
135	0x3b8345f7	0.004006143
136	0xbdb3943d	-0.087685086
137	0xbfa051b4	-1.2524934
138	0x3e3ff1db	0.18744604
139	0xbc4980a4	-0.012298737
140	0xbdd29331	-0.10281981
141	0x3f0d73a5	0.55254585
142	0x3e07e3b6	0.13270459
143	0x3e643440	0.22285557
144	0xbd6ffe3a	-0.05859206
145	0xbd80ef7c	-0.06295678
146	0x3f0491ec	0.5178516
147	0x3ec7cf48	0.3902533
148	0x3e36c8de	0.17850062
149	0x3d47ef2a	0.04881207
150	0x3d244849	0.040108
151	0x3db9adef	0.09066378
152	0x3eb5ddd1	0.35520795
153	0xbe071d53	-0.1319478
154	0xbf991c4d	-1.1961762
155	0xbdb3967c	-0.08768937
156	0xbf2d45a8	-0.6768441
157	0x3ba927dc	0.0051622223
158	0x3f048fd9	0.51781994
159	0x3de82a11	0.113361485
160	0x3e7ec494	0.24879676
161	0x3f4ca169	0.7993379
162	0xbbe32a6e	-0.0069325482
163	0x3cf2d486	0.029642355
164	0xbf277a02	-0.65420544
165	0x3e3150d9	0.17315997
166	0xbc4b8f8c	-0.012424361
167	0xbf53a938	-0.8268008
168	0xbe393744	-0.18087488
169	0x3f141acc	0.5785339
170	0x3f1bb89d	0.6082857
171	0xbe0f135d	-0.1397223
172	0xbd17dcea	-0.037075914
173	0x3e0a5edb	0.13512747
174	0xbec20ff2	-0.3790279
175	0xbeff6b94	-0.49886763
176	0xbe51305c	-0.20428604
177	0x3e16a5d4	0.14711696
178	0x3ee49039	0.44641283
179	0x3db9ff4f	0.090818994
180	0x3e5a7230	0.21332622
181	0x3eb7dc6d	0.3591036
182	0x3e417a7c	0.1889438
183	0xbfb51ce0	-1.4149437
184	0xbf0a7600	-0.54086304
185	0x3eb10675	0.3457524
186	0xbef156ae	-0.47136444
187	0xbd28684d	-0.041115094
188	0xbef26101	-0.47339633
189	0x3edeb5fe	0.43498224
190	0xbdc37137	-0.095430784
191	0x3cd22403	0.025651937
192	0xbf11b3ab	-0.56914777
193	0x3f8f4a3f	1.1194533
194	0x3bb18556	0.005417506
195	0xbe3cc4d4	-0.18434459
196	0x3e3bcf65	0.18340833
197	0xbf06d652	-0.52670777
198	0x3eacbb32	0.3373657
199	0xbd37c0c3	-0.044861566
200	0x3e93bad5	0.2885348
201	0xbe0f416e	-0.13989803
202	0x3f0869e1	0.5328656
203	0xbcd35b67	-0.02580042
204	0x3f0432ea	0.5164019
205	0xbcf732a6	-0.030175518
206	0xbf9bc6e0	-1.2170067
207	0x3f7a5f59	0.9780174
208	0xbd201daf	-0.03909081
209	0xbcceb453	-0.02523247
210	0x3ed0b1a3	0.40760526
211	0xbca795e7	-0.020457221
212	0xbd5e0e3d	-0.054212797
213	0xbf9f4b6b	-1.2444891
214	0x3f1d89df	0.615385
215	0xbcc56f58	-0.024100944
216	0x3e518777	0.20461832
217	0x3f1a151e	0.6018847
218	0x3d22e431	0.0397684
219	0xbca63c8f	-0.020292548
220	0x3efeec5e	0.4978971
221	0xbddc42a3	-0.107548974
222	0x3d565c13	0.052333903
223	0x3f81803a	1.0117257
224	0xbf001b8d	-0.5004204
225	0xbd0751e4	-0.03303708
226	0xbe237e8e	-0.15966246
227	0x3daec8ab	0.08534368
228	0xbb566e1a	-0.0032719434
229	0x3e962430	0.29324484
230	0x3d5197b9	0.051170085
231	0xbdbfcdc2	-0.09365417
232	0x3e3d9756	0.18514761
233	0xbfb97509	-1.4488841
234	0xbea40737	-0.32036754
235	0x3ec93da7	0.3930485
236	0xb7fe5052	-3.0316562e-05
237	0x3e37946f	0.17927717
238	0x3f61b1da	0.88162005
239	0xbcf7c387	-0.030244602
240	0xbe3c3184	-0.18378264
241	0xbe4997cf	-0.19686817
242	0xbe855100	-0.2603836
243	0xbe8a48b8	-0.27008605
244	0xbf840058	-1.0312605
245	0x3f32b605	0.6980899
246	0xbca4d970	-0.020123214
247	0x3c5a163f	0.013310968
248	0x3b3f7e3f	0.0029219536
249	0x3d3f48ab	0.04670016
250	0x3ec394e8	0.38199544
251	0x3d93e590	0.0722152
252	0x3d9e1433	0.077186964
253	0xbd78d8c1	-0.060753588
254	0x3ecb071a	0.39653856
255	0x3f043667	0.5164551

dir.bias f4 [2]
0	0x3ecd7e7e	0.40135568
1	0x3d2092b7	0.03920242

speed.weight f4 [1, 128]
0	0x3ebeabf9	0.3724058
1	0x3dd8518f	0.10562431
2	0xbcd77e33	-0.026305294
3	0xbd596c45	-0.05308177
4	0x3e5f0db8	0.21782577
5	0x3e01e2c6	0.12684163
6	0x3db55656	0.08854358
7	0x3cff0277	0.031129105
8	0xbdc65fca	-0.09686239
9	0x3cdce87b	0.026966324
10	0x3c840122	0.016113821
11	0xbe48ce75	-0.19610007
12	0x3f8a7616	1.0817287
13	0xbedefb18	-0.43550944
14	0x3daa0932	0.08302535
15	0x3e4392de	0.19098994
16	0x3e591ee6	0.21203193
17	0x3e87e7cb	0.26544032
18	0x3dcc4d76	0.09975712
19	0x3d2aa163	0.041657817
20	0x3f06e50c	0.5269325
21	0x3d04bb89	0.03240541
22	0x3ddc3d4a	0.107538775
23	0x3e0da67a	0.13833037
24	0x3e2a5a3e	0.16635987
25	0x3c743ac3	0.014906588
26	0x3eac626e	0.33668846
27	0xbd12fc71	-0.035885278
28	0x3e09e986	0.13467988
29	0xbed4c5e8	-0.4155724
30	0x3d249e87	0.040190246
31	0x3e727fe4	0.23681599
32	0x3ebe9ad9	0.37227514
33	0x3d0318b7	0.03200599
34	0x3d6cc15e	0.057801597
35	0x3e0d4ea8	0.13799536
36	0xbd8ff825	-0.07029752
37	0x3cf6d952	0.030132923
38	0x3e834441	0.2563801
39	0x3ea82be8	0.32845998
40	0x3dd4d706	0.10392575
41	0xbe10ed45	-0.14153011
42	0x3edcbcfb	0.4311293
43	0x3e4bcb76	0.19901833
44	0xbd496ff6	-0.04917904
45	0x3f5322d5	0.82475024
46	0x3d9dc686	0.07703881
47	0x3f2db926	0.6786064
48	0x3e9a28a2	0.30109125
49	0x3f23e104	0.6401522
50	0xbe1c0a7b	-0.15238373
51	0x3e8acdb6	0.2711007
52	0x3ed8daa2	0.42354304
53	0x3e89af83	0.26891717
54	0x3eb7e06f	0.35913417
55	0xbe0322f3	-0.12806301
56	0xbdd9075a	-0.10597105
57	0x3e47ca36	0.19510731
58	0x3dd680a6	0.104737565
59	0x3e58f51b	0.2118725
60	0xbe5aff5e	-0.21386477
61	0x3e1e641d	0.15467878
62	0x3d9b92ee	0.07596384
63	0x3d9b8411	0.07593549
64	0xbda903b8	-0.082526624
65	0xbb73226a	-0.003709937
66	0x3d3ece51	0.046583477
67	0x3f08cf80	0.5344162
68	0x3eb96e9a	0.36217195
69	0xbe56f72e	-0.20992729
70	0x3dc4c3e2	0.09607674
71	0x3f18f286	0.5974506
72	0x3d6494d2	0.05580599
73	0x3ec05328	0.37563443
74	0xbd713180	-0.058885098
75	0x3daa2ad9	0.08308954
76	0x3e589a30	0.21152568
77	0x3c7b4e22	0.0153384525
78	0x3f084373	0.5322792
79	0x3db220d8	0.08697671
80	0x3eb17ed3	0.34667072
81	0x3cb05106	0.02152301
82	0x3d9c533c	0.07633063
83	0x3da288dd	0.07936261
84	0x3f23ee54	0.64035535
85	0x3e14c1a8	0.14526999
86	0x3ea1f852	0.31634766
87	0xbe417c74	-0.18895131
88	0x3f4c193c	0.79726005
89	0x3ec271a1	0.37977317
90	0x3c964f2e	0.018348303
91	0x3d9849ad	0.074359275
92	0xbd0329f7	-0.032022443
93	0x3c9752ce	0.018472102
94	0x3db0790a	0.08616836
95	0xbe0f379a	-0.13986054
96	0x3f91db87	1.139512
97	0x3e6ef305	0.23334892
98	0x3d97735f	0.07395052
99	0x3db3581a	0.087570384
100	0x3c9a5d84	0.01884342
101	0xbe65604c	-0.22400016
102	0x3e83f896	0.25775594
103	0x3d3878c6	0.045037054
104	0x3e8b316f	0.27186152
105	0xbe869e27	-0.26292536
106	0x3e01aad5	0.12662823
107	0x3f046a2b	0.517245
108	0x3d100653	0.03516228
109	0x3f5bc9a7	0.8585457
110	0x3e2528d6	0.16128859
111	0x3dfd78e7	0.12376576
112	0xbd8d5aa7	-0.06902056
113	0x3ea216f1	0.31658128
114	0xbd9bfd4e	-0.076166734
115	0xbea3194f	-0.31855246
116	0x3ee1d1a4	0.44105256
117	0x3d17ce4a	0.037061967
118	0xbc9fe266	-0.019517135
119	0x3c7cf9c2	0.015440406
120	0x3d872703	0.06599238
121	0x3d133155	0.03593572
122	0xbdc07061	-0.093964346
123	0x3db8b0d4	0.09018102
124	0x3f2b7bc5	0.6698573
125	0x3e777291	0.24164797
126	0xbda25915	-0.07927147
127	0x3e38c4e9	0.18043865

fc1.weight f4 [128, 13]
0	0xbdb6d8d1	-0.08928073
1	0x3ec01725	0.37517658
2	0x3e5b2e67	0.2140442
3	0x3e7999d2	0.24375084
4	0x3d2066a6	0.039160393
5	0x3cde6cb5	0.027151445
6	0xbd7a8a8b	-0.06116728
7	0x3f4f93ee	0.810851
8	0xbf394dea	-0.7238451
9	0x3f5e61ec	0.86868167
10	0xbef97ff7	-0.48730442
11	0xbe48d074	-0.19610769
12	0xbe2f70b0	-0.1713283
13	0xbed57e53	-0.4169794
14	0x3d8d811d	0.06909392
15	0x3e4862c5	0.19568928
16	0x3f7cdb97	0.9877257
17	0xbde71924	-0.11284092
18	0xbd4fbc7d	-0.050716866
19	0x3fa48241	1.285225
20	0x3f88df13	1.0693077
21	0xbe40382f	-0.18771432
22	0x3f1267dd	0.5718973
23	0x3e237dc8	0.1596595
24	0x3e0a5b1b	0.13511316
25	0xbe2ce415	-0.16883881
26	0xbebab5e0	-0.36466885
27	0x3e5b5b2b	0.21421497
28	0xbf063e89	-0.5243917
29	0x3fa09453	1.2545265
30	0x3d2405c7	0.040044572
31	0x3e29e53b	0.1659135
32	0x3fa0b6ce	1.2555788
33	0x3f8e75b0	1.1129665
34	0xbf2ba2da	-0.67045367
35	0x3f8828b1	1.0637418
36	0xbe8c9308	-0.27455926
37	0x3dfa1722	0.122114435
38	0xbe70105d	-0.23443742
39	0xbf688f9d	-0.90844136
40	0x3f1f0ca2	0.6212865
41	0xbd7b65bb	-0.061376315
42	0xbf62998b	-0.8851554
43	0xbc7166c4	-0.014733974
44	0xbce4df3d	-0.02793848
45	0xbf7b8df0	-0.98263454
46	0x3e893cd8	0.26804233
47	0x3da719e0	0.08159232
48	0x3f7839f4	0.9696343
49	0x3ee21e25	0.44163623
50	0x3e575acb	0.21030729
51	0xbe6a6195	-0.22888787
52	0x3e6f97c4	0.23397738
53	0x3f16c7af	0.58898443
54	0x3faa3786	1.3298194
55	0xbfd97fc6	-1.6992118
56	0x3c201178	0.00976979
57	0x3dda01b7	0.10644858
58	0xbfce717d	-1.6128384
59	0xbe8c320d	-0.27381936
60	0xbfce0be3	-1.6097378
61	0xbf4269f2	-0.7594291
62	0xc01efbc5	-2.4841168
63	0xbe811616	-0.25212163
64	0x3e0bb695	0.13643868
65	0x3ead4e2c	0.33848703
66	0xbf872b70	-1.0560131
67	0xbebcd775	-0.3688313
68	0xbfb973d1	-1.4488469
69	0x3df2cd81	0.11855603
70	0xbdfaccba	-0.1224608
71	0xbfac01b9	-1.3438026
72	0xbf2466c7	-0.64219326
73	0x3fa50d11	1.2894613
74	0xbeb30713	-0.34966335
75	0x3f8c271a	1.0949433
76	0x3da4cddf	0.08047079
77	0xbe66c281	-0.22535135
78	0xbecbaffe	-0.3978271
79	0x3f0f1015	0.55883914
80	0xbfb29c32	-1.3953917
81	0xbf120c60	-0.5705013
82	0xbe2a2391	-0.1661513
83	0xbdb60fc3	-0.08889725
84	0xbf551c8d	-0.8324669
85	0x3f927264	1.1441159
86	0xbfc645cc	-1.549005
87	0x3f6a3d6e	0.91499984
88	0xbfef9b60	-1.8719292
89	0xbe50fcf9	-0.20409001
90	0x3e5c5403	0.21516423
91	0xbd26f17a	-0.040757634
92	0x3d537a75	0.051630456
93	0xbf15ddf7	-0.58541816
94	0x3f0553de	0.52081096
95	0xbeb7ce99	-0.3589981
96	0x3cd84a68	0.026402667
97	0x3f1e29e2	0.6178266
98	0xbf0dcfd6	-0.5539526
99	0x3ed4cc82	0.41562277
100	0xbf37e552	-0.7183429
101	0x3f29d76e	0.66344345
102	0xbe77107a	-0.24127379
103	0x3d6ad4b5	0.05733176
104	0xbe9654a7	-0.2936146
105	0x3ebac2d8	0.3647678
106	0xbe8e0db8	-0.27744842
107	0x3f9d16b9	1.227256
108	0xbdd003a5	-0.10156945
109	0xbeb7bfb1	-0.35888436
110	0x3f9cb53e	1.2242811
111	0xbf6f733a	-0.93535197
112	0x3e6b58d1	0.229831
113	0xbe055d72	-0.13023928
114	0xbe9f2ff8	-0.31091285
115	0x3e75534e	0.2395756
116	0x3d3ea1ef	0.04654115
117	0x3ed7e1c4	0.42164433
118	0xbb20ccb0	-0.0024536066
119	0x3de84b72	0.11342515
120	0x3e50d366	0.20393142
121	0xbe4ce9c7	-0.20011054
122	0x3de35fcd	0.11102257
123	0xbd6418e6	-0.055687808
124	0xbed8846b	-0.42288527
125	0xbed17801	-0.40911868
126	0x3cfc6d94	0.03081397
127	0xbf3afdba	-0.73043406
128	0xbe2911e7	-0.16510735
129	0x3d7e8724	0.0621406
130	0x3f2e1a8c	0.6800926
131	0xbed48662	-0.41508776
132	0x3fbd7493	1.4801201
133	0xbea36f51	-0.31920865
134	0x3d869306	0.06571011
135	0x3d8d7a84	0.069081336
136	0xbf3bb401	-0.7332154
137	0x3e308bed	0.17240877
138	0xbea8ffad	-0.33007565
139	0xbd81f0ac	-0.06344733
140	0xbe8313d2	-0.2560106
141	0xbdd8c22a	-0.10583909
142	0x3dc072ee	0.09396921
143	0xbf4324c0	-0.7622795
144	0x3ecfd52f	0.40592334
145	0xbf3df62e	-0.74203765
146	0xbfac5405	-1.3463141
147	0x3dda978f	0.10673439
148	0xbd9dbbf9	-0.077018686
149	0xbfa862cc	-1.315515
150	0x3f13c791	0.5772639
151	0xbfb5c87a	-1.4201806
152	0x3fa9359d	1.3219486
153	0xbfe69b3b	-1.8016123
154	0x3d56a98f	0.052407797
155	0xbe37a9b9	-0.17935838
156	0xbeec898b	-0.46198687
157	0xbe5b4ba6	-0.21415576
158	0xc0172d84	-2.362153
159	0xbf936ca2	-1.1517527
160	0x3e18b0fd	0.14911266
161	0x3daf77b7	0.08567756
162	0xbf8db9d0	-1.107233
163	0x3d19a65e	0.037512176
164	0x3e5dc96c	0.21658868
165	0x3df50241	0.119633205
166	0x3f307c9b	0.6894013
167	0x3e299cbc	0.16563696
168	0x3db1da92	0.08684267
169	0x3e2f5d96	0.17125544
170	0xbda12cd2	-0.07869877
171	0xbdfc4170	-0.12317169
172	0x403b7765	2.9291623
173	0x3b3b3b24	0.0028569186
174	0xbc384154	-0.011246044
175	0x403985c0	2.8987885
176	0x3e4f431a	0.20240441
177	0x3e980424	0.2969066
178	0x3f878b40	1.0589371
179	0x3f16e3f7	0.58941597
180	0x3d8a1ef3	0.06744184
181	0x3da9f2bb	0.0829825
182	0xbf3929e6	-0.72329557
183	0xbea1e66f	-0.3162112
184	0xbfb864d5	-1.4405771
185	0xbee4d3c3	-0.4469281
186	0xbde0fdba	-0.109858945
187	0xbe3c1401	-0.18367006
188	0xbf2d724a	-0.67752516
189	0xbda9af04	-0.08285335
190	0x3d1b1245	0.03785922
191	0x3cc57193	0.024102008
192	0x3b044d1b	0.002018756
193	0x3e84c927	0.25934717
194	0xbdcbe1ff	-0.09955215
195	0x3f464043	0.77441806
196	0xbdcbdc6c	-0.099541515
197	0xbecf3163	-0.40467367
198	0xbefe6fe8	-0.49694753
199	0x3d94d9c0	0.07268095
200	0xbd3fd3b7	-0.046832766
201	0xbea039f0	-0.31294203
202	0xbe88a7d9	-0.26690558
203	0x3f4de0ec	0.8042133
204	0x3e67d489	0.2263967
205	0xbe53e340	-0.20692158
206	0xbe2baad5	-0.16764386
207	0x3e4137eb	0.18868987
208	0xbf0dcf64	-0.5539458
209	0xbec11eba	-0.37718755
210	0x3d464868	0.048408896
211	0x3f4733b5	0.77813274
212	0x3dab144e	0.08353482
213	0xbde11fdd	-0.109924056
214	0x3f45182a	0.76989996
215	0xbf8a96ca	-1.0827267
216	0x3f1b68a9	0.60706574
217	0xbfb5ccdb	-1.4203142
218	0x3e7f9f74	0.2496317
219	0xbe363bac	-0.177962
220	0xbe8b89a2	-0.27253443
221	0xbeae2413	-0.34011897
222	0x3f297f70	0.6621008
223	0x3f559b72	0.83440316
224	0x3e8c1343	0.27358446
225	0xbd8ea019	-0.0696413
226	0x3d9d5326	0.07681875
227	0x3eee3f00	0.4653244
228	0x3f0ce9eb	0.5504443
229	0x3f92abdc	1.1458697
230	0xbec1aa14	-0.37825072
231	0x40171c43	2.3611
232	0xbe8485f0	-0.25883436
233	0x3e498370	0.19679046
234	0xbeced15c	-0.40394104
235	0xbe64fd24	-0.2236219
236	0xbed4c80a	-0.41558868
237	0xbf9f76bc	-1.245811
238	0x3e059610	0.13045526
239	0x3ddce1eb	0.10785278
240	0xbfbaa55b	-1.4581712
241	0x3dbb79bf	0.091540806
242	0x3f61d8a0	0.8822117
243	0x3ea2b613	0.31779537
244	0x3f842e85	1.0326697
245	0x3e60a3e2	0.21937516
246	0xbceae8f9	-0.028675543
247	0x3f28e726	0.65977705
248	0xbe58b12f	-0.2116134
249	0xbe3c8d1c	-0.18413204
250	0xbf68df99	-0.9096618
251	0x3e088027	0.13330136
252	0x3e4226db	0.18960135
253	0xbf1e6b88	-0.6188283
254	0xbf2121f4	-0.62942433
255	0x3f59b059	0.8503471

fc1.bias f4 [128]
0	0xbe3480ea	-0.17627302
1	0x3f59372e	0.8484982
2	0x3f648720	0.89268684
3	0xbf839623	-1.0280193
4	0xbfb38729	-1.4025623
5	0xbf9f4543	-1.2443012
6	0xbf4ea920	-0.80726814
7	0x3f29f5fe	0.6639098
8	0x3f47a30f	0.7798318
9	0x3d431e8d	0.047636557
10	0xbf0ad20e	-0.5422677
11	0xbf6c04ea	-0.92195
12	0xbf489148	-0.7834668
13	0x4031be5d	2.7772439
14	0xbf5d3fb5	-0.86425334
15	0xbf37118c	-0.7151115
16	0x3ee3438e	0.44387478
17	0x3f145b6b	0.5795199
18	0xbfde616a	-1.7373478
19	0xbf85e93b	-1.0461801
20	0xbf1f9f1c	-0.62352157
21	0xbf6299dd	-0.88516027
22	0xbdee9285	-0.1164904
23	0xbe921a82	-0.2853585
24	0x3f7bf6aa	0.98423254
25	0xbebd0fa7	-0.36926004
26	0xbfaa2ea9	-1.329549
27	0x3e438f75	0.19097693
28	0xbeb6e0ce	-0.35718387
29	0xbf520225	-0.8203452
30	0xbe0ff3a4	-0.14057785
31	0xbe64524b	-0.22297017
32	0xbfa8aab9	-1.31771
33	0x3f81e559	1.0148116
34	0xbfae1ce9	-1.3602573
35	0xbfd7a547	-1.6847314
36	0xbdd811e0	-0.105502844
37	0xbf63a062	-0.889166
38	0xbf47a3f6	-0.7798456
39	0xbfca7e7b	-1.5819849
40	0xbf59b443	-0.8504068
41	0xbe5c1d7d	-0.21495624
42	0xbfb0b787	-1.3806008
43	0xbec9a7b1	-0.3938575
44	0xbf4eb6b8	-0.80747557
45	0xbf662cd5	-0.8991216
46	0x3f5dd111	0.86647135
47	0xbdfbb707	-0.12290769
48	0xbf8feff8	-1.1245108
49	0xbba061d2	-0.0048944736
50	0xbfbfb0ae	-1.4975793
51	0xbf792a40	-0.97330093
52	0xbf313ab9	-0.6923023
53	0xbf54d662	-0.8313962
54	0xbf3202d0	-0.6953554
55	0x3f929e7a	1.1454613
56	0x3fa23b8d	1.2674423
57	0xbeac146a	-0.33609325
58	0xbf92accc	-1.1458983
59	0x3ecba932	0.39777523
60	0xbf81e77b	-1.0148767
61	0x3e85480a	0.26031524
62	0xbf993e14	-1.197207
63	0xbecc8ea7	-0.39952585
64	0x3f80302d	1.0014702
65	0x3f679020	0.9045429
66	0xbf1155b6	-0.5677141
67	0xbe98d45d	-0.2984952
68	0xbe0c8b3b	-0.13724987
69	0x3f216690	0.6304712
70	0x3f5b57ce	0.85680854
71	0xbee3ae8e	-0.44469112
72	0xbee4d393	-0.44692668
73	0xbf6e7244	-0.93143106
74	0xbf531f12	-0.82469285
75	0xbf628048	-0.8847699
76	0x3e38cfe9	0.18048061
77	0xbedc1f4d	-0.4299263
78	0x3f82d87b	1.0222315
79	0x3e1de977	0.15421091
80	0x3f3e1a5a	0.7425896
81	0xbfab7545	-1.3395163
82	0x3f39931f	0.72490114
83	0x3efd62d9	0.49489477
84	0x3f000131	0.5000182
85	0x3df3ce54	0.11904588
86	0xbffcf4c1	-1.9762193
87	0xbf1b55f8	-0.6067805
88	0xbfcac7f5	-1.5842272
89	0xbf88ed94	-1.0697503
90	0xbf644a71	-0.8917609
91	0xbe35897f	-0.17728232
92	0xbea82d0a	-0.32846862
93	0xbf2c1746	-0.6722301
94	0xbd286662	-0.041113265
95	0x3f56d572	0.8391944
96	0xbe32fb8f	-0.17478774
97	0x3ec8b447	0.3920004
98	0xbd8a547b	-0.067543946
99	0xbfa76c5f	-1.3079947
100	0xbfda33a0	-1.7047005
101	0xbef83def	-0.48484752
102	0x3f0c1f0e	0.54734886
103	0x3fa4862f	1.285345
104	0xbf20ae1c	-0.6276567
105	0xbf95d0f2	-1.170439
106	0xbfa0eb3f	-1.2571791
107	0x3fc5ebbc	1.5462565
108	0xbe07a6ac	-0.13247174
109	0x3e4701c5	0.19434269
110	0xbf74215d	-0.9536341
111	0x3e46f6c8	0.19430077
112	0xbf5ab12e	-0.85426605
113	0x3fda62e9	1.7061435
114	0xbecda2ec	-0.40163362
115	0xc01c32d2	-2.4406018
116	0xbf9b6b35	-1.2142092
117	0xbf7c4e38	-0.9855685
118	0x3ffc9a21	1.9734536
119	0xbf93354c	-1.150064
120	0xbe786402	-0.242569
121	0x3f2cd2ea	0.6750933
122	0x3f5da15d	0.86574346
123	0xbf62edf8	-0.8864436
124	0xbf83eb14	-1.0306115
125	0xbe70fdb8	-0.23534286
126	0x403f587f	2.9897764
127	0x4006a5ba	2.1038651

fc2.weight f4 [128, 128]
0	0x3ec94379	0.3930929
1	0xbee8a777	-0.45440266
2	0xbf20a785	-0.62755615
3	0xbecade6a	-0.39622813
4	0xbdf749aa	-0.12074597
5	0x3ef0326c	0.4691347
6	0xbf24c4bd	-0.643627
7	0xbf123968	-0.57118845
8	0xbd5febd0	-0.054668248
9	0x3eb099ee	0.3449244
10	0x3e9238c2	0.28558928
11	0xbe8187c1	-0.25298885
12	0xbfabbd13	-1.3417076
13	0xbf8326f6	-1.0246265
14	0x3d22eac2	0.039774664
15	0x3e9b4ae4	0.30330575
16	0xbf2eae27	-0.68234485
17	0xbd02889f	-0.031868573
18	0x3f6f4d0f	0.9347696
19	0x3eea8f71	0.45812562
20	0x3e0972d8	0.13422716
21	0xbc7140b6	-0.014724901
22	0xbd01db60	-0.031703353
23	0xbf7c6e80	-0.9860611
24	0xbecc6289	-0.39918926
25	0xbdb23225	-0.087009706
26	0x3e71d974	0.23618108
27	0x3e938ef9	0.28820017
28	0x3eaef6ea	0.34172755
29	0x3f0f2e22	0.5592977
30	0x3eca4a1a	0.3950966
31	0xbce42b22	-0.027852599
32	0x3e82b41d	0.2552804
33	0xbf65bbf0	-0.89739895
34	0x3cdf3e4f	0.02725139
35	0x3f5d673d	0.86485654
36	0x3e964e51	0.29356626
37	0xbe80765f	-0.2509031
38	0x3e41917e	0.18903157
39	0x3f054085	0.52051574
40	0xbe813a1a	-0.2523964
41	0x3f6bb889	0.92078453
42	0xbed680c7	-0.41895124
43	0xbedf8008	-0.43652368
44	0xbe9a83b1	-0.30178598
45	0x3e1b3a1c	0.15158886
46	0x3e197f6a	0.14990011
47	0x3e059f33	0.13049011
48	0x3f0a51ba	0.54030955
49	0x3e02b257	0.12763344
50	0xbe708515	-0.23488267
51	0x3ef37fc7	0.47558424
52	0x3e1ef772	0.1552408
53	0xbee168d5	-0.44025293
54	0x3dd007f8	0.1015777
55	0xbe5e601c	-0.2171635
56	0xbda232ff	-0.07919883
57	0xbf25175a	-0.64488757
58	0x3ee794d8	0.45230746
59	0xbe5e2e87	-0.21697436
60	0x3f428c31	0.75995165
61	0xbf203de7	-0.62594455
62	0x3ecfd1cf	0.4058976
63	0x3dfe2802	0.12409975
64	0xbe450289	-0.19239248
65	0xbe2958cf	-0.16537784
66	0x3e88def9	0.26732615
67	0xbe515769	-0.204435
68	0x3e5ca32e	0.21546623
69	0xbe7ad8e7	-0.24496804
70	0x3e5bc4bb	0.21461765
71	0xbf47dac0	-0.7806816
72	0x3ea36b4d	0.31917801
73	0x3ed631ee	0.41834968
74	0xbe89e78e	-0.26934475
75	0x3e75b0cd	0.23993225
76	0x3c59c3d2	0.013291316
77	0x3d8536e2	0.06504609
78	0xbea6fee6	-0.32616347
79	0xbf5510db	-0.83228844
80	0xbf0a9724	-0.5413687
81	0xbf947776	-1.1598957
82	0xbcdf2228	-0.027237967
83	0xbe990d98	-0.29893184
84	0xbe160667	-0.1465088
85	0x3f2133e8	0.6296983
86	0x3e523561	0.20528175
87	0xbf1874a4	-0.5955298
88	0x3f0918af	0.5355329
89	0x3ebbb804	0.3666383
90	0x3da85355	0.08219019
91	0x3ea49ec2	0.32152373
92	0xbde3ea22	-0.11128642
93	0xbb501075	-0.003174809
94	0x3de7f599	0.11326141
95	0xbf02612a	-0.5092951
96	0xbd87d0e1	-0.06631637
97	0x3d905381	0.07047177
98	0x3e6955bc	0.22786611
99	0x3ecd1e99	0.40062407
100	0x3f52486b	0.8214175
101	0x3edb8115	0.4287192
102	0xbe8bcaec	-0.27303255
103	0xbf8e7813	-1.1130394
104	0xbf548baf	-0.8302564
105	0x3f1eb476	0.6199411
106	0x3f25f929	0.64833313
107	0xbef00709	-0.46880367
108	0xbc5f20a8	-0.013618626
109	0x3e2b872e	0.16750786
110	0x3f1028e2	0.5631238
111	0x3e9714fd	0.295082
112	0x3edc9046	0.43078822
113	0xbf1cce58	-0.61252356
114	0x3e0c09a1	0.13675548
115	0x3f267b97	0.65032333
116	0xbf051279	-0.5198131
117	0xbec42fc0	-0.3831768
118	0xbf5f6ef6	-0.8727869
119	0xbf249fc2	-0.6430627
120	0xbec1097b	-0.37702546
121	0xbef1ff60	-0.47265148
122	0xbec3ccbf	-0.38242146
123	0x3ebf9802	0.3742066
124	0x3d0a6092	0.033783503
125	0x3e6d0369	0.23145832
126	0xbf54aa3e	-0.8307227
127	0xbf8f11ea	-1.1177342
128	0x3e10a4f5	0.14125426
129	0xbf34638a	-0.70464385
130	0xbf167c76	-0.5878366
131	0xbeb9f35e	-0.36318487
132	0xbec575cf	-0.38566443
133	0xbaacd32c	-0.0013185493
134	0xbf086952	-0.53285706
135	0xbee5ea88	-0.44905496
136	0xbee795fa	-0.4523161
137	0x3e0058e5	0.1253391
138	0x3dbcc1df	0.092166655
139	0xbe601d48	-0.2188617
140	0xbf0e3140	-0.555439
141	0xbe165b86	-0.14683351
142	0xbdf37949	-0.11888368
143	0x3c9b41dd	0.018952304
144	0xbeb0a2b9	-0.34499148
145	0xbf4121a6	-0.7544197
146	0xbf006ecf	-0.5016908
147	0x3e47bbbf	0.19505213
148	0x3e9c25bf	0.30497548
149	0xbea0ae26	-0.31382865
150	0xbea2324c	-0.31678998
151	0xbebb7741	-0.3661442
152	0xbeb99c8b	-0.36252245
153	0xbf232443	-0.63727206
154	0x3d97ca64	0.0741165
155	0xbee16995	-0.44025865
156	0xbf6f65bc	-0.9351461
157	0xbd4887ac	-0.04895751
158	0x3ddf4edb	0.10903712
159	0x3d43d466	0.04780998
160	0xbeeb9e7d	-0.46019354
161	0xbf688ad2	-0.90836823
162	0xbdad20f1	-0.08453549
163	0x3e173d98	0.1476959
164	0xbe97003b	-0.29492363
165	0xbf124942	-0.5714303
166	0xbec4421a	-0.3833168
167	0x3daf8730	0.08570707
168	0xbea7fee0	-0.32811642
169	0xbeb90bbd	-0.36141768
170	0x3f036f78	0.5134196
171	0xbe8f979c	-0.28045356
172	0xbf8be760	-1.0929985
173	0xbe50080a	-0.20315567
174	0xbf1439f9	-0.5790096
175	0xbea882ed	-0.32912388
176	0xbee479db	-0.44624218
177	0xbeaa7e47	-0.33299467
178	0xbf0f233c	-0.5591314
179	0xbf26d420	-0.6516743
180	0x3edc6fdd	0.43054095
181	0xbf0f3767	-0.5594391
182	0x3db3305f	0.087494604
183	0xbe87116f	-0.26380488
184	0xbec4b6c5	-0.38420692
185	0xbf26aea9	-0.6511026
186	0x3ebecd1b	0.37265858
187	0x3e7eb878	0.24875057
188	0xbe712ed0	-0.23553014
189	0xbdb7531a	-0.08951397
190	0x3ee65321	0.44985297
191	0x3ec36cfb	0.38169083
192	0xbf0d44fb	-0.5518338
193	0xbf4aa3d9	-0.7915626
194	0x3da093a7	0.078406624
195	0xbf3bf0fd	-0.73414594
196	0xbf13570a	-0.57554686
197	0xbdd4860d	-0.10377131
198	0x3c41699b	0.011804963
199	0xbf94c7b7	-1.1623448
200	0x3c2d0a00	0.010561466
201	0x3db36d4d	0.08761082
202	0x3e1b144a	0.15144458
203	0xbef1ab5e	-0.47201055
204	0x3e8849ef	0.26618907
205	0xbe95ca54	-0.29255927
206	0xbf4375df	-0.7635173
207	0xbe8d4eb0	-0.27599096
208	0xbd9fe61a	-0.0780756
209	0x3e806b25	0.25081745
210	0x3e4521d9	0.19251193
211	0x3e78d2a3	0.24299102
212	0xbf2fbc87	-0.68647045
213	0xbd23f811	-0.040031496
214	0xbeae4805	-0.34039322
215	0xbef256ee	-0.47331947
216	0xbf1ce2b7	-0.6128344
217	0xbed33192	-0.41248757
218	0x3e60d170	0.21954894
219	0x3e315c50	0.1732037
220	0xbe93f60f	-0.28898665
221	0x3e95351c	0.29142082
222	0xbf049b7d	-0.51799756
223	0xbf06b3b2	-0.52617943
224	0x3e9a0cda	0.3008793
225	0x3cc9d8a1	0.02463943
226	0xbf0619ec	-0.52383304
227	0x3eb02357	0.34401962
228	0x3e968528	0.29398465
229	0x3dce07ff	0.10060119
230	0xbf24ef15	-0.6442731
231	0xbec60ee6	-0.38683242
232	0xbe468d58	-0.19389856
233	0xbf1a690b	-0.6031653
234	0x3e317791	0.17330767
235	0x3e470406	0.19435129
236	0x3ea9bec9	0.3315337
237	0x3d2c01fc	0.04199408
238	0x3e847377	0.25869343
239	0x3d85f0f6	0.065401
240	0x3ecb3a58	0.3969295
241	0xbec85d74	-0.391338
242	0x3e776b0c	0.24161929
243	0xbdf23fc2	-0.11828567
244	0xbdecdc08	-0.11565405
245	0xbe506801	-0.20352174
246	0xbec7e07f	-0.39038464
247	0xbf0dbc34	-0.553653
248	0xbd5c8fd6	-0.05384811
249	0xbea4eb13	-0.32210597
250	0xbed36aae	-0.41292328
251	0x3e0fffc3	0.14062409
252	0x3e2abcef	0.16673635
253	0xbf2a456e	-0.6651219
254	0xbe941c44	-0.28927815
255	0xbe726f9d	-0.2367539

fc2.bias f4 [128]
0	0xbf704420	-0.9385395
1	0xbdba662a	-0.091015175
2	0x3d835296	0.064122364
3	0xbefd682e	-0.49493545
4	0x3ec0f656	0.3768794
5	0xbe43d8f7	-0.19125734
6	0x3e22feeb	0.15917556
7	0xbd633fa5	-0.055480618
8	0xbd0d2837	-0.03446218
9	0xbf643fe1	-0.8915997
10	0xbe83292f	-0.25617358
11	0xbf493f63	-0.78612345
12	0x3fbb24d9	1.462062
13	0xbeea05a1	-0.4570742
14	0x3f15f7a4	0.58580995
15	0xbe57ab30	-0.21061397
16	0xbf0e3b8f	-0.5555963
17	0xbf397985	-0.7245105
18	0x3e62aa6c	0.22135323
19	0xbea09d6d	-0.31370106
20	0x3e6c1a75	0.23056968
21	0x3ecace36	0.3961045
22	0xbeb1efce	-0.3475327
23	0x3d8c85aa	0.06861432
24	0xbf171f88	-0.5903249
25	0xbef36d72	-0.47544438
26	0xbf4de791	-0.8043147
27	0xbe124974	-0.14285833
28	0x3f81c3ec	1.0137916
29	0xbd5785af	-0.052617725
30	0x3f2f5331	0.68486315
31	0x3f17841f	0.59185976
32	0x3d2fc98e	0.042916827
33	0xbf9e1174	-1.2349076
34	0xbe34dfc1	-0.1766348
35	0x3e8c284e	0.273745
36	0xbede28e8	-0.43390584
37	0xbd3131f6	-0.043260537
38	0xbdf9377a	-0.121687844
39	0xbe8e1eaf	-0.27757785
40	0xbee047e1	-0.4380484
41	0x3e8330dd	0.25623217
42	0x3f600cf8	0.8751979
43	0xbde14c6d	-0.11000905
44	0xbdd91740	-0.10600138
45	0x3e74eefd	0.23919292
46	0xbf0ea1e7	-0.55715793
47	0xbf15a983	-0.5846178
48	0x3de4a0c4	0.11163476
49	0x3f0d7a37	0.5526461
50	0xbf1cf4b4	-0.6131089
51	0xbe0c8f36	-0.13726506
52	0x3ed09bc3	0.40743837
53	0x3f8c8d20	1.0980568
54	0xbf024e0b	-0.50900334
55	0xbfb0a681	-1.3800813
56	0x3e9855fe	0.29753107
57	0xbe6bb8c9	-0.23019709
58	0xbedbfd26	-0.42966574
59	0x3cd63ebb	0.02615296
60	0xbef8d2bc	-0.48598278
61	0x3e930a08	0.2871859
62	0xbe19636b	-0.14979331
63	0xbbd9affc	-0.0066432934
64	0xbe6b5785	-0.22982605
65	0xbfe90a0e	-1.8206193
66	0xbdad9eb9	-0.084775396
67	0x3e22650f	0.15858863
68	0xbd1caf90	-0.038253367
69	0x3e13f723	0.14449744
70	0xbe21142d	-0.15730353
71	0x3d5d45a9	0.05402151
72	0xbe148680	-0.14504433
73	0xbd93da43	-0.072193645
74	0x3eb32b6d	0.3499407
75	0x3d460216	0.048341833
76	0x3e73cb94	0.23808128
77	0xbe1ae6ec	-0.15127152
78	0xbfbca25c	-1.4737048
79	0xbf88e754	-1.0695596
80	0xbf0f132f	-0.55888647
81	0x3d316cf1	0.043316785
82	0xbf9f9cca	-1.2469723
83	0xbebff222	-0.3748942
84	0x3ed886ec	0.42290437
85	0xbea7a53a	-0.32743245
86	0x3e9fb869	0.3119538
87	0xbf065483	-0.52472705
88	0x3f0495a0	0.5179081
89	0x3f193528	0.59846735
90	0xbecfeb33	-0.4060913
91	0xbd259809	-0.040428195
92	0xbd79d3ba	-0.060992934
93	0xbe67dfa1	-0.22643901
94	0xbd1f6294	-0.03891237
95	0x3dad14e0	0.08451247
96	0x3f96b5e5	1.177426
97	0xbeb2762e	-0.3485579
98	0x3e19b7cb	0.15011518
99	0x3e01ba62	0.12668756
100	0xbe245881	-0.16049387
101	0xbf1f298c	-0.6217277
102	0xbef8586e	-0.48504966
103	0x3dca6c2a	0.09883912
104	0x3f135440	0.5755043
105	0xbfac0dec	-1.3441749
106	0xbe37d73f	-0.17953204
107	0xbdcac87e	-0.09901522
108	0xbe6a0669	-0.22854008
109	0x3f3994cd	0.72492677
110	0xbf3c5d5e	-0.7357997
111	0xbe283ef1	-0.1643026
112	0xbed9cdac	-0.42539728
113	0x3f1d3db3	0.6142227
114	0xbea5c74c	-0.32378614
115	0xbd6d3285	-0.057909507
116	0xbf37ec92	-0.7184535
117	0xbf548d30	-0.83027935
118	0xbc6eb029	-0.014568367
119	0xbd9946e8	-0.074842274
120	0xbf613632	-0.8797332
121	0xbcfcf0fe	-0.030876633
122	0xbf18dfc8	-0.59716463
123	0xbdd0bfb4	-0.101928145
124	0x3ef95e25	0.4870464
125	0xbd88b006	-0.06674199
126	0x3d249e6c	0.040190145
127	0xbf76ea15	-0.9645093
