models/good_maddpg_weights.pt (torch, 750653 bytes, 44 tensors)

fc1.weight f4 [128, 12]
0	0x3e992045	0.29907432
1	0xbf6166f8	-0.8804774
2	0x3ecc9757	0.39959213
3	0x3bab9d2d	0.0052372427
4	0x3e09fc9d	0.1347527
5	0x3e76390f	0.24045204
6	0xbe90b5d1	-0.28263715
7	0xbf365389	-0.71221215
8	0x3e8f00b0	0.27930212
9	0xbdf9f772	-0.122053996
10	0x3df2b2b8	0.11850494
11	0x3e586435	0.21131976
12	0x3de12330	0.109930396
13	0x3df302a8	0.11865741
14	0x3e8c5815	0.2741095
15	0xbe5338a3	-0.20627074
16	0xbdc71075	-0.09719936
17	0x3da2ac07	0.07942968
18	0xbef885b3	-0.48539504
19	0x3dad423b	0.08459898
20	0xbe8b4487	-0.2720072
21	0xbcb766bb	-0.022387853
22	0x3e87cada	0.2652195
23	0xbdceee6a	-0.101040676
24	0x3f5c4c4d	0.86053926
25	0xbf33dfb0	-0.70263195
26	0xbe877d5a	-0.26462823
27	0x3d8d929f	0.069127314
28	0xbdd0966b	-0.1018494
29	0xbe7da5c2	-0.24770263
30	0xbb5d95fa	-0.0033811317
31	0xbf095acd	-0.53654176
32	0x3d228399	0.039676283
33	0x3d031802	0.032005318
34	0x3dd6235f	0.10455965
35	0xbdf8dc6b	-0.121514164
36	0x3e4cf1a0	0.20014048
37	0xbf99e137	-1.2021855
38	0xbf7b3d77	-0.9814066
39	0xbd0a650d	-0.033787776
40	0xbe7baf1c	-0.24578518
41	0xbf308b8b	-0.68962926
42	0x3d9cbc8b	0.07653149
43	0xbec46661	-0.3835936
44	0x3ea2b597	0.31779167
45	0xbedb6917	-0.42853615
46	0xbc37cdc2	-0.01121849
47	0xbc999f02	-0.018752579
48	0x3f1ef6c3	0.6209528
49	0xbf15b4a8	-0.58478785
50	0x3ebb89e0	0.36628628
51	0x3dbca668	0.09211427
52	0x3da56c8a	0.08077343
53	0x3f0c55f8	0.5481868
54	0x3e8ff938	0.28119826
55	0xbf27dcce	-0.65571296
56	0x3e4eadf1	0.20183541
57	0xbde08be5	-0.10964183
58	0xbdac05e5	-0.08399562
59	0x3e9085c5	0.28227058
60	0x3f97c109	1.1855785
61	0xbe5f1d02	-0.2178841
62	0xbe10f69d	-0.14156576
63	0xbcfb687a	-0.030689467
64	0xbdb35684	-0.08756736
65	0xbe77fadf	-0.24216793
66	0x3c616ff5	0.013759603
67	0x3e435213	0.19074278
68	0x3e7ce826	0.24697933
69	0x3ea9b868	0.33148503
70	0x3e028699	0.12746657
71	0x3e4abb55	0.19798024
72	0xbdf55f14	-0.11981025
73	0x3d5659a2	0.052331574
74	0xbd43eac9	-0.04783133
75	0x3cfa1905	0.030529508
76	0xbd9ed5d5	-0.07755629
77	0x3eccd464	0.4000579
78	0xbf3f3e48	-0.7470441
79	0xbec4a279	-0.38405207
80	0xbf1b4515	-0.60652286
81	0xbdc53b0f	-0.09630405
82	0xbe3e38ca	-0.18576351
83	0x3e74ba29	0.2389914
84	0xbd431fb7	-0.047637668
85	0x3f0b371c	0.54380965
86	0x3ed24e6f	0.41075465
87	0xbe538b99	-0.20658721
88	0xbe2aa8e4	-0.16665989
89	0x3f1843f2	0.59478676
90	0xbf5d9ca9	-0.8656717
91	0x3c774cfd	0.015094039
92	0xbecfef0a	-0.4061206
93	0xbdba327a	-0.09091659
94	0x3e0c6a83	0.13712506
95	0x3e894b68	0.26815343
96	0x3dd68a14	0.10475555
97	0xbd0bd9cf	-0.034143265
98	0xbf1a9c4f	-0.6039476
99	0xbe055b0f	-0.13023017
100	0xbd0eb09d	-0.0348364
101	0xbf584a4f	-0.84488386
102	0x3f0fd17f	0.5617904
103	0x3ea41ec6	0.32054728
104	0x3f011b3b	0.50432175
105	0x3e05c6f8	0.13064182
106	0xbdee905d	-0.11648629
107	0x3e8a3136	0.2699067
108	0x3f0eb4e9	0.55744797
109	0xbb747389	-0.003730031
110	0xbf5d7077	-0.8649973
111	0x3cd20982	0.0256393
112	0xbdcb06d2	-0.0991341
113	0xbf273b8d	-0.6532524
114	0x3ec7e7cd	0.39044037
115	0xbf2e27cb	-0.6802947
116	0xbe2a52f3	-0.16633205
117	0xbe8fb8c9	-0.28070667
118	0xbe900504	-0.28128827
119	0xbe63aed6	-0.22234663
120	0xbe86cbeb	-0.26327452
121	0xbf1de384	-0.61675286
122	0xbfd9ef64	-1.7026181
123	0x3d529402	0.051410682
124	0xbd54d147	-0.051957395
125	0xbf9ed8d1	-1.2409917
126	0x3f7904c7	0.97272915
127	0xbee49adb	-0.44649395
128	0x3f3b3738	0.7313113
129	0xbe34c66b	-0.17653815
130	0x3d17a5a5	0.037023205
131	0x3e9303de	0.28713888
132	0x3e08cd2e	0.1335952
133	0xbe03daf1	-0.12876488
134	0xbfbd5f45	-1.4794699
135	0xbd8e52c6	-0.069493815
136	0xbd5818e4	-0.052758113
137	0xbf8297d2	-1.0202582
138	0x3eee8738	0.4658754
139	0xbdd9990d	-0.10624895
140	0x3f1ad9cd	0.6048859
141	0xbf165c77	-0.5873484
142	0x3d8a0334	0.06738892
143	0x3e4bce70	0.19902968
144	0xbf01ab2d	-0.5065182
145	0xbf3e071d	-0.74229604
146	0xbf7b3d3f	-0.9814033
147	0x3dbad853	0.09123292
148	0xbdc4b62f	-0.09605061
149	0xbf215e44	-0.6303446
150	0x3ecae81a	0.39630204
151	0x3e59217c	0.2120418
152	0x3ed8cfa5	0.4234592
153	0xbe5d7898	-0.21628034
154	0xbda8e7cd	-0.082473375
155	0x3d9b5e79	0.075863786
156	0xbe6a39ee	-0.22873661
157	0x3e5efe97	0.21776806
158	0xbf4fed31	-0.812213
159	0x3c699c15	0.014258404
160	0xbd948eb5	-0.07253782
161	0xbf9a8703	-1.2072452
162	0x3f017c3c	0.5058019
163	0x3b11abb3	0.0022227585
164	0xbd16a98e	-0.036782794
165	0xbd9dde55	-0.07708422
166	0xbe0400a0	-0.12890863
167	0xbd1e2f59	-0.038619373
168	0xbf59b84f	-0.8504686
169	0xbe14ff3a	-0.14550486
170	0xbe96edac	-0.29478204
171	0xbd0da4f2	-0.034581132
172	0x3d0c67ab	0.034278553
173	0xbd9eae9b	-0.07748147
174	0xbe674049	-0.22583117
175	0xbf2eff92	-0.6835872
176	0xbdce26ec	-0.100660175
177	0xbdf0e527	-0.11762457
178	0xbd534f28	-0.05158916
179	0x3cc54dc7	0.024084939
180	0xbf10b0b3	-0.5651962
181	0x3eb2350d	0.348061
182	0xbf8b3f6c	-1.087873
183	0xbd5d0c04	-0.053966537
184	0x3d9bd4fd	0.07608984
185	0xbf6a339c	-0.91485
186	0x3f12a692	0.57285416
187	0xbeb48b9c	-0.35262764
188	0x3d3c72c3	0.046007883
189	0xbed8b94f	-0.4232888
190	0x3d0f6229	0.035005722
191	0xbe42a383	-0.19007687
192	0xbefeb579	-0.49747828
193	0x3edf2e09	0.4358981
194	0xbef698fa	-0.48163587
195	0x394bd731	0.00019439754
196	0x3ad36b7a	0.0016130053
197	0xbf0e5f01	-0.55613714
198	0xbd8d27db	-0.068923675
199	0xbd91ef4b	-0.0712572
200	0xbdbe4098	-0.09289664
201	0x3e182eea	0.14861646
202	0x3d4caa36	0.049967013
203	0x3e91fa6d	0.28511372
204	0x3dd098c7	0.1018539
205	0xbdcc24fc	-0.09967992
206	0x3e3be666	0.18349609
207	0xbe1dd1a8	-0.15412009
208	0x3e831d1f	0.25608155
209	0xbdb24c4f	-0.08705961
210	0x3f4c1f3d	0.79735166
211	0xbeb2c7cb	-0.34918055
212	0x3f080bcc	0.53143
213	0xbe994167	-0.2993271
214	0x3e5170c9	0.2045318
215	0xbe901a5e	-0.28145117
216	0xbd822a55	-0.063557304
217	0x3e46f7ee	0.19430515
218	0x3e936786	0.2878992
219	0x3cb0cfd4	0.021583475
220	0xbe8ef7e6	-0.27923506
221	0x3ed72eaa	0.4202779
222	0xbf4c2860	-0.7974911
223	0x3e958913	0.29206142
224	0xbe96f7a4	-0.2948581
225	0x3e72c6a3	0.23708586
226	0xbd91e9e0	-0.07124686
227	0x3e736170	0.23767638
228	0x3f8bdf5f	1.0927542
229	0x3d09092f	0.033456024
230	0x3e158207	0.14600383
231	0xbd8490d5	-0.06472937
232	0x3d3df217	0.046373453
233	0xbe020046	-0.12695417
234	0x3e4c35e7	0.19942437
235	0x3e09667e	0.13418004
236	0x3f3cd671	0.7376471
237	0x3e16636d	0.14686365
238	0x3e375cc7	0.17906485
239	0x3e0b9c86	0.13633928
240	0xbee97c95	-0.4560286
241	0xbf810b32	-1.0081542
242	0xbf4b871b	-0.7950303
243	0xbd03c2e3	-0.03216828
244	0x3c987c4c	0.018613957
245	0xbef5a04c	-0.4797386
246	0x3edfe710	0.43730974
247	0xbe212d3e	-0.15739915
248	0x3e4dcfae	0.20098755
249	0xbe99f547	-0.30069944
250	0xbe495f19	-0.19665183
251	0x3dc9ef38	0.098600805
252	0xbebbb9c4	-0.36665165
253	0x3ed60d8c	0.4180721
254	0xbf33f6bf	-0.7029838
255	0xbc9ab62d	-0.018885696

fc1.bias f4 [128]
0	0x3e4531c6	0.19257268
1	0x3ecb95a7	0.39762613
2	0x3e122078	0.14270198
3	0xbf5886e0	-0.845808
4	0x3f372af4	0.71549916
5	0xbec03f0b	-0.37548098
6	0x3e8c3582	0.27384573
7	0x3eebb4df	0.4603643
8	0xbf8f5f5e	-1.1200979
9	0xbefe6b4b	-0.49691233
10	0xbf9d20ef	-1.2275676
11	0xbfa7f827	-1.3122605
12	0xbf41be91	-0.75681406
13	0xbf693c25	-0.911074
14	0xbefa353d	-0.48868743
15	0xbf4e0ca1	-0.8048802
16	0xbf429336	-0.76005876
17	0x3e143bc3	0.14475922
18	0x3f407f9d	0.7519472
19	0xbe52223a	-0.20520869
20	0xbf3dcc6e	-0.7414006
21	0xbf0aad57	-0.54170746
22	0xbee49469	-0.44644478
23	0x3ec15036	0.3775651
24	0xbf175cb5	-0.59125835
25	0x3d9c7ac1	0.07640601
26	0xbf717fb6	-0.94335496
27	0xbfcb32c3	-1.5874866
28	0x3e24dd29	0.16099991
29	0xbe83cb3d	-0.25740996
30	0x3f5d5850	0.8646288
31	0xbf4842bf	-0.78226846
32	0x3d8d7f46	0.06909041
33	0x3ec6c638	0.38823104
34	0xbe8ede60	-0.27904034
35	0xbf0ed922	-0.5580007
36	0xbf19ab11	-0.6002665
37	0x3f0c3f19	0.5478378
38	0xbd86c967	-0.06581383
39	0xbf81e77c	-1.0148768
40	0xbeadebae	-0.33968872
41	0xbf4be210	-0.7964182
42	0xbe7513a6	-0.23933277
43	0x3e910eee	0.28331703
44	0xbd811d71	-0.06304444
45	0xbf35bfd3	-0.70995826
46	0xbf9e5961	-1.2371026
47	0x3b864c0a	0.00409842
48	0x3ef75fe1	0.48315337
49	0x3f607ec6	0.8769344
50	0x3e42a046	0.19006452
51	0xbf74401a	-0.9541031
52	0x3f26d7c9	0.6517301
53	0xbe4f6d1d	-0.20256467
54	0xbe1eba4d	-0.15500756
55	0xbea4b1d5	-0.32166925
56	0xbe1711b1	-0.14752842
57	0xbe3b09b6	-0.18265423
58	0xbe82b64d	-0.2552971
59	0x3f4e0c83	0.8048784
60	0xbf860c14	-1.0472436
61	0xbe5f09e3	-0.21781115
62	0xbeb1408e	-0.34619564
63	0xbf41bb92	-0.75676835
64	0xbc194b18	-0.009356283
65	0x3f11fef3	0.57029647
66	0xbf90c333	-1.130957
67	0x3f3944bd	0.7237051
68	0xbf35db38	-0.71037626
69	0x3eb07293	0.34462413
70	0x3ec061c2	0.37574583
71	0x3db6609c	0.089051455
72	0xbda6a829	-0.08137543
73	0xbee5d904	-0.44892132
74	0xbdd84066	-0.10559158
75	0xbeb64c1b	-0.3560494
76	0xbf46c7d1	-0.77648646
77	0xbe36f796	-0.17867884
78	0xbe6d157b	-0.23152725
79	0x3ee3ba3f	0.44478032
80	0xbcb8a534	-0.022539712
81	0x3d838c78	0.06423277
82	0x3fb39165	1.4028746
83	0x3db4e8e6	0.08833484
84	0x3f245352	0.64189637
85	0xbeb026d4	-0.34404624
86	0xbed26ebe	-0.41100115
87	0xbe851b01	-0.25997165
88	0xbef3bbd6	-0.47604245
89	0xbefdafe9	-0.4954827
90	0x3d2466c0	0.040137053
91	0xbe8a7d24	-0.270486
92	0x3ef74b93	0.48299846
93	0x3f32163d	0.6956518
94	0xbf1334b5	-0.575023
95	0xbfa728ea	-1.3059361
96	0xbf431a8d	-0.7621239
97	0x3ebfa0f2	0.3742748
98	0xbdd64b74	-0.1046361
99	0x3c4a6c8c	0.012354981
100	0x3bb42e0c	0.0054986533
101	0x3e2dd889	0.16977133
102	0xbfbd9bc1	-1.4813157
103	0xbe6b4910	-0.2297709
104	0xbc1740cd	-0.009231758
105	0xbee610e7	-0.4493477
106	0xbf2c963f	-0.6741676
107	0xbf53887f	-0.8263015
108	0x3cbe4ee7	0.023230983
109	0xbf446331	-0.76713854
110	0xbf93ad52	-1.1537268
111	0xbeb6f8f4	-0.3573681
112	0xbf46fd4b	-0.77730244
113	0xbe984001	-0.2973633
114	0xbf33511d	-0.70045644
115	0xbe38b3a8	-0.18037283
116	0xbf1c5b1d	-0.6107653
117	0x3d6a1caf	0.05715626
118	0xbf3625c2	-0.71151364
119	0xbf84d4c1	-1.0377427
120	0xbeed5544	-0.46354115
121	0x3e772b14	0.24137527
122	0xbecc8e36	-0.39952248
123	0x3e9311e1	0.28724578
124	0xbf90badd	-1.1307026
125	0xbdb23049	-0.08700616
126	0x3f1661a9	0.5874277
127	0x3f71f15d	0.94508916

fc2.weight f4 [128, 128]
0	0x3d5463e2	0.05185307
1	0xbd93e8bb	-0.07222124
2	0xbb9d42fe	-0.004799246
3	0x3ce3e970	0.027821273
4	0xbca29f1c	-0.01985126
5	0xbd969376	-0.07352345
6	0x3d861527	0.06547003
7	0xbe752b22	-0.23942235
8	0xbd4aafe0	-0.049484134
9	0x3d56cd86	0.052442096
10	0xbd2cec43	-0.042217504
11	0x3d8ad3d3	0.067786835
12	0xbd9d839b	-0.076911174
13	0x3d46ca0e	0.048532538
14	0xbd43542d	-0.0476877
15	0x3d1552eb	0.03645603
16	0x3d9fed7f	0.07808971
17	0xbc32c0e9	-0.010910251
18	0xbe2ac8ec	-0.16678208
19	0xbd2255d6	-0.03963264
20	0xbeddfe0f	-0.43357894
21	0xbd2d2cee	-0.042279176
22	0x3db1616c	0.0866116
23	0xbd1a1303	-0.037615787
24	0xbdaba02a	-0.08380158
25	0xbd8eac79	-0.0696649
26	0xbceba30b	-0.028764268
27	0xbdc805bd	-0.097667195
28	0xbd9a6009	-0.075378485
29	0xbd89889e	-0.06715511
30	0xbda1a412	-0.07892622
31	0xbc350303	-0.011048081
32	0xbdde05ee	-0.10840975
33	0xbecbcdec	-0.39805543
34	0xbe6bc91f	-0.2302594
35	0xbe009370	-0.12556243
36	0xbca4b9da	-0.020108152
37	0xbe4d0660	-0.20021963
38	0xbd06c704	-0.03290464
39	0x3c4ca4cf	0.012490465
40	0xbd4f2978	-0.050576657
41	0xbdc6c15a	-0.09704848
42	0x3e2dc767	0.16970597
43	0xbd05f6b7	-0.03270599
44	0x3d22625d	0.039644588
45	0xbe4adfac	-0.19811887
46	0xbda0cf9b	-0.078520976
47	0xbd4df2d7	-0.05028042
48	0x3e08e634	0.13369066
49	0xbe61104f	-0.21978877
50	0x3db469af	0.0880922
51	0xbdb1305c	-0.08651802
52	0xbd973631	-0.07383383
53	0xbeac1f03	-0.3361741
54	0x3d4355e6	0.04768934
55	0xbeba7615	-0.36418214
56	0xbe07e327	-0.13270245
57	0xbe8a3504	-0.26993573
58	0xbd2a76fe	-0.041617386
59	0xbeb6f55d	-0.35734072
60	0xbe20f842	-0.15719703
61	0x3dce23d2	0.10065426
62	0xbd43465f	-0.047674533
63	0xbd96c963	-0.0736263
64	0x3da0f499	0.07859153
65	0xbdecb6c7	-0.115582995
66	0x3d1871b3	0.037217807
67	0xbd6fd5d9	-0.05855355
68	0x3bcccb60	0.00624983
69	0xbdb086f3	-0.086194895
70	0x3dd7b030	0.10531652
71	0x3d55ee99	0.052229498
72	0xbe0f71a3	-0.14008193
73	0xbde87452	-0.11350311
74	0xbd2f4230	-0.04278773
75	0xbd3700c0	-0.04467845
76	0xbda3a3bf	-0.079902165
77	0x3da3248b	0.079659544
78	0xbe7e87a3	-0.24856429
79	0xbd85722b	-0.065159164
80	0xbe3f329d	-0.18671651
81	0x3d2cac13	0.04215629
82	0xbe69e22a	-0.22840181
83	0xbdbcb60e	-0.09214412
84	0xbdf21e2f	-0.11822163
85	0xbe0bcce0	-0.13652372
86	0xbd9eca49	-0.077534266
87	0x3c9cf1df	0.019158302
88	0xbdd26f81	-0.10275174
89	0x3aad5748	0.0013224864
90	0x3d68ef07	0.05686858
91	0x3d81720e	0.06320582
92	0xbe501c6d	-0.20323344
93	0xbe20f5c7	-0.15718757
94	0xbd232b0a	-0.039835967
95	0x3d96c6e7	0.07362156
96	0x3d161545	0.036641378
97	0xbca64d7a	-0.020300616
98	0x3d81039c	0.062995166
99	0x3cc85b90	0.024457723
100	0x3c5abef3	0.01335119
101	0x3e09a0c1	0.13440229
102	0xbdc000d1	-0.09375156
103	0x3d17b203	0.037035
104	0xbe494bb0	-0.19657779
105	0xbe9fd074	-0.31213725
106	0xbe93d160	-0.28870678
107	0x3b1b045b	0.002365372
108	0x3cc22004	0.023696907
109	0x3ca406dd	0.020022804
110	0x3c43c156	0.01194795
111	0xbd09eabc	-0.033671126
112	0x3d5a5281	0.053301338
113	0xbe3fd416	-0.18733248
114	0x3c78a1ac	0.015175264
115	0x3d207f1c	0.03918372
116	0x3cdbdd39	0.026838886
117	0x3c1cd566	0.0095723625
118	0x3df2393e	0.11827324
119	0xbdd966f7	-0.10615342
120	0xbe06efe8	-0.13177454
121	0xbc021209	-0.00793887
122	0xbe7418e4	-0.2383762
123	0x3cfa2061	0.030533018
124	0x3d313106	0.043259643
125	0xbe167b61	-0.14695503
126	0x3d00ec18	0.031475157
127	0xbe2e5955	-0.17026265
128	0x3e54c78c	0.20779246
129	0xbce6f4b5	-0.028192857
130	0x3e6f52d2	0.23371437
131	0xbf281de8	-0.65670633
132	0x3e08abf3	0.13346843
133	0xbe386a21	-0.18009235
134	0x3e8f484b	0.27984843
135	0xbea756cc	-0.32683408
136	0x3d89c135	0.067263044
137	0x3d034628	0.032049328
138	0xbeb56b8d	-0.35433617
139	0x3de162cf	0.11005174
140	0xbd2a6b3d	-0.041606177
141	0xbd552c58	-0.052044243
142	0xbe010548	-0.12599671
143	0xbeb93ebc	-0.36180675
144	0xbdf73728	-0.12071067
145	0x3e1ea99c	0.15494388
146	0x3dac8cba	0.08425279
147	0xbd2b0da7	-0.041761067
148	0xbe22d588	-0.15901768
149	0xbf29a62e	-0.66269195
150	0xbd83d1a6	-0.06436472
151	0xbe6cfbe8	-0.2314297
152	0xbda612a1	-0.08109022
153	0xbdecf8de	-0.11570905
154	0xbe210139	-0.15723123
155	0xbefc6330	-0.49294424
156	0x3d3066b7	0.043066707
157	0x3dc03d54	0.093866974
158	0xbe87fc5e	-0.26559728
159	0x3e8ec23b	0.2788256
160	0xbe8ab4d8	-0.27091098
161	0x3e829279	0.25502375
162	0xbdcff74c	-0.1015459
163	0x3da7b3a1	0.08188558
164	0xbe7eaed3	-0.24871378
165	0x3d7c5db9	0.06161282
166	0x3cc225b3	0.023699617
167	0xbb4977f8	-0.0030741673
168	0x3b9758c9	0.0046187383
169	0xbe00f3de	-0.12593028
170	0x3db45493	0.08805194
171	0x3eacf7a6	0.3378269
172	0xbd81593b	-0.063158475
173	0x3c22a900	0.009927988
174	0xbe8312a4	-0.2560016
175	0x3d63b41c	0.055591688
176	0xbf0a0370	-0.53911495
177	0xbdc4b987	-0.09605699
178	0xbd67709f	-0.05650389
179	0xbedca47c	-0.43094242
180	0xbdf1b861	-0.118027456
181	0x3c8fd084	0.017555483
182	0x3dfe265e	0.12409662
183	0x3dd15fba	0.102233365
184	0x3e9841ad	0.29737607
185	0x3cb3570e	0.021892097
186	0xbd6612f9	-0.056170437
187	0x3ddf5835	0.10905496
188	0xbd6bd53f	-0.057576414
189	0x3e4bae66	0.19890746
190	0x3e073308	0.1320306
191	0xbe9905a1	-0.29887107
192	0x3db04cf4	0.08608428
193	0x3e361c88	0.17784321
194	0x3cdbc40f	0.026826886
195	0x3e04fa22	0.12986043
196	0xbea1a186	-0.31568545
197	0x3e458b96	0.19291529
198	0xbe67c804	-0.22634894
199	0x3dbd194e	0.09233342
200	0x3d866670	0.06562507
201	0xbd322d64	-0.04350032
202	0xbe00cb15	-0.1257747
203	0xbe61749c	-0.22017139
204	0xbe9039b4	-0.28169024
205	0x3dd0c03b	0.10192915
206	0x3e3b1fe3	0.18273883
207	0xbe08dbee	-0.13365147
208	0x3e8e125c	0.27748382
209	0x3e269452	0.16267517
210	0x3ece6225	0.40309253
211	0xbc5e3d50	-0.013564423
212	0xbdad1eb5	-0.084531225
213	0x3dad60a5	0.08465699
214	0x3e087862	0.13327172
215	0xbe086ac2	-0.13321975
216	0xbdd31510	-0.10306752
217	0xbe37d6bc	-0.17953008
218	0xbdfdea9e	-0.12398265
219	0x3e652b84	0.22379881
220	0x3cd9ebf3	0.026601767
221	0x3d376c16	0.044780813
222	0xbea10b86	-0.31454104
223	0xbeef9334	-0.46791995
224	0x3ded1b24	0.11577442
225	0x3d5033e8	0.05083075
226	0xbdc0a1ad	-0.09405837
227	0x3d24ec17	0.040264215
228	0xbe1105d9	-0.14162387
229	0xbece211c	-0.40259635
230	0x3e20309d	0.15643544
231	0x3b9b6507	0.004742268
232	0x3ec60732	0.38677365
233	0xbe8d50a6	-0.27600592
234	0xbf265d1b	-0.6498582
235	0xbe4c1052	-0.199281
236	0xbe34c71b	-0.17654078
237	0xbd4ba62f	-0.049719032
238	0xbda155cc	-0.078776926
239	0xbe858c15	-0.26083437
240	0xbe6bf460	-0.2304244
241	0xbe12f783	-0.1435223
242	0xbe974cd5	-0.29550806
243	0x3e5be4a8	0.21473944
244	0x3e6ec0c7	0.23315726
245	0x3e6a1ea2	0.22863248
246	0x3e3eacd7	0.1862062
247	0xbd97d1f9	-0.07413096
248	0x3d82f4b8	0.06394333
249	0x3ca46e05	0.020071993
250	0xbd7a5dd8	-0.061124653
251	0x3de393c4	0.111121684
252	0xbf5ee6e2	-0.8707105
253	0xbece7aed	-0.4032816
254	0x3e601076	0.2188128
255	0xbe242820	-0.16030931

fc2.bias f4 [128]
0	0x3e055b40	0.1302309
1	0x3eb9eb79	0.36312464
2	0x3df463af	0.11933076
3	0xbe1b3e45	-0.15160473
4	0xbebf4247	-0.37355253
5	0xbd20e6c1	-0.039282564
6	0xbd112660	-0.035436988
7	0xbd38b37c	-0.045093045
8	0x3ddf13ad	0.10892425
9	0xbdb0bff2	-0.08630361
10	0xbdc9c7fd	-0.09852598
11	0xbd878016	-0.06616227
12	0x3e1787fb	0.14797966
13	0xbd8ee4a1	-0.06977201
14	0x3eb7a843	0.3587056
15	0xbd8f62df	-0.0700128
16	0x3dcb714b	0.09933718
17	0x3d92c106	0.071657225
18	0x3f5051e1	0.8137494
19	0x3e041946	0.12900266
20	0x3ddfc2a4	0.10925797
21	0x3f17b89a	0.59266055
22	0xbc369454	-0.011143763
23	0xbd8f7e94	-0.07006565
24	0x3ea846e6	0.3286659
25	0xbf1041aa	-0.56350195
26	0xbe7a10ef	-0.24420522
27	0xbda3a477	-0.079903536
28	0x3e3e211c	0.18567318
29	0xbea93613	-0.33049068
30	0xbdce6bfe	-0.100791916
31	0xbe8fe00d	-0.28100625
32	0x3d309e25	0.04311957
33	0x3ea3dcf6	0.32004517
34	0x3eb682c1	0.35646632
35	0x3d66425d	0.056215633
36	0xbe74f78e	-0.2392256
37	0xbe901116	-0.28138036
38	0xbdba6e52	-0.09103073
39	0xbd28a958	-0.041177124
40	0xbd68c882	-0.056831844
41	0xbd8b2b31	-0.067953475
42	0x3f2a0690	0.66416264
43	0xbf118e70	-0.5685797
44	0xb98e8d21	-0.000271895
45	0x3cbe9697	0.023265166
46	0x3b9f5c06	0.004863265
47	0xbe3a515b	-0.18195097
48	0xbf7d2f67	-0.98900455
49	0x3db32882	0.087479606
50	0xbe0d1dad	-0.13780852
51	0xbe82dddb	-0.25559887
52	0x3debb216	0.115085766
53	0x3bf4b289	0.007467572
54	0xbe72d869	-0.23715366
55	0xbc5e588a	-0.013570914
56	0x3eedc7b4	0.46441424
57	0x3dc87e19	0.09789676
58	0xbf0758be	-0.52869785
59	0x3d82709c	0.06369135
60	0x3f35eb85	0.710625
61	0x3d24ada7	0.04020467
62	0xbd6e16d2	-0.058127232
63	0xbe0b68a4	-0.13614136
64	0xbe9dd6da	-0.3082798
65	0xbc97b1f0	-0.018517464
66	0xbdf5c721	-0.120008714
67	0x3eb7c856	0.35895032
68	0x3d8b8d60	0.068140745
69	0x3ed94a15	0.42439333
70	0xbdc83205	-0.097751655
71	0xbd59c1c1	-0.053163294
72	0xbe4898ac	-0.1958949
73	0x3f2544a1	0.64557844
74	0x3f1caeb4	0.61204076
75	0x3ec1698e	0.37775844
76	0xbc03efbb	-0.008052762
77	0xbe8e93dd	-0.27847186
78	0x3f0996d6	0.5374578
79	0xbf318ff5	-0.69360286
80	0xbdf534fc	-0.119729966
81	0xbf8cd18b	-1.1001447
82	0x3eda9f95	0.42699876
83	0xbd0b6cb7	-0.034039225
84	0xbf3218e5	-0.69569236
85	0xbce6c327	-0.028169228
86	0x3e9d991c	0.30780876
87	0x3f4005f3	0.7500908
88	0x3d297a2c	0.041376278
89	0xbd34d9bb	-0.044152956
90	0xbe0e260d	-0.13881703
91	0xbe53da47	-0.20688735
92	0xbdf4bcff	-0.11950111
93	0x3dd2a055	0.10284487
94	0xbe5388dd	-0.20657678
95	0xbeb509a9	-0.35358933
96	0x3dfd21cf	0.12359964
97	0xbe6079c5	-0.21921451
98	0xbe09d413	-0.13459806
99	0xbeb239bd	-0.34809676
100	0xbf0e3d1c	-0.55561996
101	0xbe8d3ae5	-0.27583995
102	0xbe87ed8f	-0.2654843
103	0xbe249d18	-0.16075552
104	0x3cf9cc92	0.030493055
105	0xbdc46fcc	-0.09591636
106	0xbe0d113c	-0.13776106
107	0xbef1ac2c	-0.4720167
108	0x3d0cffd3	0.03442366
109	0xbf02cd92	-0.51094925
110	0xbce5402b	-0.0279847
111	0xbd07d730	-0.033164203
112	0xbd8c7295	-0.06857792
113	0xbe4e8fc5	-0.20172031
114	0x3e8f4dbc	0.27988994
115	0xbcd02db5	-0.02541242
116	0x3f419b8a	0.7562796
117	0x3e6c0d2f	0.23051904
118	0xb99574c8	-0.00028506503
119	0xbe00087e	-0.1250324
120	0x3f829890	1.0202808
121	0xbe198c2d	-0.14994879
122	0x3d633d1a	0.055478193
123	0xbe2853bc	-0.16438192
124	0xbbe68eac	-0.007036051
125	0xbde02735	-0.10944978
126	0xbd7d507e	-0.06184434
127	0x3d61f43a	0.055164553

out.weight f4 [2, 128]
0	0xbdd0acd8	-0.10189217
1	0x3e408a33	0.18802719
2	0x3dabf781	0.08396817
3	0x3d6dfd97	0.05810317
4	0xbe8fdf0f	-0.28099868
5	0x3dd5dbc4	0.104423076
6	0x3d548c25	0.051891465
7	0xbea5f9f3	-0.3241726
8	0xbdeeffdd	-0.11669896
9	0xbcaca05b	-0.021072557
10	0xbc8cbd5e	-0.017180141
11	0xbd940e75	-0.0722932
12	0xbeaadaa6	-0.3336994
13	0xbc92168b	-0.017833015
14	0x3f125f7b	0.5717694
15	0xbcae6415	-0.021287957
16	0x3e2b1a65	0.16709287
17	0xbdd9e644	-0.10639623
18	0xbeab6511	-0.33475545
19	0x3e58121a	0.21100655
20	0xbc0975d0	-0.008389905
21	0xbecf2773	-0.40459785
22	0xbafbb735	-0.001920438
23	0xbe0ceae7	-0.13761483
24	0xbe5117aa	-0.20419183
25	0x3dab2c8a	0.083581045
26	0xbe1db2b5	-0.15400203
27	0xbe88742a	-0.26651126
28	0xbe84518c	-0.25843465
29	0x3d0a66e3	0.033789527
30	0x3d1fd1ed	0.03901856
31	0x3d9f1243	0.07767155
32	0x3e0daa5a	0.13834515
33	0xbf07a984	-0.52993035
34	0x3e606217	0.21912418
35	0xbe7d5e7e	-0.24743077
36	0x3cffe0d2	0.031235132
37	0x3be7a5da	0.0070693316
38	0xbe3cd032	-0.18438795
39	0xbcfe8556	-0.031069439
40	0x3b848245	0.0040438497
41	0x3c96911c	0.01837974
42	0xbe45814a	-0.19287601
43	0x3e8a8ce4	0.27060616
44	0xbd2a5af6	-0.041590653
45	0x3d922405	0.071357764
46	0x3cad58c1	0.021160485
47	0xbe5ccfe8	-0.21563685
48	0x3cd6641b	0.02617078
49	0x3d3ea7f3	0.046546888
50	0x3d9fd72b	0.07804712
51	0xbe3d80a4	-0.18506104
52	0x3bc9c22c	0.0061571803
53	0xbc5ce164	-0.013481472
54	0x3c89c3fd	0.016817087
55	0x3e8bc7c1	0.27300838
56	0xbe92cd8b	-0.28672442
57	0xbcabf985	-0.020993004
58	0x3dbdc434	0.092659384
59	0xbcceaa0b	-0.025227567
60	0xbe950608	-0.29106164
61	0x3d3769f2	0.04477877
62	0xbd8cdc68	-0.06877977
63	0xbde30b53	-0.11086144
64	0x3e3a6b7b	0.18205063
65	0xbe3b0004	-0.18261725
66	0xbcc36a06	-0.023854267
67	0x3e88f849	0.26751927
68	0xbdb9b043	-0.090668224
69	0xbb9762af	-0.0046199183
70	0xbc8cacb1	-0.01717219
71	0x3d7aa93f	0.061196562
72	0xbc9296a2	-0.017894093
73	0xbed6b941	-0.41938213
74	0xbd1c4cb8	-0.038159102
75	0xbeeb85d8	-0.46000552
76	0xbd7831a5	-0.06059422
77	0xbc69a921	-0.014261515
78	0xbd853710	-0.06504643
79	0x3ee229e6	0.4417259
80	0xbbdb0f78	-0.0066851936
81	0x3dcec1a1	0.100955255
82	0xbf19bc61	-0.6005307
83	0xbcc3c866	-0.023899268
84	0x3e7acc39	0.24491967
85	0x3c9db47d	0.019251103
86	0xbd3abfbb	-0.045593005
87	0x3c0ea03e	0.008705197
88	0x3d814e71	0.0631379
89	0x3d7ba20a	0.06143383
90	0x3d82944f	0.06375944
91	0xbd8fbf43	-0.07018902
92	0xbc9b323f	-0.018944858
93	0xbe137dee	-0.14403507
94	0xbe3947ee	-0.18093845
95	0x3ed0faed	0.4081644
96	0xbc26b665	-0.010175322
97	0xbc977844	-0.018489964
98	0xbd8f402e	-0.06994663
99	0xbafd6c1b	-0.0019334586
100	0xbe7f4e65	-0.24932249
101	0xbcb9c8b6	-0.022678714
102	0xbd0f3d4d	-0.03497057
103	0xbc5c1e37	-0.013434938
104	0xbbe8e506	-0.00710738
105	0xbc6a163e	-0.0142875295
106	0x3edd45ca	0.43217307
107	0x3a39bff3	0.00070857926
108	0x3e69939a	0.22810212
109	0x3bf466e0	0.0074585527
110	0xbe386806	-0.18008432
111	0xbcfac032	-0.030609224
112	0xbd753ad6	-0.059870563
113	0x3c7c51c3	0.015400353
114	0xbcb0a022	-0.021560732
115	0xbc81438d	-0.015779281
116	0xbe25537d	-0.1614513
117	0x3da63988	0.08116442
118	0xbe9c8eb8	-0.30577636
119	0x3d591fa0	0.053008676
120	0xbf4d7055	-0.8024953
121	0xbc90fb7c	-0.017698042
122	0x3ea85847	0.3287985
123	0x3dd7b801	0.10533143
124	0x3c093916	0.008375427
125	0x3cd5d0bd	0.02610051
126	0xbbc43741	-0.005988032
127	0xbd162249	-0.03665379
128	0x3cca25ed	0.024676288
129	0xbe5860ef	-0.21130727
130	0xbb46e5da	-0.0030349405
131	0xbd7eda92	-0.062220164
132	0x3dae3f84	0.085082084
133	0x3d5dc758	0.054145187
134	0xbdc73642	-0.09727146
135	0xbd2b6f3d	-0.041854132
136	0x3e7536c8	0.23946679
137	0x3c99ec55	0.01878945
138	0x3c995366	0.018716525
139	0x3ce34ea3	0.027747458
140	0x3d91ffd5	0.07128874
141	0x3cb5d18a	0.022194643
142	0xbcbc9d06	-0.023024093
143	0x3d444d2b	0.047925156
144	0x3db02f31	0.08602751
145	0x3ceb72f4	0.028741337
146	0x3e744542	0.23854545
147	0x3eb4cadb	0.35311016
148	0x3c4fdf72	0.012687551
149	0x3ee26a6e	0.44221824
150	0xbdc2c1d5	-0.09509627
151	0xbd2f4ec1	-0.042799715
152	0x3e3a5992	0.18198231
153	0xbdaccc29	-0.08437378
154	0xbc20a00b	-0.009803782
155	0x3dd71f16	0.10503976
156	0xbd3ce1b6	-0.046113692
157	0xbd8b2474	-0.06794062
158	0xbd1f0cf2	-0.038830705
159	0xbdca3e5e	-0.09875177
160	0x3e1fd66a	0.15609136
161	0x3e49dd50	0.1971333
162	0x3f1c81f1	0.61135775
163	0xbd1ce49f	-0.038303968
164	0x3c093d99	0.008376502
165	0x3dce78f9	0.100816675
166	0x3d3709fa	0.04468725
167	0xbb892327	-0.0041850987
168	0xbd82861d	-0.06373236
169	0xbdfee82a	-0.124466255
170	0x3ec09c9e	0.3761949
171	0xbd1dcc2b	-0.038524788
172	0x3d021d22	0.031766064
173	0xbc5ab4bc	-0.0133487545
174	0xbdae5c98	-0.085137546
175	0xbd93bc50	-0.07213652
176	0xbe01ca6d	-0.12674876
177	0x3e374bb7	0.17899977
178	0xbddf92bb	-0.109166585
179	0x3d12ca10	0.035837233
180	0x3d45638d	0.048190642
181	0x3cd97621	0.026545586
182	0xbd9dd8e3	-0.077073835
183	0xbaace327	-0.0013190255
184	0xbded0291	-0.11572755
185	0x3d4bd55c	0.049764022
186	0x3e1a11ea	0.15045896
187	0x3cb686da	0.0222811
188	0x3e0d940d	0.13826008
189	0xbd7e2648	-0.062048227
190	0x3c69ba9e	0.014265684
191	0xbe9d010f	-0.3066487
192	0xbe149b74	-0.14512426
193	0xbc2297fb	-0.00992393
194	0x3b8a43e5	0.0042195194
195	0x3e8afaf2	0.2714458
196	0xbd2a09b1	-0.04151315
197	0x3e266183	0.16248135
198	0x3d0c16cf	0.03420144
199	0xbb40be9c	-0.0029410487
200	0x3d651a8b	0.055933516
201	0xbe85a288	-0.26100564
202	0x3e867bd5	0.2626635
203	0xbd73c6fe	-0.059515946
204	0xbca01333	-0.019540405
205	0xbe1dcdfc	-0.15410608
206	0x3f0f6d47	0.5602612
207	0x3e27caf3	0.16386013
208	0x3d5209fc	0.051279053
209	0xbe847861	-0.25873092
210	0xbe8e6afc	-0.27815998
211	0xbdc1982f	-0.09452855
212	0xbe9beb45	-0.30452934
213	0xbcb50772	-0.022098277
214	0x3e47f8cd	0.19528504
215	0x3e198b9a	0.1499466
216	0xbb5bf5d2	-0.0033563268
217	0x3da04d4d	0.07827244
218	0xbdc70e2a	-0.097194985
219	0xbd7474e5	-0.05968179
220	0x3dacb16c	0.08432278
221	0x3eb01ab0	0.3439536
222	0x3dd5389f	0.1041119
223	0x3e91f030	0.2850356
224	0x3d04ea4e	0.032450013
225	0x3cd4a231	0.025956245
226	0xbe16960c	-0.14705676
227	0xbe45f03a	-0.1932992
228	0x3dce57bb	0.10075327
229	0xbd767a17	-0.060175028
230	0xbd18e3ab	-0.037326496
231	0x3d3ab1c0	0.04557967
232	0x3d8754ba	0.06607957
233	0x3b9a313c	0.004705576
234	0xbde9c409	-0.11414344
235	0xbe396e63	-0.18108515
236	0x3f17707a	0.59156
237	0xbe9b6f57	-0.30358383
238	0x3e5cdfcc	0.21569747
239	0x3e6cb371	0.23115326
240	0x3d238d6b	0.03992979
241	0xbca57aec	-0.020200215
242	0xbd80fd1f	-0.06298279
243	0xbd6fadfb	-0.05851553
244	0x3f103b0e	0.5634011
245	0x3e1e77fe	0.15475461
246	0x3bb4ceff	0.00551784
247	0x3ebeb44d	0.37246934
248	0xbe46118a	-0.19342628
249	0x3d921f7d	0.07134912
250	0x3da8454a	0.08216341
251	0x3b6669d7	0.00351583
252	0x3d49e6d0	0.049292386
253	0x3cbc177b	0.022960415
254	0xbda78a5b	-0.08180686
255	0x3cd578e8	0.02605863

out.bias f4 [2]
0	0x3f12f226	0.5740074
1	0x3dfedd3d	0.124445416

fc1.weight f4 [128, 12]
0	0x3e968c14	0.29403746
1	0xbf636e44	-0.88840127
2	0x3ece605b	0.40307888
3	0x3b82aaed	0.003987661
4	0x3e0c593b	0.13705914
5	0x3e79cb0f	0.24393867
6	0xbe92e547	-0.2869055
7	0xbf370b5b	-0.715017
8	0x3e8cba6f	0.27485988
9	0xbe00a4a7	-0.1256281
10	0x3df2b2ba	0.11850496
11	0x3e586435	0.21131976
12	0x3def7385	0.116919555
13	0x3df7f6f3	0.12107649
14	0x3e8b2e50	0.2718377
15	0xbe4eeee8	-0.20208323
16	0xbdc35560	-0.09537768
17	0x3d9eae0b	0.0774804
18	0xbef44101	-0.47705844
19	0x3dadb8ce	0.08482514
20	0xbe86b31c	-0.26308525
21	0xbcbd4117	-0.023102326
22	0x3e87cada	0.2652195
23	0xbdceee6a	-0.101040676
24	0x3f592b8e	0.84832084
25	0xbf3827f7	-0.7193598
26	0xbe82d5e4	-0.2555381
27	0x3d6bad40	0.05753827
28	0xbdd79026	-0.10525541
29	0xbe74c940	-0.23904896
30	0xbc958d07	-0.018255724
31	0xbf0b971a	-0.5452744
32	0x3caf8ec7	0.021430386
33	0x3c94fa05	0.018185625
34	0x3dd62364	0.10455969
35	0xbdf8dc76	-0.121514246
36	0x3e3fb599	0.18721618
37	0xbf9aec31	-1.210333
38	0xbf79bdf5	-0.97555476
39	0xbd23552f	-0.03987616
40	0xbe7f37c4	-0.24923617
41	0xbf2f0b5e	-0.6837672
42	0x3d89e9c9	0.06734044
43	0xbec5bc1b	-0.38620076
44	0x3e9d730c	0.30751836
45	0xbedf52a5	-0.4361774
46	0xbc37cdc2	-0.01121849
47	0xbc999f02	-0.018752579
48	0x3f1df6ad	0.6170452
49	0xbf18de50	-0.5971422
50	0x3ebd3376	0.36953324
51	0x3dae629f	0.08514904
52	0x3da423a6	0.08014612
53	0x3f0d2aca	0.55143416
54	0x3e8d2bd9	0.27572516
55	0xbf294ca2	-0.6613256
56	0x3e4703d5	0.19435056
57	0xbdf33c16	-0.11876695
58	0xbdac05e5	-0.08399562
59	0x3e9085c5	0.28227058
60	0x3f96e7c2	1.1789477
61	0xbe66a866	-0.22525176
62	0xbe0c5fd0	-0.13708425
63	0xbd1441c0	-0.036195517
64	0xbdbb658a	-0.091502264
65	0xbe73f9d6	-0.23825774
66	0x3c050ca8	0.008120693
67	0x3e407ef3	0.18798427
68	0x3e7673fc	0.24067682
69	0x3ea882be	0.32912248
70	0x3e028699	0.12746657
71	0x3e4abb55	0.19798024
72	0xbde9dc29	-0.11418945
73	0x3d826fe6	0.06368999
74	0xbd651182	-0.0559249
75	0x3d0dfcaf	0.034664806
76	0xbda09557	-0.07840984
77	0x3ec8fe7b	0.39256653
78	0xbf3ddaf1	-0.74162203
79	0xbec20d96	-0.3790099
80	0xbf197bbd	-0.59954435
81	0xbdb2ea53	-0.087361
82	0xbe3e38ca	-0.18576351
83	0x3e74ba29	0.2389914
84	0xbd3dd432	-0.046344943
85	0x3f0b869a	0.5450226
86	0x3ed24578	0.41068625
87	0xbe53090c	-0.2060892
88	0xbe25aa2a	-0.16178194
89	0x3f181a54	0.59415174
90	0xbf5cf8ca	-0.8631712
91	0x3c33c114	0.010971326
92	0xbecf6b37	-0.40511486
93	0xbdc17af9	-0.09447283
94	0x3e0c6a83	0.13712506
95	0x3e894b68	0.26815343
96	0x3dde325c	0.10849449
97	0xbd0ccedc	-0.034376964
98	0xbf194329	-0.59868103
99	0xbe05ba0e	-0.13059255
100	0xbd2bf1c5	-0.041978616
101	0xbf56afe5	-0.83862144
102	0x3f0fa2a2	0.5610753
103	0x3ea1b4f2	0.31583363
104	0x3f000238	0.50003386
105	0x3e03208c	0.12805384
106	0xbdee905d	-0.11648629
107	0x3e8a3136	0.2699067
108	0x3f0ef912	0.558488
109	0xbb1f2f98	-0.0024289843
110	0xbf5c9a80	-0.8617325
111	0x3cadff9f	0.021240054
112	0xbdcd425a	-0.10022421
113	0xbf268685	-0.6504901
114	0x3ec82710	0.39092302
115	0xbf2fa36e	-0.6860875
116	0xbe2a2797	-0.16616665
117	0xbe9175cb	-0.2841018
118	0xbe900504	-0.28128827
119	0xbe63aed6	-0.22234663
120	0xbe8afe8f	-0.27147338
121	0xbf20c208	-0.6279607
122	0xbfd95829	-1.6980029
123	0x3d3685d2	0.044561215
124	0xbd688901	-0.056771282
125	0xbf9e3ba7	-1.2361954
126	0x3f768988	0.96303606
127	0xbee574d0	-0.44815683
128	0x3f383ab4	0.71964574
129	0xbe37c4be	-0.17946145
130	0x3d17a5a5	0.037023205
131	0x3e9303de	0.28713888
132	0x3e0a2e1c	0.13494152
133	0xbe077edc	-0.13231987
134	0xbfbd1cf5	-1.4774462
135	0xbd93ac8c	-0.07210645
136	0xbd6ba12f	-0.057526764
137	0xbf825781	-1.0182954
138	0x3eee2307	0.465111
139	0xbddc6ab5	-0.1076254
140	0x3f1a2383	0.60210437
141	0xbf1706dd	-0.5899485
142	0x3d8a0334	0.06738892
143	0x3e4bce77	0.19902979
144	0xbf014a4c	-0.50503993
145	0xbf3c0739	-0.7344852
146	0xbf7b8e47	-0.98263973
147	0x3dbcc930	0.09218061
148	0xbdcb578a	-0.09928806
149	0xbf21a5ee	-0.63143814
150	0x3ecb9f6b	0.39770064
151	0x3e5c2046	0.21496686
152	0x3eda14f4	0.4259411
153	0xbe59f3ce	-0.2128441
154	0xbda8e7cd	-0.082473375
155	0x3d9b5e79	0.075863786
156	0xbe70a08f	-0.23498748
157	0x3e601336	0.21882328
158	0xbf4e1d7c	-0.8051374
159	0x3c8f3d42	0.017485265
160	0xbd8d4de3	-0.06899621
161	0xbf999930	-1.1999874
162	0x3f00a08c	0.50244975
163	0x3b848fec	0.004045477
164	0xbd29899b	-0.041390996
165	0xbd9ad099	-0.07559318
166	0xbe0400a0	-0.12890863
167	0xbd1e2f59	-0.038619373
168	0xbf56bd46	-0.8388256
169	0xbe081ced	-0.13292284
170	0xbe9d2107	-0.3068926
171	0xbcf8731f	-0.030328332
172	0x3d144335	0.036196906
173	0xbdb6a275	-0.08917705
174	0xbe5d6a5b	-0.21622603
175	0xbf2d43b0	-0.6768141
176	0xbdba2d69	-0.090906925
177	0xbddbf41a	-0.10739918
178	0xbd534f2c	-0.051589176
179	0x3cc54dc7	0.024084939
180	0xbf1076cf	-0.5643129
181	0x3eb2ca38	0.34919906
182	0xbf8b2d46	-1.0873191
183	0xbd66b8f5	-0.056328733
184	0x3d97dd6c	0.0741528
185	0xbf6a0eef	-0.91429037
186	0x3f12ce7c	0.5734632
187	0xbeb4b360	-0.35293102
188	0x3d378426	0.04480376
189	0xbed8a49e	-0.42313093
190	0x3d0f6229	0.035005722
191	0xbe42a383	-0.19007687
192	0xbefe4f90	-0.49670076
193	0x3edfaa5d	0.43684664
194	0xbef66d80	-0.48130417
195	0xbad55468	-0.0016275765
196	0xba377f90	-0.0006999904
197	0xbf0e49b9	-0.5558124
198	0xbd8b54ee	-0.068033084
199	0xbd931d1d	-0.07183287
200	0xbdbfbed0	-0.093625665
201	0x3e18793a	0.14889994
202	0x3d4caa36	0.049967013
203	0x3e91fa6d	0.28511372
204	0x3dd9f99a	0.10643311
205	0xbdad8b10	-0.0847379
206	0x3e3731b9	0.17890061
207	0xbe198dee	-0.14995548
208	0x3e853df0	0.26023817
209	0xbdbbb7a3	-0.09165885
210	0x3f4d3df4	0.8017266
211	0xbeae9905	-0.3410112
212	0x3f0a5ea3	0.54050654
213	0xbe9448db	-0.28961834
214	0x3e5170c9	0.2045318
215	0xbe901a5e	-0.28145117
216	0xbd743c2b	-0.059627693
217	0x3e48398a	0.195532
218	0x3e933b01	0.28755954
219	0x3cf0b850	0.029384762
220	0xbe8d9542	-0.27652937
221	0x3ed72b7c	0.42025363
222	0xbf4a8c5a	-0.7912041
223	0x3e95fb58	0.29293323
224	0xbe9370fb	-0.28797135
225	0x3e752c71	0.23942734
226	0xbd91e9e0	-0.07124686
227	0x3e736170	0.23767638
228	0x3f8a9e59	1.0829574
229	0x3d134d40	0.035962343
230	0x3e15eb2c	0.14640492
231	0xbd8b8ebf	-0.06814336
232	0x3d4bb38d	0.04973178
233	0xbe0253dc	-0.12727302
234	0x3e45a615	0.19301637
235	0x3e0df0ed	0.13861437
236	0x3f3b0ab4	0.73063207
237	0x3e18a575	0.14906867
238	0x3e375cc7	0.17906485
239	0x3e0b9c86	0.13633928
240	0xbee920c3	-0.45532808
241	0xbf8040fa	-1.0019829
242	0xbf4bd7d5	-0.7962621
243	0xbd0ab01a	-0.03385935
244	0x3ca98be7	0.020696593
245	0xbef62d10	-0.48081255
246	0x3ee0163a	0.43766958
247	0xbe1f1a00	-0.15537262
248	0x3e4fcfaa	0.20294061
249	0xbe98cb1a	-0.29842454
250	0xbe495f19	-0.19665183
251	0x3dc9ef38	0.098600805
252	0xbebb4557	-0.3657634
253	0x3ed64a5c	0.41853607
254	0xbf33e786	-0.7027515
255	0xbcad2f6f	-0.021140782

fc1.bias f4 [128]
0	0x3e48c39a	0.19605866
1	0x3eca6d0e	0.39536327
2	0x3e1b6c94	0.15178138
3	0xbf5707c6	-0.83996236
4	0x3f37ff98	0.7187438
5	0xbebdf3a8	-0.37099957
6	0x3e8811e7	0.26576158
7	0x3eebabe6	0.46029586
8	0xbf8eb2c8	-1.114831
9	0xbefcbf55	-0.49364725
10	0xbf9c89db	-1.222957
11	0xbfa7b5f1	-1.3102399
12	0xbf420f82	-0.75804913
13	0xbf676c72	-0.9039985
14	0xbf003419	-0.50079495
15	0xbf4de856	-0.8043264
16	0xbf427d7f	-0.7597274
17	0x3e0f8713	0.1401637
18	0x3f4069f2	0.7516166
19	0xbe51b930	-0.204808
20	0xbf3e1d2d	-0.7426327
21	0xbf0a9e1b	-0.541475
22	0xbee222b5	-0.44167104
23	0x3ec2a8a8	0.380193
24	0xbf18277e	-0.5943526
25	0x3d9642fc	0.07336995
26	0xbf721baa	-0.9457346
27	0xbfcadcdc	-1.5848651
28	0x3e1f2f83	0.15545468
29	0xbe837e21	-0.25682166
30	0x3f5dfe22	0.867159
31	0xbf4992fc	-0.78739905
32	0x3d94984a	0.07255609
33	0x3ec31e7a	0.3810919
34	0xbe8b8d71	-0.2725635
35	0xbf0d41f2	-0.5517875
36	0xbf19938b	-0.5999076
37	0x3f0c939c	0.54912734
38	0xbd6282e9	-0.055300627
39	0xbf817954	-1.0115151
40	0xbead011a	-0.33789903
41	0xbf4bed68	-0.7965913
42	0xbe7460c4	-0.23865038
43	0x3e92f499	0.28702238
44	0xbd60456f	-0.054753717
45	0xbf35b524	-0.70979524
46	0xbf9df39b	-1.2339967
47	0x38cfa1b3	9.900648e-05
48	0x3ef6fb44	0.48238575
49	0x3f608e09	0.8771673
50	0x3e3b7152	0.18304947
51	0xbf743af1	-0.9540244
52	0x3f24a553	0.64314765
53	0xbe4c77a8	-0.1996752
54	0xbe215597	-0.15755306
55	0xbea7348a	-0.32657272
56	0xbe15cf1b	-0.14629786
57	0xbe3a41b2	-0.18189123
58	0xbe82f520	-0.2557764
59	0x3f4c41d1	0.7978793
60	0xbf85cca7	-1.045308
61	0xbe5e807f	-0.21728705
62	0xbeb46e6a	-0.3524049
63	0xbf43409a	-0.7627045
64	0xbbd79e9f	-0.0065801884
65	0x3f12f7d1	0.5740939
66	0xbf90d08a	-1.1313641
67	0x3f36eb96	0.71453226
68	0xbf35c6ca	-0.71006453
69	0x3eae8649	0.34086826
70	0x3ec01b74	0.37520945
71	0x3dc7af78	0.09750265
72	0xbda6ebd4	-0.081504494
73	0xbee55bd4	-0.44796622
74	0xbdd6ab1a	-0.10481854
75	0xbeb59253	-0.354632
76	0xbf4626c3	-0.77402896
77	0xbe395e9f	-0.18102501
78	0xbe692bb1	-0.22770573
79	0x3ee05dde	0.43821615
80	0xbcbbee3b	-0.022940746
81	0x3d7c930e	0.06166368
82	0x3fb3a7a6	1.4035537
83	0x3db4aa73	0.08821573
84	0x3f26289a	0.64905703
85	0xbeaf3c1a	-0.3422554
86	0xbed3dc10	-0.41378832
87	0xbe846531	-0.25858453
88	0xbef7e3c8	-0.4841597
89	0xbefa52de	-0.48891348
90	0x3d1b5d9f	0.03793108
91	0xbe89a730	-0.26885366
92	0x3ef7cd2c	0.4839872
93	0x3f2fe4d1	0.6870852
94	0xbf121519	-0.5706344
95	0xbfa6d629	-1.3034106
96	0xbf42a7f1	-0.7603751
97	0x3ebfb879	0.3744543
98	0xbde5275c	-0.11189148
99	0x3c52c5b9	0.012864524
100	0x3bd4da69	0.006495763
101	0x3e2d20fd	0.16907115
102	0xbfbd57b9	-1.4792396
103	0xbe6c87c9	-0.23098673
104	0xbc085ee4	-0.008323405
105	0xbee3be7f	-0.44481274
106	0xbf2dc7db	-0.6788308
107	0xbf523069	-0.8210512
108	0x3ccd7d51	0.02508417
109	0xbf449292	-0.7678615
110	0xbf93de94	-1.15523
111	0xbeb5d8fb	-0.35517105
112	0xbf47184d	-0.77771455
113	0xbe979119	-0.29602888
114	0xbf318911	-0.6934977
115	0xbe310bd3	-0.17289667
116	0xbf1c0647	-0.6094708
117	0x3d5f2d55	0.05448659
118	0xbf35c9a6	-0.71010816
119	0xbf84bfab	-1.0370992
120	0xbeef5157	-0.46741745
121	0x3e71da6f	0.23618482
122	0xbecc7718	-0.3993461
123	0x3e8dcdfd	0.2769622
124	0xbf90aece	-1.1303346
125	0xbdbe6c47	-0.09297996
126	0x3f16e885	0.58948547
127	0x3f6fcf6d	0.9367588

fc2.weight f4 [128, 128]
0	0x3d54641f	0.051853295
1	0xbd93e8b0	-0.07222116
2	0xbb9d42d4	-0.0047992263
3	0x3ce3e990	0.027821332
4	0xbca29f19	-0.019851254
5	0xbd96931c	-0.07352278
6	0x3d86153a	0.065470174
7	0xbe752b26	-0.23942241
8	0xbd4aafbf	-0.04948401
9	0x3d56cdb3	0.052442264
10	0xbd2cec35	-0.042217452
11	0x3d8ad412	0.067787305
12	0xbd9d8348	-0.076910555
13	0x3d46ca7a	0.04853294
14	0xbd435427	-0.047687676
15	0x3d15532f	0.036456283
16	0x3d9fed40	0.07808924
17	0xbc32c0ca	-0.010910222
18	0xbe2ac8f1	-0.16678216
19	0xbd2255a9	-0.039632473
20	0xbeddfdf0	-0.433578
21	0xbd2d2d0c	-0.04227929
22	0x3db1619d	0.086611964
23	0xbd1a12d0	-0.037615597
24	0xbdaba02d	-0.083801605
25	0xbd8eac73	-0.06966486
26	0xbceba34c	-0.02876439
27	0xbdc805b7	-0.09766715
28	0xbd9a5fc4	-0.07537797
29	0xbd89886f	-0.06715476
30	0xbda1a3ed	-0.078925945
31	0xbc3502ea	-0.011048058
32	0xbdde05c0	-0.108409405
33	0xbecbce12	-0.39805657
34	0xbe6bc8cd	-0.23025818
35	0xbe00935e	-0.12556216
36	0xbca4b9c5	-0.020108113
37	0xbe4d0692	-0.20022038
38	0xbd06c6f7	-0.03290459
39	0x3c4ca4ea	0.01249049
40	0xbd4f2973	-0.05057664
41	0xbdc6c11b	-0.09704801
42	0x3e2dc7bc	0.16970724
43	0xbd05f65f	-0.03270566
44	0x3d22628c	0.039644763
45	0xbe4adfca	-0.19811931
46	0xbda0cf6d	-0.07852063
47	0xbd4df283	-0.050280105
48	0x3e08e652	0.1336911
49	0xbe6110a8	-0.2197901
50	0x3db469c9	0.088092394
51	0xbdb13066	-0.086518094
52	0xbd973600	-0.073833466
53	0xbeac1ebd	-0.336172
54	0x3d43561a	0.047689535
55	0xbeba7639	-0.36418322
56	0xbe07e2f3	-0.13270168
57	0xbe8a34b3	-0.2699333
58	0xbd2a76e9	-0.041617308
59	0xbeb6f55a	-0.35734063
60	0xbe20f80d	-0.15719624
61	0x3dce241e	0.100654826
62	0xbd434617	-0.047674265
63	0xbd96c968	-0.07362634
64	0x3da0f4ec	0.07859215
65	0xbdecb714	-0.11558357
66	0x3d187203	0.037218105
67	0xbd6fd585	-0.058553237
68	0x3bcccb33	0.006249809
69	0xbdb086de	-0.08619474
70	0x3dd7b043	0.10531666
71	0x3d55eea7	0.05222955
72	0xbe0f7153	-0.14008074
73	0xbde87411	-0.11350263
74	0xbd2f4240	-0.04278779
75	0xbd3700ae	-0.044678383
76	0xbda3a3a5	-0.07990197
77	0x3da324b0	0.07965982
78	0xbe7e87a2	-0.24856427
79	0xbd8571f3	-0.06515875
80	0xbe3f3256	-0.18671545
81	0x3d2cabc1	0.042155985
82	0xbe69e215	-0.2284015
83	0xbdbcb602	-0.09214403
84	0xbdf21de6	-0.11822109
85	0xbe0bcd4a	-0.1365253
86	0xbd9eca3c	-0.07753417
87	0x3c9cf1f7	0.019158347
88	0xbdd26f58	-0.102751434
89	0x3aad573d	0.0013224852
90	0x3d68ef1c	0.056868657
91	0x3d81721e	0.06320594
92	0xbe501c6c	-0.20323342
93	0xbe20f5b5	-0.1571873
94	0xbd232af1	-0.039835874
95	0x3d96c70f	0.07362186
96	0x3d161553	0.03664143
97	0xbca64dac	-0.020300709
98	0x3d8103dd	0.06299565
99	0x3cc85ba6	0.024457764
100	0x3c5abf13	0.01335122
101	0x3e09a10a	0.13440338
102	0xbdc00097	-0.093751125
103	0x3d17b237	0.037035193
104	0xbe494b7f	-0.19657706
105	0xbe9fd0bb	-0.31213936
106	0xbe93d1a3	-0.28870878
107	0x3b1b049b	0.0023653868
108	0x3cc22056	0.02369706
109	0x3ca40740	0.020022988
110	0x3c43c186	0.011947995
111	0xbd09ea7b	-0.033670884
112	0x3d5a52df	0.05330169
113	0xbe3fd40e	-0.18733236
114	0x3c78a1dd	0.01517531
115	0x3d207f58	0.039183944
116	0x3cdbdd67	0.026838971
117	0x3c1cd573	0.009572375
118	0x3df239a1	0.11827398
119	0xbdd966f0	-0.10615337
120	0xbe06ef97	-0.13177334
121	0xbc0211e3	-0.007938835
122	0xbe7418ee	-0.23837635
123	0x3cfa20ad	0.03053316
124	0x3d31312d	0.04325979
125	0xbe167bab	-0.14695613
126	0x3d00ec3b	0.031475287
127	0xbe2e590d	-0.17026158
128	0x3e5da32c	0.21644276
129	0xbcd00e13	-0.025397336
130	0x3e7860bb	0.2425565
131	0xbf25cc66	-0.6476501
132	0x3e103725	0.14083536
133	0xbe309ed6	-0.17248091
134	0x3e8f50c5	0.2799131
135	0xbea5e7d5	-0.32403436
136	0x3d8f2799	0.069899745
137	0x3d116712	0.035498686
138	0xbeb28df5	-0.3487393
139	0x3de3129a	0.11087532
140	0xbd1db788	-0.038505107
141	0xbd552d54	-0.05204518
142	0xbe025369	-0.12727131
143	0xbebab970	-0.36469603
144	0xbdfacde8	-0.12246305
145	0x3e1fabb8	0.15592849
146	0x3da9abc9	0.082847185
147	0xbd02c455	-0.031925518
148	0xbe1d4291	-0.15357424
149	0xbf29ef71	-0.66380984
150	0xbd7cc3c0	-0.06171012
151	0xbe6e0704	-0.23244864
152	0xbd9a8ee6	-0.07546787
153	0xbdd62176	-0.10455601
154	0xbe1a2278	-0.15052211
155	0xbef88313	-0.48537502
156	0x3d291560	0.04128015
157	0x3db9de97	0.09075659
158	0xbe8a6190	-0.2702756
159	0x3e9042a7	0.28175852
160	0xbe8c328e	-0.2738232
161	0x3e8391b3	0.25697097
162	0xbdd473b0	-0.10373628
163	0x3db05357	0.08609646
164	0xbe80d250	-0.25160456
165	0x3d721f65	0.05911197
166	0x3d060a65	0.032724757
167	0xb9b4ee0a	-0.00034509628
168	0x3c0b2dd4	0.008494813
169	0xbdf782e4	-0.12085512
170	0x3dc52571	0.09626282
171	0x3ead71e0	0.33875942
172	0xbd5d52b1	-0.05403394
173	0x3c04cdb8	0.008105688
174	0xbe7e049c	-0.24806446
175	0x3d6ac09c	0.057312593
176	0xbf0a5f50	-0.54051685
177	0xbdcaea4e	-0.09907971
178	0xbd6125a2	-0.05496753
179	0xbed36861	-0.41290572
180	0xbded8173	-0.11596956
181	0x3c04fa8f	0.008116378
182	0x3e04954c	0.12947577
183	0x3dd60b61	0.10451389
184	0x3e975334	0.29555666
185	0x3cc4926f	0.023995606
186	0xbd436f75	-0.047713716
187	0x3de32405	0.110908546
188	0xbd552408	-0.052036315
189	0x3e4ac508	0.19801724
190	0x3e0c2124	0.13684517
191	0xbe98d856	-0.2985255
192	0x3daf2528	0.08552009
193	0x3e32bf6c	0.17455834
194	0x3cd3f1c4	0.025872119
195	0x3e07191a	0.13193169
196	0xbe9ee8e4	-0.31037056
197	0x3e484370	0.19556975
198	0xbe66bbd6	-0.22532591
199	0x3dce000b	0.10058602
200	0x3d89b941	0.067247875
201	0xbd1e070e	-0.038580947
202	0xbdfa044d	-0.122078516
203	0xbe5d9857	-0.21640144
204	0xbe8e256c	-0.27762926
205	0x3dd0c969	0.10194666
206	0x3e356848	0.17715561
207	0xbe098ee0	-0.13433409
208	0x3e91a9fc	0.2845
209	0x3e2af736	0.16695866
210	0x3ecd1994	0.40058577
211	0xbbd3ea86	-0.0064671664
212	0xbd9cd91a	-0.07658596
213	0x3dada92f	0.08479535
214	0x3e089adf	0.13340329
215	0xbdfff51b	-0.12497922
216	0xbdd8babd	-0.105824925
217	0xbe2f3028	-0.17108214
218	0xbdefd6f4	-0.11710921
219	0x3e62df61	0.22155525
220	0x3cc3c341	0.023896815
221	0x3d427935	0.047478873
222	0xbe9da4f4	-0.30789912
223	0xbeef03eb	-0.46682677
224	0x3df451d4	0.1192967
225	0x3d5851dd	0.052812446
226	0xbdc1fbde	-0.09471868
227	0x3d41c76b	0.04730932
228	0xbe01a4b0	-0.1266048
229	0xbecf258c	-0.40458333
230	0x3e202fac	0.15643185
231	0x3c713404	0.014721874
232	0x3ec448ed	0.38336888
233	0xbe8f6f99	-0.2801483
234	0xbf25de69	-0.64792496
235	0xbe516d00	-0.20451736
236	0xbe2fa8b1	-0.17154194
237	0xbd1de710	-0.038550436
238	0xbda95048	-0.082672656
239	0xbe882e94	-0.26598036
240	0xbe6c5a5b	-0.23081343
241	0xbe0ddc86	-0.13853654
242	0xbe902aca	-0.28157645
243	0x3e6629df	0.2247691
244	0x3e773ba0	0.24143839
245	0x3e70ba16	0.23508486
246	0x3e3cb56a	0.18428579
247	0xbd96689c	-0.073441714
248	0x3d7eaf12	0.06217868
249	0x3c9c1e7c	0.019057505
250	0xbd69c1d7	-0.057069626
251	0x3de6699f	0.112506144
252	0xbf5f2eec	-0.8718097
253	0xbecb2426	-0.39676017
254	0x3e5b9d39	0.21446694
255	0xbe222e81	-0.15838052

fc2.bias f4 [128]
0	0x3e055b4a	0.13023105
1	0x3ebbacbe	0.3665523
2	0x3df463ed	0.11933122
3	0xbe1b3e08	-0.15160382
4	0xbebf41f6	-0.37355012
5	0xbd20e679	-0.039282296
6	0xbd11260c	-0.035436675
7	0xbd2adcd0	-0.04171449
8	0x3ddd5066	0.108063504
9	0xbdb0bfe6	-0.08630352
10	0xbdc9c7b7	-0.09852546
11	0xbd877fbc	-0.0661616
12	0x3e178807	0.14797984
13	0xbd8ee44f	-0.0697714
14	0x3eb7b2a6	0.35878485
15	0xbd8f62df	-0.0700128
16	0x3dcb711b	0.099336825
17	0x3d92c15f	0.07165789
18	0x3f5051ef	0.8137502
19	0x3e041907	0.12900172
20	0x3ddfc30f	0.10925876
21	0x3f17e48a	0.593331
22	0xbc369416	-0.011143705
23	0xbd8f7e9b	-0.0700657
24	0x3ea84724	0.32866776
25	0xbf1041eb	-0.5635058
26	0xbe7a10aa	-0.2442042
27	0xbda85af4	-0.08220473
28	0x3e3e2149	0.18567385
29	0xbea935d1	-0.3304887
30	0xbdce6bff	-0.10079192
31	0xbe8fdfdf	-0.28100488
32	0x3d309e4d	0.043119717
33	0x3ea4813a	0.32129842
34	0x3eb6058c	0.35551107
35	0x3d6642bc	0.056215987
36	0xbe74f7f9	-0.23922719
37	0xbe901118	-0.28138041
38	0xbdba6e06	-0.091030166
39	0xbd28a931	-0.04117698
40	0xbd68c871	-0.05683178
41	0xbd8b2b2f	-0.06795346
42	0x3f2a1a12	0.6644603
43	0xbf118e58	-0.56857824
44	0xb98e8ccf	-0.0002718926
45	0x3cbe96dd	0.023265297
46	0x3b9f5bf0	0.0048632547
47	0xbe3a52d5	-0.1819566
48	0xbf7bbac7	-0.98331875
49	0x3db328b1	0.08747996
50	0xbe0d1d9f	-0.13780831
51	0xbe82ddcb	-0.2555984
52	0x3debb288	0.115086615
53	0x3bf4b2d5	0.0074676075
54	0xbe72d83a	-0.23715296
55	0xbc5e5890	-0.01357092
56	0x3eedc820	0.46441746
57	0x3dc87e6a	0.097897366
58	0xbf0758ab	-0.5286967
59	0x3d8270ce	0.06369172
60	0x3f35ebb9	0.7106281
61	0x3d24ae0c	0.040205047
62	0xbd6e16a5	-0.058127064
63	0xbe0b6883	-0.13614087
64	0xbe9f184e	-0.3107323
65	0xbc97b1d4	-0.018517412
66	0xbdf5c765	-0.12000922
67	0x3eb79c7a	0.3586157
68	0x3d8b8d9e	0.06814121
69	0x3ed94a6b	0.4243959
70	0xbdc831db	-0.09775134
71	0xbd59c190	-0.05316311
72	0xbe4898fa	-0.19589606
73	0x3f23df04	0.6401217
74	0x3f1caec7	0.6120419
75	0x3ec169ea	0.3777612
76	0xbc03ef9f	-0.008052736
77	0xbe8e93d7	-0.27847168
78	0x3f09967f	0.53745264
79	0xbf31af61	-0.6940823
80	0xbdf534ea	-0.11972983
81	0xbf8cd173	-1.1001419
82	0x3eda9fd3	0.4270006
83	0xbd0b6c6b	-0.034038942
84	0xbf3218d2	-0.6956912
85	0xbce6c2dd	-0.02816909
86	0x3e9d42c6	0.30715007
87	0x3f40060e	0.7500924
88	0x3d297a90	0.04137665
89	0xbd34d945	-0.044152517
90	0xbe0e2676	-0.13881859
91	0xbe53da3c	-0.20688719
92	0xbdf4bcfe	-0.1195011
93	0x3dd2879b	0.10279771
94	0xbe538898	-0.20657575
95	0xbeb43af8	-0.3520124
96	0x3dfd2235	0.1236004
97	0xbe6079e0	-0.21921492
98	0xbe09d3d3	-0.13459711
99	0xbeb239a2	-0.34809595
100	0xbf0df8ce	-0.5545777
101	0xbe8d3aeb	-0.27584013
102	0xbe87ed7f	-0.26548383
103	0xbe249cdd	-0.16075464
104	0x3cf9ccb1	0.030493112
105	0xbdc47022	-0.095917
106	0xbe0eb19d	-0.13934942
107	0xbef1ac3a	-0.4720171
108	0x3d1da9f0	0.038492143
109	0xbf02cd63	-0.51094645
110	0xbcccd6a5	-0.025004694
111	0xbd07d6d7	-0.03316387
112	0xbd8c7287	-0.06857782
113	0xbe4e8f8b	-0.20171945
114	0x3e8f4dc6	0.27989024
115	0xbcd02d9c	-0.025412373
116	0x3f420615	0.7579053
117	0x3e6c0be9	0.23051418
118	0xb99574c8	-0.00028506503
119	0xbe00084e	-0.12503168
120	0x3f818ad3	1.0120491
121	0xbe198c0c	-0.1499483
122	0x3d6f13b2	0.058368392
123	0xbe2853a5	-0.16438158
124	0xbbe68e85	-0.0070360326
125	0xbde02711	-0.10944951
126	0xbd7d504e	-0.061844163
127	0x3d61f464	0.05516471
