models/good_weights_swarm_static_enemy.pt (torch, 610749 bytes, 44 tensors)

fc1.weight f4 [128, 12]
0	0x3e016a38	0.12638175
1	0x3ec9670e	0.39336437
2	0x3f29cc67	0.6632752
3	0x3e47c0dc	0.19507164
4	0xbe32be67	-0.17455445
5	0x3ef66248	0.48121858
6	0xbea6864d	-0.32524338
7	0x3ec3ea16	0.3826453
8	0xbf8b3c30	-1.0877743
9	0x3ed87892	0.42279488
10	0x3cb7d1cd	0.022438908
11	0x3d8a7961	0.067614324
12	0x3f942227	1.1572922
13	0x3f4c273b	0.7974736
14	0xbef9c18d	-0.4878048
15	0x3dde5968	0.10856897
16	0x3d92dacb	0.07170638
17	0xbee46f16	-0.44616002
18	0x3e2826cb	0.16421048
19	0xbf1aa723	-0.6041128
20	0x3f0da973	0.55336684
21	0xbbacb0da	-0.005270106
22	0xbe63e404	-0.2225495
23	0x3e8b4288	0.27199197
24	0x3f8c5ab5	1.0965182
25	0xbf854260	-1.0410881
26	0xbd131ae0	-0.035914302
27	0x3dc06718	0.093946636
28	0x3d4d5c77	0.05013701
29	0xbea983ad	-0.33108273
30	0x3eff6141	0.49878886
31	0x3de15ae0	0.11003661
32	0x3f75cba0	0.9601383
33	0x3d38debd	0.045134295
34	0xbe5daa65	-0.21647032
35	0xbe07b032	-0.13250807
36	0xbdf37655	-0.118878044
37	0x3f11774c	0.5682266
38	0xbf03ccd1	-0.514844
39	0xbcb1a0b9	-0.021683084
40	0x3d2333f3	0.039844465
41	0xbed94712	-0.42437035
42	0xbf4b92db	-0.7952096
43	0xbe296045	-0.1654063
44	0xbf2509a0	-0.6446781
45	0xbe529327	-0.20563947
46	0xbe053843	-0.13009743
47	0xbe83e7df	-0.2576284
48	0xbf5ccb5e	-0.86247814
49	0xbdc5ec0f	-0.09664165
50	0xbf81df17	-1.0146207
51	0x3ed19b5f	0.4093885
52	0xbdfba024	-0.12286404
53	0xbf0a7055	-0.54077655
54	0xbf092d0a	-0.5358435
55	0x3f947000	1.159668
56	0xbf419219	-0.7561355
57	0x3f19cb19	0.6007553
58	0xbcf5e7bf	-0.030017732
59	0xbe33598b	-0.17514627
60	0x3e94bcd8	0.29050326
61	0x3e9487c5	0.29009834
62	0x3fcdd53c	1.6080699
63	0x3dd4a7d5	0.10383574
64	0xbe389419	-0.18025245
65	0x3fca5a49	1.5808803
66	0x3dd2b160	0.10287738
67	0xbed61027	-0.41809198
68	0x3db1ab56	0.08675258
69	0x3e8e5a56	0.27803296
70	0xbe61db9e	-0.22056434
71	0x3d81367d	0.06309221
72	0x3ee94283	0.45558557
73	0xbcbacd95	-0.022803107
74	0x3f0161b0	0.50539684
75	0xbc0805a6	-0.008302128
76	0xbe4c8a40	-0.19974613
77	0x3f0bacdd	0.54560643
78	0x3f51a62d	0.8189419
79	0xbf18aa0b	-0.59634465
80	0x3f277ec3	0.654278
81	0xbf0e4e59	-0.555883
82	0xbe220e3e	-0.15825745
83	0xbc59b7f3	-0.013288486
84	0x3f23852b	0.63875073
85	0x3e05bc56	0.13060126
86	0x3fe4c1b9	1.787162
87	0x3d450b7e	0.048106663
88	0xbdc78d7d	-0.097437836
89	0x3fe31d03	1.7743229
90	0x3f41c9ea	0.7569872
91	0xbf7b829c	-0.9824617
92	0x3d613eab	0.054991405
93	0xbf670c92	-0.90253556
94	0xbcdeed7c	-0.02721285
95	0x3e6ca179	0.23108472
96	0x3e23466a	0.1594483
97	0xbe83bd6a	-0.2573045
98	0x3f76f4d4	0.9646733
99	0xbca18b9c	-0.019719891
100	0xbe2c1c25	-0.16807611
101	0x3f867a6a	1.0506108
102	0xbf6e6961	-0.93129545
103	0xbf3216af	-0.6956586
104	0xbe7471f8	-0.238716
105	0xbe9a95bf	-0.30192372
106	0x3d547abb	0.051874857
107	0x3db56f4e	0.0885912
108	0xbf086dbd	-0.5329245
109	0x3f5fc381	0.8740769
110	0xbe8d1b63	-0.27559957
111	0x3dfd094a	0.123552874
112	0xbd9b3ee2	-0.07580353
113	0xbe2e908c	-0.17047328
114	0xbe0f5525	-0.13997324
115	0x3f79ab54	0.9752705
116	0xbf3e0fba	-0.74242747
117	0x3ea7f1fe	0.32801813
118	0x3cc19f78	0.023635611
119	0x3dce00b0	0.10058725
120	0x3f2dcfbc	0.678951
121	0x3e9f0d4e	0.31064838
122	0x3cb817ea	0.02247234
123	0x3da3dbbc	0.080008954
124	0x3d97edd2	0.074184075
125	0xbdc75281	-0.09732533
126	0xbe574553	-0.21022539
127	0x3ed0525a	0.4068783
128	0x3e530aa9	0.20609535
129	0x3ea40737	0.32036754
130	0x3e11f0ea	0.14252058
131	0x3cb9be7f	0.022673843
132	0xbe9a8457	-0.30179092
133	0x3f903b8f	1.1268176
134	0xbf621ac3	-0.88322085
135	0xbe04c551	-0.12965895
136	0x3d39fab0	0.04540509
137	0xbf8ecad6	-1.1155651
138	0xbf299832	-0.66247857
139	0x3de1ef7c	0.11032006
140	0xbf232757	-0.637319
141	0x3ef85603	0.48503122
142	0x3e86e163	0.2634383
143	0xbe17e512	-0.14833477
144	0x3ebb8731	0.3662658
145	0xbe4794be	-0.19490334
146	0x3f57dc4b	0.84320515
147	0xbd44cb71	-0.04804558
148	0x3d5eda17	0.054407205
149	0x3f9dc5c2	1.2325976
150	0xbeb6bfef	-0.3569331
151	0x3f28f46f	0.65997976
152	0xbebe8b75	-0.37215772
153	0x3f59c732	0.8506957
154	0x3d2396ee	0.03993886
155	0xbe02f84d	-0.12790032
156	0xbeac7fc4	-0.33691227
157	0x3deb3240	0.11484194
158	0xbf40ce21	-0.7531453
159	0xbe3f670d	-0.18691655
160	0xbe729d68	-0.23692858
161	0xbf266c5a	-0.6500908
162	0xbe40e958	-0.18839014
163	0x3dfe084c	0.12403926
164	0xbecf8df9	-0.40538004
165	0x3e8d7380	0.27627182
166	0xbe6f514a	-0.23370853
167	0x3df009b7	0.11720603
168	0xbd99d926	-0.07512121
169	0xbf69f52e	-0.9138974
170	0x3fa83584	1.3141332
171	0xbcf3de8b	-0.029769203
172	0x3d27f6bf	0.0410068
173	0x3f806a6f	1.0032481
174	0xbef5b204	-0.47987378
175	0xbf959135	-1.1684939
176	0xbe3497c2	-0.17636016
177	0xbf63ec87	-0.8903279
178	0xbe69d73b	-0.2283601
179	0x3e5e6b0a	0.2172052
180	0xbf42b3b5	-0.7605546
181	0xbf864ae8	-1.049161
182	0xbf3cdb91	-0.7377253
183	0xbe24dc1f	-0.16099595
184	0x3d217278	0.039415807
185	0xbf4b10c6	-0.7932247
186	0xbf338bbf	-0.7013511
187	0x3f187ef1	0.595687
188	0xbf278b10	-0.6544657
189	0x3dc14401	0.09436799
190	0x3d97c144	0.07409909
191	0xbd10d1e6	-0.035356425
192	0x3f24cc36	0.643741
193	0xbce10c77	-0.027471764
194	0xbf085108	-0.53248644
195	0xbd8cc016	-0.06872575
196	0x3d14b3d7	0.03630432
197	0xbe6fdd05	-0.23424156
198	0xbedd5d88	-0.4323542
199	0x3ed97ebb	0.424795
200	0xbdbae5e3	-0.09125879
201	0xbd2b42cd	-0.041811753
202	0x3dd2d9d0	0.10295451
203	0xbc6e82b0	-0.0145575255
204	0xbfa539e7	-1.2908295
205	0xbf8eeb61	-1.1165582
206	0xbf2b9935	-0.6703065
207	0x3dd589e4	0.10426691
208	0x3c961466	0.018320274
209	0xbed2cd8a	-0.4117244
210	0xbeb552ae	-0.35414642
211	0x3defbae3	0.11705568
212	0xbdb73b6e	-0.08946882
213	0xbe4690ce	-0.19391176
214	0x3db637a5	0.08897332
215	0x3e8dd769	0.27703407
216	0x3fbf50f5	1.4946581
217	0xbce10f46	-0.027473103
218	0xbd7c9aa9	-0.061670933
219	0xbe0fa0e7	-0.14026223
220	0xbe1eb719	-0.15499534
221	0xbd89a7da	-0.06721468
222	0x3eaa1126	0.33216208
223	0xbf3ec3a7	-0.7451729
224	0x3edcbbce	0.43112034
225	0xbf89885c	-1.0744739
226	0x3e871da5	0.26389804
227	0xbe81b3bf	-0.25332448
228	0x3ef66fe9	0.48132256
229	0x3f498afd	0.78727704
230	0x3d55c9b0	0.052194297
231	0xbd00da95	-0.031458456
232	0x3d3d1faf	0.046172794
233	0x3e4df895	0.20114358
234	0x3ed0bad2	0.40767533
235	0x3f1d1517	0.61360306
236	0xbee86b34	-0.4539429
237	0x3f63c725	0.88975745
238	0xbe8cc3cd	-0.27493134
239	0xbe8e1191	-0.27747777
240	0x3f91b8f1	1.1384565
241	0xbe84fc1f	-0.25973603
242	0x3f6b5462	0.9192563
243	0xbcbd64ed	-0.023119414
244	0x3de96d72	0.11397828
245	0x3f20baea	0.6278521
246	0x3fb54f5d	1.4164845
247	0xbf964881	-1.1740876
248	0x3f820fa5	1.0161024
249	0xbf3fead6	-0.74967706
250	0xbdfbb69f	-0.122906916
251	0xbe3b58d9	-0.18295611
252	0xbf416c09	-0.75555474
253	0x3d58d24a	0.052934922
254	0x3ec42896	0.38312215
255	0x3ea18fdd	0.3155507

fc1.bias f4 [128]
0	0x3ea1f84d	0.3163475
1	0xbf1375c1	-0.57601553
2	0x3c679b8b	0.014136205
3	0xbea9956b	-0.3312181
4	0xbf3fa996	-0.7486814
5	0x3fac5a40	1.3465042
6	0x3f45e41c	0.7730119
7	0x3fd26711	1.6437703
8	0x3fb29cf7	1.3954152
9	0xbef11b12	-0.47090966
10	0x3d91b35c	0.07114288
11	0xbf8a8354	-1.0821328
12	0x3f8da852	1.1066992
13	0xbf3c6197	-0.7358641
14	0x3f8ffdd1	1.1249334
15	0xbf276ba1	-0.65398604
16	0xbef34cd4	-0.47519553
17	0xbee2ee3d	-0.44322386
18	0xbd853eb8	-0.06506103
19	0x3d73d83e	0.059532396
20	0x3f2a1ac9	0.6644712
21	0x3f2ea30a	0.6821753
22	0xbf53ee5e	-0.82785594
23	0xbf1ce625	-0.6128867
24	0xbf401a5b	-0.75040215
25	0x3fc276bf	1.5192488
26	0xbe282a01	-0.16422273
27	0xbf999df6	-1.2001331
28	0xbfaa6cdc	-1.3314471
29	0xbf137c72	-0.57611763
30	0x3f6c18fb	0.9222562
31	0x4005c073	2.0898712
32	0x3d9896c9	0.07450635
33	0x3d989410	0.07450116
34	0xbf95e0fc	-1.1709285
35	0x3ebf92ae	0.37416595
36	0xbec0cbee	-0.37655586
37	0xbf79dc6a	-0.9760195
38	0xbf4a8667	-0.7911133
39	0x3f02c1a2	0.5107671
40	0xbf7e4c0d	-0.99334794
41	0xbe9904e0	-0.29886532
42	0xbf3a0b1e	-0.72673213
43	0xbf47abd6	-0.77996576
44	0xbf455527	-0.7708306
45	0xbee3c0a7	-0.4448292
46	0xbf91a7b4	-1.1379304
47	0x3c3f174c	0.011663269
48	0xbf392c13	-0.72332877
49	0xbf4b5299	-0.7942291
50	0x3e8f8584	0.28031552
51	0x3e9cd277	0.30629322
52	0xbf9b37c1	-1.212639
53	0x3f8aa320	1.0831032
54	0xbf6c8b56	-0.9240011
55	0xbee657d5	-0.44988886
56	0xbf396891	-0.7242518
57	0xbf51fb02	-0.8202363
58	0xbe9dae51	-0.30797055
59	0x3f4ad10f	0.7922525
60	0xbd4c07d8	-0.049812168
61	0xbd4c152c	-0.04982488
62	0x3e2f4966	0.17117843
63	0xbeb56064	-0.35425103
64	0xbe2d7d3a	-0.16942301
65	0x3f226682	0.63437665
66	0xbf95607a	-1.1670067
67	0xbf8b6f5f	-1.0893363
68	0x3faf5a59	1.3699447
69	0x3f9eaf49	1.2397243
70	0xbec067e6	-0.37579268
71	0x3f6ddca7	0.92914814
72	0x3fcc18ae	1.5945032
73	0xbf832272	-1.0244887
74	0xbf8b7bfb	-1.0897211
75	0xbf719f6f	-0.943839
76	0xbe986a23	-0.29768476
77	0xbf123b26	-0.57121503
78	0x3f0cee73	0.55051345
79	0xbf000784	-0.5001147
80	0xbf6b00dd	-0.9179819
81	0xbe059558	-0.13045251
82	0xbfe0cc0b	-1.7562269
83	0xbebc5a37	-0.36787578
84	0xbfa7aad1	-1.3099004
85	0xbf639e77	-0.88913673
86	0xbc97f540	-0.018549562
87	0xbf13f263	-0.5779173
88	0xbee7de79	-0.4528692
89	0x3f520968	0.820456
90	0x3e533b6c	0.20628136
91	0xbf9b4c00	-1.2132568
92	0x3ed03a41	0.40669444
93	0xbfab9868	-1.3405886
94	0x3e70d67c	0.2351932
95	0x3df5c5d3	0.120006226
96	0xbd8e750b	-0.06955918
97	0xbf4d1ca2	-0.80121815
98	0x3fce50f4	1.6118455
99	0xbf5bc435	-0.85846263
100	0xbe1b6980	-0.15176964
101	0xbf1d291b	-0.61390847
102	0x3e71377c	0.23556322
103	0x3ec76755	0.38946024
104	0xbe9b10b1	-0.30286172
105	0xbfb37003	-1.4018558
106	0xbf1694b0	-0.5882063
107	0xbf0dabde	-0.55340374
108	0xbee5bda7	-0.44871256
109	0xbf474466	-0.7783874
110	0x3f0d0a24	0.550936
111	0xbfb5937d	-1.4185635
112	0x3f3f3d0e	0.7470254
113	0xbf9303c0	-1.148552
114	0xbf0b352f	-0.54378027
115	0xbf13c353	-0.57719916
116	0xbf12060a	-0.57040465
117	0xbf87412a	-1.0566761
118	0x3f237419	0.63849026
119	0x3f03f93c	0.51552176
120	0xbe913d75	-0.283672
121	0xbeb766e1	-0.35820678
122	0x3ec7fdd4	0.39060843
123	0xbde8f11a	-0.113741115
124	0x3e63822e	0.22217628
125	0xbec118f2	-0.37714344
126	0x3ec88917	0.3916709
127	0xbeba37b4	-0.36370623

fc2.weight f4 [128, 128]
0	0x3d53eb2c	0.05173795
1	0xbe313994	-0.1730712
2	0xbe878453	-0.26468143
3	0xbefcd0dc	-0.49378097
4	0xbcdc9a0a	-0.02692892
5	0xbd0a621c	-0.03378497
6	0xbe2bde07	-0.16783915
7	0xbe0d1c67	-0.13780366
8	0xbe491683	-0.19637494
9	0x3e20354a	0.15645328
10	0xbe87c1c1	-0.2651501
11	0xbe9a5096	-0.30139607
12	0x3ca81f2b	0.020522675
13	0xbd163e36	-0.036680423
14	0xbd4bb76d	-0.049735475
15	0xbef2e77a	-0.47442228
16	0xbe74eba1	-0.2391801
17	0xbe8cfb39	-0.27535418
18	0xbee88b39	-0.45418718
19	0x3e393fc8	0.18090737
20	0xbe9f19fb	-0.3107451
21	0x3c43cf3d	0.011951265
22	0xbec94797	-0.3931243
23	0xbe4fd586	-0.20296296
24	0xbe0a2f79	-0.13494672
25	0xbeb56bca	-0.354338
26	0xbcd80995	-0.026371757
27	0xbe29d5f4	-0.16585523
28	0x3c464126	0.012100494
29	0xbe63fdf1	-0.2226484
30	0xbf0f4c47	-0.55975765
31	0x3c39d7f0	0.011342987
32	0xbe07232f	-0.13197015
33	0xbe84eced	-0.2596201
34	0x3d463498	0.04839
35	0xbe0fcfa7	-0.14044057
36	0xbe7026e4	-0.23452336
37	0xbf04bce3	-0.5185072
38	0xbcfe359f	-0.031031428
39	0xbe9d1c51	-0.30685666
40	0xbec53e81	-0.3852425
41	0x3dd28c8a	0.10280712
42	0xbdd6a188	-0.104800284
43	0x3be87dbf	0.007095068
44	0xbe60f2d9	-0.21967639
45	0xbe9a6cb9	-0.30161074
46	0xbed199d1	-0.40937665
47	0xbe45842a	-0.19288698
48	0xbdd9e062	-0.10638501
49	0xbec60e9e	-0.38683027
50	0x3d5b2ca2	0.053509362
51	0x3d8fb0b3	0.070161246
52	0xbdc3c1cd	-0.09558449
53	0xbede868c	-0.43462026
54	0xbddf24ca	-0.10895689
55	0xbecb994f	-0.39765403
56	0x3e445df7	0.1917647
57	0xbde8a3c6	-0.11359362
58	0x3e8e7e86	0.27830905
59	0xbe314f13	-0.1731532
60	0xbd7a7900	-0.06115055
61	0xbeb4a973	-0.3528553
62	0x3e55079a	0.20803681
63	0xbe1b4c15	-0.15165742
64	0xbd6a5bed	-0.057216574
65	0xbf35ee30	-0.7106657
66	0xbdd68179	-0.10473914
67	0xbf25a4e6	-0.6470474
68	0xbecc79f2	-0.39936787
69	0xbe82788d	-0.25482598
70	0x3ddfe4a2	0.1093228
71	0x3e0cb24f	0.13739894
72	0xbe277326	-0.1635252
73	0xbe8e92da	-0.27846414
74	0xbd6ed90f	-0.058312472
75	0xbea2eb4b	-0.3182014
76	0xbb8ea0b6	-0.0043526543
77	0x3bc02bbd	0.005864589
78	0xbd3d0a71	-0.046152536
79	0xbeb7d8b2	-0.35907513
80	0xbefaf026	-0.49011344
81	0x3dc87f21	0.09789873
82	0xbe78dbbd	-0.24302574
83	0xbeed490a	-0.46344787
84	0xbf1896e1	-0.5960522
85	0xbc89a9b3	-0.016804552
86	0xbe381d41	-0.1797991
87	0x3ea3a735	0.31963506
88	0xbf06e3c1	-0.52691275
89	0xbe977b47	-0.2958624
90	0xbecea8fc	-0.403633
91	0xbee6aa2d	-0.4505171
92	0xbd9a0ab4	-0.07521573
93	0xbe702fe5	-0.2345577
94	0xbe847c0f	-0.258759
95	0xbec2a10d	-0.38013497
96	0x3d62e357	0.05539259
97	0xbee92726	-0.4553768
98	0xbc6ff296	-0.014645239
99	0xbe21f4c2	-0.15816024
100	0xbe1f1c8a	-0.1553823
101	0xbf36da62	-0.71426976
102	0xbdd36d2d	-0.10323558
103	0xbe156f2a	-0.14593187
104	0xbe26f307	-0.16303645
105	0xbf48e64e	-0.7847642
106	0xbead5161	-0.3385115
107	0xbf03efa9	-0.5153757
108	0xbc9bdee7	-0.019027187
109	0xbe76a27e	-0.24085423
110	0xbd588f2b	-0.05287091
111	0x3dcf097b	0.1010923
112	0xbe43d6bd	-0.19124885
113	0xbe6278ea	-0.22116438
114	0xbd669d34	-0.056302264
115	0x3e130d09	0.14360441
116	0x3dbbd197	0.091708355
117	0xbf2707e9	-0.65246445
118	0xbefe8e64	-0.4971801
119	0xbec4f964	-0.3847152
120	0xbead8cf6	-0.33896607
121	0xbebc48bf	-0.3677425
122	0xbec85b1a	-0.39132005
123	0xbea778b4	-0.32709277
124	0xbeaf5efd	-0.34252158
125	0xbea0a739	-0.3137758
126	0xbe55c3ea	-0.20875517
127	0xbe94a1b9	-0.29029635
128	0xbe6f45f9	-0.23366536
129	0xbed819ab	-0.42207083
130	0xbe90113c	-0.2813815
131	0xbd2cd3b5	-0.042194087
132	0xbe0b0f9a	-0.1358017
133	0x3e6a688f	0.22891448
134	0x3dbf9c87	0.09356027
135	0x3c2f750e	0.01070906
136	0x3e25a317	0.16175495
137	0xbebe8551	-0.37211087
138	0x3e128b90	0.14311051
139	0xbe4c3610	-0.19942498
140	0x3e4781d4	0.19483119
141	0x3c954c46	0.018224847
142	0x3cc78389	0.024354713
143	0xbe86c7cb	-0.26324305
144	0xbecaee1d	-0.3963479
145	0xbe22ac8c	-0.15886134
146	0xbecb8f27	-0.39757654
147	0x3d3e383c	0.046440348
148	0x3e70bbfa	0.23509207
149	0xbe2fbcaf	-0.17161821
150	0xbe9edc06	-0.3102724
151	0xbf046faa	-0.51732886
152	0xbecfed91	-0.40610936
153	0x3cfb3abd	0.030667657
154	0x3cd10f27	0.02551992
155	0xbe42cf1c	-0.19024318
156	0x3d485bd9	0.048915718
157	0xbe5ecd52	-0.21758011
158	0xbdef709c	-0.116914004
159	0x3f17b5ba	0.5926167
160	0x3d8b60f0	0.06805599
161	0xbe5c33b3	-0.21504097
162	0xbe7750f1	-0.2415197
163	0xbd927d84	-0.071528465
164	0xbe79bb4f	-0.24387859
165	0xbe724ea1	-0.23662807
166	0x3e14e1d4	0.14539272
167	0xbcc7dc09	-0.024396913
168	0xbe7ce6a6	-0.2469736
169	0xbf0aa4e6	-0.54157865
170	0xb9da59bd	-0.0004164706
171	0xbe1c4576	-0.15260872
172	0xbda087d1	-0.07838405
173	0xbe4c0918	-0.19925344
174	0xbd4b815f	-0.049683925
175	0xbe1f8cb1	-0.15581013
176	0xbe067c10	-0.13133264
177	0xbe9af53f	-0.30265233
178	0xbe84df16	-0.2595145
179	0x3e1a714a	0.15082279
180	0xbe82fb98	-0.25582576
181	0x3e8ee4a1	0.27908805
182	0xbe03c4db	-0.12868063
183	0xbb4c9ee7	-0.0031222643
184	0xbf13bea2	-0.5771276
185	0xbdecaa4f	-0.11555921
186	0xbec47ad1	-0.3837495
187	0x3e1d48ca	0.15359798
188	0xbe8896a0	-0.26677418
189	0xbe9a38c3	-0.3012143
190	0xbeb29006	-0.34875506
191	0xbe5297fa	-0.20565787
192	0xbdeaec8b	-0.11470898
193	0x3d83a343	0.06427624
194	0xbf1c8955	-0.6114705
195	0xbd6935b7	-0.056935992
196	0xbe3ea213	-0.18616514
197	0xbe59a7a0	-0.2125535
198	0xbed316dd	-0.4122838
199	0xbef285eb	-0.47367796
200	0xbdf139a8	-0.11778575
201	0xbe71b6eb	-0.23604934
202	0xbdd35544	-0.103189975
203	0x3c93939d	0.018014723
204	0xbf0a3f67	-0.54002994
205	0xbb5a4653	-0.0033306077
206	0x3d443999	0.047906492
207	0xbe827a52	-0.25483948
208	0xbe83fd36	-0.25779122
209	0xbef17255	-0.4715754
210	0xbf28e9bb	-0.65981644
211	0xbe89e907	-0.26935598
212	0xbdfc2874	-0.12312403
213	0xbed1f283	-0.41005334
214	0x3a268c16	0.0006353272
215	0xbe9feb1a	-0.31234056
216	0xbe238250	-0.15967679
217	0xbddebd6a	-0.108759716
218	0x3d159f47	0.03652885
219	0xbc5c639d	-0.013451484
220	0x3c958001	0.018249514
221	0xbcb13a15	-0.021634141
222	0xbe419af7	-0.1890677
223	0xbd435e7c	-0.04769753
224	0xbea344e9	-0.31888512
225	0xbef5a22d	-0.47975293
226	0x3e8b01c1	0.27149776
227	0xbe2a2819	-0.16616859
228	0xbe9ba351	-0.30398038
229	0x3e0867f2	0.13320902
230	0xbcbffee1	-0.023436965
231	0x3d98eff6	0.07467644
232	0xbec74f88	-0.38927865
233	0xbe19ad7a	-0.15007582
234	0xbdfba168	-0.12286645
235	0xbe370ec5	-0.17876728
236	0xbe064bc0	-0.13114834
237	0xbedaadf3	-0.42710838
238	0x3ce27691	0.027644427
239	0xbf0fadc2	-0.5612451
240	0xbe0e8cc7	-0.1392089
241	0xbe901150	-0.28138208
242	0xbec08a2f	-0.37605426
243	0xbe56b84c	-0.20968741
244	0xbeb14ede	-0.34630483
245	0xbebc0e22	-0.36729532
246	0xbd6cfbb3	-0.057857227
247	0xbee6b672	-0.4506107
248	0xbda1e9f5	-0.07905952
249	0x3cf76ab5	0.030202249
250	0xbd8ab264	-0.067723066
251	0xbea0df2e	-0.31420273
252	0x3e8b8031	0.2724624
253	0xbe8bb5bf	-0.272871
254	0xbc37ce5b	-0.011218633
255	0xbeb6a15e	-0.35669988

fc2.bias f4 [128]
0	0xbdec62e4	-0.115422994
1	0x3f3c7309	0.7361303
2	0x3f00cae4	0.50309587
3	0xbef5009e	-0.47852033
4	0xbf169b44	-0.58830667
5	0x3d1088ce	0.035286717
6	0xbdbb0b3c	-0.09133002
7	0xbd81ffaf	-0.06347596
8	0xbdfdcf24	-0.123930246
9	0xbd93d7ba	-0.07218881
10	0xbe6e27aa	-0.23257318
11	0xbdb81207	-0.089878134
12	0xbe5d9916	-0.21640429
13	0x3ad4684e	0.0016205402
14	0x3f3ce783	0.7379076
15	0x3d65f29d	0.056139577
16	0xbd499e56	-0.049223267
17	0x3d672ffe	0.056442253
18	0xbee626bc	-0.44951427
19	0x3e04576f	0.12923978
20	0xbf200c21	-0.6251851
21	0xbeaab421	-0.33340552
22	0xbef60041	-0.4804707
23	0xbe3319d1	-0.17490317
24	0x3da84b9b	0.082175456
25	0x3d47eecc	0.04881172
26	0xbef2ce8f	-0.47423217
27	0xbe986b17	-0.29769203
28	0xbe011ffd	-0.12609859
29	0x3ca2d295	0.019875804
30	0xbe79890a	-0.24368683
31	0xbe7c3ca9	-0.24632515
32	0x3e8315c5	0.25602546
33	0xbe960f19	-0.29308394
34	0x3d6c37d2	0.057670422
35	0x3ee1e0bd	0.44116774
36	0x3e797f73	0.24365024
37	0xbe4655b4	-0.1936863
38	0xbe117e14	-0.14208251
39	0xbf172084	-0.5903399
40	0xbe7e246e	-0.24818584
41	0xbec4c8b6	-0.3843438
42	0x3f0c42d0	0.5478945
43	0x3ede2dec	0.4339441
44	0xbdad55bb	-0.084636174
45	0xbda62272	-0.08112039
46	0x3eeb2af9	0.45931223
47	0xbe9e7dcb	-0.30955347
48	0x3c1a5c2e	0.009421391
49	0xbf08dbbf	-0.53460306
50	0x3f81205b	1.0087999
51	0xbcf8ce39	-0.030371772
52	0xbe5ba059	-0.21447887
53	0x3ef0665f	0.46953103
54	0x3fa3e676	1.2804706
55	0xbc412c75	-0.011790385
56	0x3d0352bd	0.032061327
57	0xbd44a970	-0.04801315
58	0xbe85fcaf	-0.26169345
59	0xbdc12199	-0.09430236
60	0x3c1ee949	0.009699174
61	0x3dfa96e6	0.12235813
62	0x3da64e4c	0.08120403
63	0xbf169795	-0.58825046
64	0xbb622cce	-0.003451157
65	0xbf3016f0	-0.68785
66	0x3d2567b6	0.04038211
67	0xbbe53775	-0.0069951364
68	0x3cae1809	0.021251695
69	0x3ef67164	0.48133385
70	0xbf2572ab	-0.64628094
71	0xbea12927	-0.3147671
72	0x3e9adb37	0.30245373
73	0xbe4efb7d	-0.20213123
74	0x3f647f19	0.89256436
75	0xbf221c70	-0.6332464
76	0xbe1a5712	-0.15072277
77	0xbdf8e648	-0.12153298
78	0xbdbb9e5e	-0.091610655
79	0xbdc09eed	-0.09405313
80	0x3ea502a5	0.3222858
81	0x3ed154bf	0.4088497
82	0xbe4fd1e2	-0.20294908
83	0xbe310b7a	-0.17289534
84	0xbe645df3	-0.22301464
85	0xbe78f2bd	-0.24311347
86	0xbe818d49	-0.25303105
87	0x3b0a01e2	0.002105825
88	0xbd302ab8	-0.04300949
89	0x3dc09fb8	0.09405464
90	0x3f38fc74	0.7226021
91	0xbfc735d0	-1.5563297
92	0xbeec4110	-0.4614339
93	0x3da435bc	0.080180615
94	0xbe852630	-0.26005697
95	0x3ef1b43e	0.47207826
96	0xbea658eb	-0.32489714
97	0xbed0e323	-0.40798292
98	0x3d9ae2d1	0.07562793
99	0xbe09f2eb	-0.13471572
100	0x3e5c1788	0.21493351
101	0x3c7fe44d	0.015618396
102	0xbdea13f4	-0.11429587
103	0x3e7cad74	0.24675542
104	0xbdf42f84	-0.119231254
105	0xbeffd03a	-0.49963552
106	0xbe43f28f	-0.19135498
107	0xbe9bf933	-0.3046356
108	0xbd6137b8	-0.05498478
109	0x3e6130cd	0.21991272
110	0x3c893d9a	0.016753007
111	0x3e50d016	0.20391878
112	0x3f2afc2f	0.6679105
113	0x3d6b28bd	0.057411898
114	0xbef81c52	-0.48459107
115	0xbd9e96af	-0.07743584
116	0xbe64576f	-0.22298978
117	0x3e0a9b26	0.13535747
118	0x3ef9c8cc	0.48786008
119	0xbec74dfb	-0.38926682
120	0x3d66f3f2	0.056384988
121	0x3df5ce01	0.12002183
122	0xbe1631a0	-0.14667368
123	0x3ef21963	0.47284994
124	0x3d814750	0.0631243
125	0x3ef8e389	0.48611096
126	0x3f163b9f	0.58684725
127	0x3ee83dcf	0.45359656

out.weight f4 [2, 128]
0	0xbe2426f7	-0.16030489
1	0x3f1aed9a	0.605188
2	0x3ee742e6	0.45168227
3	0xbd0ca223	-0.034334313
4	0xbe72f7c0	-0.23727322
5	0xbddfa6b3	-0.10920467
6	0x3c82ea80	0.015980959
7	0xbc9d7bad	-0.019224012
8	0xbde3bfd3	-0.11120572
9	0x3d3e3085	0.04643299
10	0xbce91aea	-0.028455216
11	0xbd00b27f	-0.031420227
12	0x3c8c6215	0.017136613
13	0xbe6332d8	-0.22187364
14	0x3b773407	0.003772022
15	0xbd3760ea	-0.04477016
16	0x3c450c6f	0.01202689
17	0xbd82f7ec	-0.063949436
18	0x3d099f4a	0.033599176
19	0xbd651826	-0.055931233
20	0xbe83227a	-0.2561224
21	0x3d8653e2	0.06558968
22	0xbe1515e1	-0.14559127
23	0xbd99eaa2	-0.07515456
24	0x3e4c6577	0.19960581
25	0x3db93c39	0.0904469
26	0x3d7e2d94	0.062055185
27	0xbd0ab91c	-0.03386794
28	0x3c1af938	0.009458832
29	0x3c539dd5	0.012916048
30	0x3d781186	0.060563587
31	0xbe71d514	-0.23616439
32	0xbe60d3d7	-0.2195581
33	0xbcaf3f80	-0.021392584
34	0xbdf95099	-0.12173576
35	0xbd5f2211	-0.054475848
36	0x3ddd787b	0.108139955
37	0x3ba9fcbe	0.0051876
38	0xbc80ffa3	-0.015746897
39	0x3e02e9bb	0.12784474
40	0x3d31f383	0.04344512
41	0xbdaf206c	-0.08551106
42	0xbf19c8d4	-0.60072064
43	0xbd938b6e	-0.072043285
44	0x3dbf98b6	0.09355299
45	0x3ca4f1cf	0.020134835
46	0x3e961dcc	0.29319608
47	0x3f35ead0	0.7106142
48	0xbdc5ce01	-0.09658433
49	0x3e35cfce	0.17755052
50	0x3e7fa2ed	0.24964495
51	0x3e005ffa	0.12536612
52	0x3c010796	0.007875344
53	0xbdc95879	-0.09831328
54	0x3efe8df4	0.49717677
55	0x3d4ae9f9	0.04953954
56	0x3d4dac20	0.05021298
57	0xbba01b4d	-0.004886067
58	0xbde4894e	-0.11159001
59	0xbcab0ae9	-0.020879226
60	0xbebff342	-0.37490278
61	0x3c58c23a	0.013229901
62	0x3d2e37d7	0.04253372
63	0x3e998f27	0.2999203
64	0x3bac9dbf	0.0052678282
65	0x3e186b2c	0.14884633
66	0x3d053c6e	0.032528333
67	0x3d1dfdd6	0.038572155
68	0x3be4bba6	0.0069803772
69	0xbdb7f871	-0.08982933
70	0xbdec380e	-0.11534129
71	0xbd7b6d5a	-0.061383583
72	0xbe9950b1	-0.29944375
73	0x3d60304b	0.054733556
74	0xbe01752d	-0.12642355
75	0x3bafcd30	0.0053650364
76	0x3b95d48c	0.0045724567
77	0x3e1761af	0.14783357
78	0x3dc4a2ad	0.096013404
79	0xbcab4b14	-0.020909823
80	0xbb5b56f2	-0.0033468571
81	0x3ddd0d54	0.10793558
82	0x3d192fee	0.037399225
83	0xbe13c185	-0.1442929
84	0xbdb3f608	-0.08787161
85	0x3e883deb	0.2660974
86	0xbd9eadfa	-0.07748027
87	0x3bae98b7	0.0053282636
88	0x3cc4f319	0.0240417
89	0xbeb431a8	-0.35194135
90	0x3c983467	0.018579675
91	0xbdaac6f5	-0.08338729
92	0x3d1f0d51	0.03883106
93	0x3d3a66e1	0.04550827
94	0x3d85cfc7	0.06533771
95	0xbebf952c	-0.37418497
96	0x3e3b94a8	0.18318427
97	0xbd5f9e81	-0.05459452
98	0x3d88e2d0	0.06683886
99	0xbdda602e	-0.10662876
100	0x3d3312ea	0.04371921
101	0x3d73c591	0.059514586
102	0x3ea20bcc	0.31649625
103	0xbcb483a0	-0.02203542
104	0x3dad8e15	0.084743656
105	0x3e834944	0.25641835
106	0xbdf6d7a3	-0.12052848
107	0x3d3cf292	0.04612977
108	0xbdec5930	-0.11540449
109	0xbc409e18	-0.0117564425
110	0x3cb4b1e2	0.022057477
111	0x3ba52632	0.0050399536
112	0xbc8042be	-0.015656825
113	0x3df0f55a	0.11765547
114	0x3d39932b	0.045306366
115	0x3d26f7e2	0.040763743
116	0xbdb45b20	-0.08806443
117	0x3eb2bfba	0.349119
118	0xbbe82f36	-0.007085706
119	0xbe1d7b5e	-0.15379092
120	0xbd16e441	-0.036838774
121	0x3e098140	0.13428211
122	0x3d83ece2	0.06441666
123	0x3f02ceaa	0.51096594
124	0x3caf40c7	0.021393193
125	0x3f5df7e4	0.86706376
126	0x3e8877b4	0.26653826
127	0xbdbc1bec	-0.09185013
128	0xbe970e86	-0.29503268
129	0xbb6faa6d	-0.0036570088
130	0xbbca2fe2	-0.006170259
131	0xbd72f65a	-0.05931697
132	0x3da4c21b	0.08044835
133	0xbde5a881	-0.1121378
134	0x3de78121	0.11303926
135	0x3cbea732	0.023273084
136	0x3e37205f	0.17883442
137	0xbd5e9d8c	-0.054349467
138	0x3e25afee	0.16180393
139	0x3c1afe28	0.00946001
140	0x3c67a04e	0.014137341
141	0x3df17efb	0.11791798
142	0xbf6dfba7	-0.92962116
143	0xbc9e23bc	-0.019304149
144	0x3ce3bd28	0.027800158
145	0x3b87dca2	0.0041461745
146	0xbe071f7f	-0.13195609
147	0xbf19ebc7	-0.6012539
148	0x3ee498ad	0.44647732
149	0xbc8c0b2e	-0.017095175
150	0xbe30d9a5	-0.17270525
151	0x3e119d24	0.142201
152	0x3e27b63d	0.16378112
153	0x3c244e73	0.010028469
154	0x3da69979	0.08134741
155	0xbd86cf16	-0.06582467
156	0x3cd120e3	0.025528377
157	0x3cdd530a	0.027017135
158	0x3d628ea8	0.05531183
159	0xbc8b83c7	-0.01703061
160	0x3e9a57b0	0.30145025
161	0xbd538238	-0.05163786
162	0x3eb3bfc3	0.3510724
163	0xbe663d92	-0.22484425
164	0x3bf43b6d	0.007453373
165	0xbd814750	-0.0631243
166	0xbcfd6eec	-0.03093668
167	0xbd4a995b	-0.049462657
168	0xbd2a697b	-0.0416045
169	0x3d160c7e	0.036633007
170	0x3e520d45	0.20512874
171	0x3c7b1ba9	0.015326419
172	0x3e27db3c	0.16392225
173	0xbc6b94c8	-0.014378734
174	0x3eb60b54	0.35555518
175	0xbef0ac36	-0.47006387
176	0xbe17cc3c	-0.14824003
177	0x3e00bbd5	0.12571652
178	0x3f4b5331	0.79423815
179	0xbcebe569	-0.028795915
180	0xbe11e738	-0.14248359
181	0x3e69cf66	0.22833022
182	0x3ea5b9c9	0.32368305
183	0xbd820e54	-0.06350389
184	0x3dad39af	0.08458268
185	0xbdf80d03	-0.12111857
186	0xbe8c94d0	-0.27457285
187	0xba2131ed	-0.0006149102
188	0x3e3628ec	0.17789048
189	0xbe0b9ae9	-0.13633312
190	0x3eb70ff9	0.35754374
191	0xbdf06019	-0.11737079
192	0x3d1a8e05	0.037733097
193	0xbd9815cc	-0.074260324
194	0x3cade22b	0.02122601
195	0xbc278dd4	-0.010226686
196	0xbd270de6	-0.04078474
197	0x3eb78583	0.3584405
198	0xbe446fb0	-0.1918323
199	0x3e105b2e	0.14097282
200	0xbe7e591d	-0.24838682
201	0x3c4190c9	0.011814305
202	0x3e93372f	0.2875304
203	0xbe230687	-0.15920459
204	0x3d4d891c	0.050179586
205	0x3d0857e8	0.03328696
206	0xbb50215a	-0.003175816
207	0x3bcff432	0.006346249
208	0x3e8872c7	0.26650068
209	0xbe2d63e3	-0.16932635
210	0xbe55f8d7	-0.20895706
211	0x3e86bdf2	0.26316792
212	0xbd0f563c	-0.03499435
213	0x3c8bec33	0.017080402
214	0xbdaad4eb	-0.08341392
215	0x3d40cd46	0.047070764
216	0xbc7987ce	-0.015230132
217	0xbe478b9a	-0.19486848
218	0x3f2474ca	0.64240706
219	0xbee391b4	-0.444471
220	0xbe162037	-0.14660726
221	0xbe098c05	-0.1343232
222	0xbe2b8ce2	-0.16752961
223	0x3dd140f0	0.10217464
224	0xbc1aae2b	-0.009440939
225	0x3d70d87b	0.058800202
226	0xbe9f384e	-0.31097645
227	0x3c943b33	0.018094635
228	0x3eca92e5	0.39565197
229	0xbd4fd213	-0.05073745
230	0x3dd947cd	0.10609398
231	0x3d33ae1b	0.04386721
232	0x3d2b3107	0.041794803
233	0xbd07cb58	-0.033152908
234	0xbe6e767d	-0.23287387
235	0x3e28cca8	0.1648432
236	0xbd8e5eaa	-0.069516495
237	0xbd3e839f	-0.046512242
238	0xbc940ec6	-0.01807345
239	0x3e275589	0.16341223
240	0xbeb8664a	-0.3601554
241	0xbd9152a7	-0.07095843
242	0x3d3535ce	0.044240765
243	0xbe0b3b71	-0.13596894
244	0x3bb8b14a	0.005636369
245	0xbe7cb7af	-0.24679445
246	0xbef0db82	-0.4704247
247	0x3e22ee1c	0.15911144
248	0xbc570f56	-0.013126215
249	0x3c8c69eb	0.01714035
250	0xbed5cfc2	-0.4176007
251	0xbef52173	-0.47877082
252	0xbcc4acdb	-0.024008205
253	0xbd0ee6bb	-0.03488801
254	0x3f03e2cf	0.5151796
255	0x3d07ae42	0.03312517

out.bias f4 [2]
0	0xbf92766a	-1.1442387
1	0x3f1e6ba0	0.6188297

fc1.weight f4 [128, 12]
0	0x3dfe921a	0.124302104
1	0x3ec9ab24	0.39388382
2	0x3f29a07e	0.66260517
3	0x3e459e5a	0.19298688
4	0xbe363208	-0.17792523
5	0x3ef5dfbe	0.48022264
6	0xbea787e6	-0.3272087
7	0x3ec370db	0.3817204
8	0xbf8ba94f	-1.0911044
9	0x3ed7ccd5	0.42148462
10	0x3cb7d1cd	0.022438908
11	0x3d8a7961	0.067614324
12	0x3f940d2d	1.1566521
13	0x3f4c2a5b	0.7975213
14	0xbefa4364	-0.4887954
15	0x3ddc82c7	0.10767131
16	0x3d904e0b	0.070461355
17	0xbee4f2b7	-0.44716427
18	0x3e26ce7f	0.1628971
19	0xbf1ab9fa	-0.6044003
20	0x3f0d0126	0.5507988
21	0xbbb78672	-0.005600744
22	0xbe63e404	-0.2225495
23	0x3e8b4288	0.27199197
24	0x3f8c84c3	1.0978016
25	0xbf854944	-1.0412984
26	0xbd0e513b	-0.034745436
27	0x3dc19e05	0.09453968
28	0x3d530778	0.051520795
29	0xbea8ec15	-0.32992616
30	0x3f0008b7	0.500133
31	0x3de3402a	0.11096223
32	0x3f76541c	0.9622209
33	0x3d3caa24	0.046060696
34	0xbe5daa65	-0.21647032
35	0xbe07b032	-0.13250807
36	0xbdf55bef	-0.119804256
37	0x3f116471	0.56793886
38	0xbf03b970	-0.5145483
39	0xbcb073c6	-0.02153958
40	0x3d211e5d	0.039335597
41	0xbed9555e	-0.42447942
42	0xbf4bab30	-0.79558086
43	0xbe297f77	-0.1655253
44	0xbf25258a	-0.64510405
45	0xbe52d3a8	-0.20588553
46	0xbe053843	-0.13009743
47	0xbe83e7df	-0.2576284
48	0xbf5d0059	-0.86328655
49	0xbdc42203	-0.095768
50	0xbf81e323	-1.0147442
51	0x3ed1f4d2	0.41007096
52	0xbdf9cbbb	-0.12197062
53	0xbf0a78d9	-0.5409065
54	0xbf093d12	-0.5360881
55	0x3f947861	1.1599237
56	0xbf419780	-0.75621796
57	0x3f19d46c	0.60089755
58	0xbcf5e7bf	-0.030017732
59	0xbe33598b	-0.17514627
60	0x3e940784	0.28911984
61	0x3e94b7c7	0.2904646
62	0x3fcdb6e3	1.6071438
63	0x3dce5bc1	0.100760944
64	0xbe3be5f2	-0.18349436
65	0x3fca325e	1.5796621
66	0x3dcf6017	0.101257496
67	0xbed622df	-0.4182348
68	0x3dad085e	0.084488615
69	0x3e8e1075	0.2774693
70	0xbe61db9e	-0.22056434
71	0x3d81367d	0.06309221
72	0x3ee90f5f	0.4551954
73	0xbcb5a8f5	-0.022175292
74	0x3f0133e5	0.5046981
75	0xbc021e41	-0.007941783
76	0xbe4cbc95	-0.19993813
77	0x3f0b853e	0.54500186
78	0x3f516ae9	0.81803757
79	0xbf187fd9	-0.5957008
80	0x3f273c96	0.6532682
81	0xbf0e2256	-0.5552114
82	0xbe220e3e	-0.15825745
83	0xbc59b7f3	-0.013288486
84	0x3f231665	0.63706046
85	0x3e05cc1f	0.13066147
86	0x3fe4cc82	1.7874911
87	0x3d35e654	0.04440911
88	0xbdd02a77	-0.101643495
89	0x3fe31801	1.77417
90	0x3f415ffe	0.755371
91	0xbf7b91fb	-0.98269624
92	0x3d59356a	0.053029455
93	0xbf673a89	-0.9032369
94	0xbcdeed7c	-0.02721285
95	0x3e6ca179	0.23108472
96	0x3e237d81	0.15965845
97	0xbe836668	-0.25664067
98	0x3f76fa7d	0.96475965
99	0xbcb8c6c9	-0.022555726
100	0xbe2d3225	-0.1691366
101	0x3f866e31	1.0502378
102	0xbf6e9046	-0.93188894
103	0xbf31bcd3	-0.6942875
104	0xbe752308	-0.23939145
105	0xbe9a5239	-0.30140856
106	0x3d547abc	0.05187486
107	0x3db56f4e	0.0885912
108	0xbf08b9a8	-0.5340829
109	0x3f5fe591	0.87459666
110	0xbe8cecda	-0.27524453
111	0x3dfcc823	0.123428605
112	0xbd9c4fd3	-0.07632413
113	0xbe2e643f	-0.17030428
114	0xbe100ab4	-0.14066583
115	0x3f79aa0c	0.97525096
116	0xbf3e6299	-0.743692
117	0x3ea83235	0.32850805
118	0x3cc19f78	0.023635611
119	0x3dce00b0	0.10058725
120	0x3f2dc984	0.67885613
121	0x3e9ee8e4	0.31037056
122	0x3cb7d181	0.022438766
123	0x3da28afe	0.07936667
124	0x3d958684	0.073010474
125	0xbdc772c4	-0.09738687
126	0xbe57d098	-0.21075666
127	0x3ed01f2e	0.40648788
128	0x3e51a08b	0.20471399
129	0x3ea3e7c7	0.3201277
130	0x3e11f0ea	0.14252058
131	0x3cb9be7f	0.022673843
132	0xbe9a9a25	-0.30195728
133	0x3f900f93	1.1254753
134	0xbf622384	-0.8833544
135	0xbe036f20	-0.1283536
136	0x3d3c5f07	0.045989063
137	0xbf8ebfa7	-1.1152238
138	0xbf2976ab	-0.661967
139	0x3ddee244	0.108830005
140	0xbf22e792	-0.636346
141	0x3ef7a40f	0.48367354
142	0x3e86e163	0.2634383
143	0xbe17e512	-0.14833477
144	0x3ebba7b3	0.36651382
145	0xbe48de65	-0.19616087
146	0x3f5871bc	0.84548545
147	0xbd4f737d	-0.050647248
148	0x3d57f5eb	0.05272476
149	0x3f9e0409	1.2344981
150	0xbeb6b5c3	-0.35685548
151	0x3f290e6f	0.6603765
152	0xbebe9d34	-0.3722931
153	0x3f5a0267	0.85159916
154	0x3d2396ee	0.03993886
155	0xbe02f84d	-0.12790032
156	0xbeac96d1	-0.33708814
157	0x3deb306a	0.114838436
158	0xbf40d177	-0.7531962
159	0xbe40eb90	-0.1883986
160	0xbe731bb4	-0.23741037
161	0xbf267a7e	-0.6503066
162	0xbe40f1ef	-0.1884229
163	0x3dfe7566	0.12424736
164	0xbecfb8ed	-0.40570775
165	0x3e8d88d3	0.2764345
166	0xbe6f514a	-0.23370853
167	0x3df009b7	0.11720603
168	0xbd984f43	-0.07436993
169	0xbf69eb45	-0.9137462
170	0x3fa835bd	1.31414
171	0xbcef1707	-0.029185785
172	0x3d2c7208	0.042100936
173	0x3f806a29	1.0032398
174	0xbef560fc	-0.47925556
175	0xbf959f85	-1.1689306
176	0xbe33466c	-0.17507333
177	0xbf6434e0	-0.8914318
178	0xbe69d73b	-0.2283601
179	0x3e5e6b0a	0.2172052
180	0xbf425673	-0.7591316
181	0xbf862082	-1.0478671
182	0xbf3d2109	-0.7387853
183	0xbe225b4a	-0.15855137
184	0x3d2ae4c4	0.041722074
185	0xbf4b4cd4	-0.79414105
186	0xbf3374b3	-0.70099944
187	0x3f18ba94	0.59659696
188	0xbf277847	-0.65417904
189	0x3dc2fe41	0.09521151
190	0x3d97c144	0.07409909
191	0xbd10d1e6	-0.035356425
192	0x3f249d36	0.64302385
193	0xbcdfde21	-0.027327599
194	0xbf07d63d	-0.53061277
195	0xbd94c9b6	-0.07265036
196	0x3d064bad	0.032787014
197	0xbe6ef486	-0.23335466
198	0xbeddc805	-0.43316665
199	0x3eda3264	0.4261657
200	0xbdbdaf54	-0.09261957
201	0xbd23f341	-0.040026907
202	0x3dd2d9d0	0.10295451
203	0xbc6e82b0	-0.0145575255
204	0xbfa52c4d	-1.2904145
205	0xbf8ea81c	-1.1145053
206	0xbf2be2b3	-0.6714279
207	0x3dd564e6	0.104196355
208	0x3cb35f34	0.021895982
209	0xbed35df9	-0.41282633
210	0xbeb58dba	-0.3545969
211	0x3df24285	0.11829094
212	0xbdb8f7c8	-0.090316355
213	0xbe453bfe	-0.19261166
214	0x3db637a5	0.08897332
215	0x3e8dd769	0.27703407
216	0x3fbf11f0	1.4927349
217	0xbcf2ba17	-0.02962975
218	0xbd6b4356	-0.057437263
219	0xbe152ab2	-0.14567068
220	0xbe26ae67	-0.16277467
221	0xbd83c436	-0.06433909
222	0x3ea98371	0.33108094
223	0xbf3ef2dc	-0.74589324
224	0x3edbbe00	0.42918396
225	0xbf89c018	-1.0761747
226	0x3e871da5	0.26389804
227	0xbe81b3bf	-0.25332448
228	0x3ef5f04a	0.48034889
229	0x3f490797	0.78527206
230	0x3d4e58df	0.050377723
231	0xbd00aab3	-0.03141279
232	0x3d3dd639	0.046346877
233	0x3e4cbe79	0.19994535
234	0x3ed0130e	0.40639538
235	0x3f1cb0e2	0.612074
236	0xbee9255f	-0.45536324
237	0x3f635e94	0.8881619
238	0xbe8cc3cd	-0.27493134
239	0xbe8e1191	-0.27747777
240	0x3f91d71d	1.1393772
241	0xbe850e43	-0.25987443
242	0x3f6b899c	0.9200685
243	0xbcba1e49	-0.02271952
244	0x3deb99c6	0.11503939
245	0x3f20ee5b	0.628637
246	0x3fb55f9d	1.4169804
247	0xbf964638	-1.1740179
248	0x3f8216ec	1.0163245
249	0xbf3fde08	-0.7494817
250	0xbdfbb69f	-0.122906916
251	0xbe3b58d9	-0.18295611
252	0xbf418676	-0.75595796
253	0x3d5ac4fa	0.053410508
254	0x3ec42f17	0.38317177
255	0x3ea0e6de	0.31426138

fc1.bias f4 [128]
0	0x3ea1a073	0.31567726
1	0xbf13b792	-0.5770198
2	0x3c7a8f84	0.015293006
3	0xbea96efd	-0.3309249
4	0xbf3fb218	-0.74881124
5	0x3fac3beb	1.3455786
6	0x3f45b654	0.77231336
7	0x3fd271dd	1.6440998
8	0x3fb29fd1	1.3955022
9	0xbef0eb18	-0.47054362
10	0x3d91932a	0.071081474
11	0xbf8a87b8	-1.0822668
12	0x3f8df297	1.1089658
13	0xbf3c64f2	-0.7359153
14	0x3f8ffea7	1.1249589
15	0xbf27ac76	-0.6549753
16	0xbef2573a	-0.47332174
17	0xbee37ea5	-0.4443256
18	0xbd79261b	-0.060827356
19	0x3d6c676e	0.057715826
20	0x3f2a4e6b	0.66525906
21	0x3f2ea83d	0.6822546
22	0xbf53cf54	-0.8273823
23	0xbf1c89d5	-0.61147815
24	0xbf406443	-0.7515299
25	0x3fc29808	1.5202646
26	0xbe2ac3dc	-0.16676277
27	0xbf99dc8c	-1.202043
28	0xbfaac4b8	-1.3341284
29	0xbf13aa0e	-0.5768136
30	0x3f6c4166	0.9228729
31	0x4005cb11	2.0905192
32	0x3d9afcd1	0.07567752
33	0x3d968688	0.073498785
34	0xbf95f758	-1.1716108
35	0x3ebf875c	0.37407959
36	0xbebfbfa2	-0.37450892
37	0xbf79f37c	-0.9763715
38	0xbf4b48a5	-0.7940772
39	0x3f026398	0.5093322
40	0xbf7ed87c	-0.9954908
41	0xbe993067	-0.2991974
42	0xbf3a8ccf	-0.72871107
43	0xbf47e380	-0.7808151
44	0xbf4588b6	-0.7716173
45	0xbee2b207	-0.4427645
46	0xbf91c047	-1.1386803
47	0x3c5954c5	0.01326484
48	0xbf3950ed	-0.7238911
49	0xbf4b7253	-0.7947132
50	0x3e8fc544	0.2808019
51	0x3e9c295f	0.30500314
52	0xbf9b5abe	-1.2137067
53	0x3f8adf3a	1.0849373
54	0xbf6d18bb	-0.9261586
55	0xbee650c0	-0.44983482
56	0xbf39cd0a	-0.7257849
57	0xbf527cc3	-0.8222162
58	0xbe9e5033	-0.30920562
59	0x3f4b25b0	0.7935438
60	0xbd51e622	-0.051244862
61	0xbd43c80c	-0.0477982
62	0x3e2d5c37	0.16929708
63	0xbeb60b26	-0.3555538
64	0xbe2da30a	-0.16956726
65	0x3f225d94	0.6342404
66	0xbf95a10a	-1.168977
67	0xbf8bb0e4	-1.0913358
68	0x3faf5449	1.3697597
69	0x3f9ee07c	1.2412257
70	0xbec14fe8	-0.37756276
71	0x3f6d7990	0.92763615
72	0x3fcc1e69	1.594678
73	0xbf82b731	-1.0212156
74	0xbf8bedc0	-1.093193
75	0xbf70db36	-0.9408449
76	0xbe9874dc	-0.29776657
77	0xbf1268f3	-0.5719139
78	0x3f0d84d1	0.55280787
79	0xbefe507a	-0.49670774
80	0xbf6ac230	-0.91702557
81	0xbe06b009	-0.1315309
82	0xbfe103c6	-1.7579277
83	0xbebb618b	-0.36597857
84	0xbfa7b65e	-1.3102529
85	0xbf628ad7	-0.884931
86	0xbc9fdb3d	-0.01951372
87	0xbf143d98	-0.57906485
88	0xbee9d9ab	-0.4567388
89	0x3f5244be	0.8213614
90	0x3e552014	0.20813018
91	0xbf9b6214	-1.2139306
92	0x3ecef3ce	0.40420383
93	0xbfabd5fb	-1.3424677
94	0x3e726195	0.23670037
95	0x3df51c32	0.119682685
96	0xbd9262b7	-0.071477346
97	0xbf4cb546	-0.799641
98	0x3fce39a8	1.6111345
99	0xbf5c24d6	-0.8599371
100	0xbe1c9e67	-0.152948
101	0xbf1c6ce7	-0.6110367
102	0x3e6fd0af	0.2341945
103	0x3ec6bebc	0.38817394
104	0xbe9a5f79	-0.30150965
105	0xbfb3bb71	-1.4041578
106	0xbf169d3a	-0.5883366
107	0xbf0d5f2c	-0.55223346
108	0xbee79898	-0.45233607
109	0xbf4728ee	-0.7779683
110	0x3f0caf1d	0.549547
111	0xbfb54a8f	-1.4163378
112	0x3f3f1aa2	0.74650013
113	0xbf92c8ae	-1.1467493
114	0xbf0b27fc	-0.54357886
115	0xbf138ac5	-0.5763362
116	0xbf123c55	-0.5712331
117	0xbf873fdd	-1.0566365
118	0x3f2367d5	0.6383031
119	0x3f03af5e	0.51439464
120	0xbe9249c1	-0.28571895
121	0xbeb80f61	-0.35949233
122	0x3ec8a561	0.39188674
123	0xbde6b7b1	-0.11265505
124	0x3e631fb1	0.22180058
125	0xbec0e2ac	-0.37672937
126	0x3ec7d64b	0.3903068
127	0xbeb967ae	-0.36211914

fc2.weight f4 [128, 128]
0	0x3d53f599	0.051747892
1	0xbe313712	-0.17306164
2	0xbe878407	-0.26467916
3	0xbefccf83	-0.4937707
4	0xbcdc87aa	-0.026920158
5	0xbd0a5835	-0.033775527
6	0xbe2bdb61	-0.16782905
7	0xbe0d19a9	-0.1377932
8	0xbe4914fb	-0.1963691
9	0x3e2037dc	0.15646309
10	0xbe87c095	-0.26514116
11	0xbe9a5088	-0.30139565
12	0x3ca81f4c	0.020522736
13	0xbd163e57	-0.036680546
14	0xbd4bb7ce	-0.049735837
15	0xbef2e776	-0.47442216
16	0xbe74eb7a	-0.23917952
17	0xbe8cfb3f	-0.27535436
18	0xbee88b80	-0.4541893
19	0x3e394277	0.1809176
20	0xbe9f19ec	-0.31074464
21	0x3c43f8f1	0.011961208
22	0xbec94797	-0.3931243
23	0xbe4fd553	-0.2029622
24	0xbe0a2d71	-0.13493897
25	0xbeb56ad6	-0.35433072
26	0xbcd809b7	-0.02637182
27	0xbe29d5f9	-0.1658553
28	0x3c46648f	0.012108936
29	0xbe63fde1	-0.22264816
30	0xbf0f4c37	-0.5597567
31	0x3c39f2db	0.011349405
32	0xbe0720d5	-0.13196118
33	0xbe84ecbf	-0.25961873
34	0x3d463e18	0.04839906
35	0xbe0fcf47	-0.14043914
36	0xbe7026c6	-0.23452291
37	0xbf04bc8b	-0.51850194
38	0xbcfe2777	-0.031024678
39	0xbe9d1b81	-0.30685046
40	0xbec53e63	-0.3852416
41	0x3dd29144	0.102816135
42	0xbdd6a083	-0.10479834
43	0x3be8c2b4	0.0071032885
44	0xbe60f13a	-0.2196702
45	0xbe9a6b89	-0.30160168
46	0xbed199ac	-0.40937555
47	0xbe4581ad	-0.19287749
48	0xbdd9e06c	-0.10638508
49	0xbec60e97	-0.38683006
50	0x3d5b378d	0.053519774
51	0x3d8fb638	0.07017177
52	0xbdc3bc31	-0.09557379
53	0xbede8644	-0.43461812
54	0xbddf2478	-0.10895628
55	0xbecb99ba	-0.39765722
56	0x3e445e82	0.19176677
57	0xbde89f78	-0.11358541
58	0x3e8e7fb8	0.27831817
59	0xbe314f41	-0.17315389
60	0xbd7a7161	-0.061143283
61	0xbeb4a976	-0.35285538
62	0x3e5507cb	0.20803754
63	0xbe1b4ae9	-0.15165295
64	0xbd6a5bf5	-0.057216603
65	0xbf35ee75	-0.7106698
66	0xbdd68187	-0.10473924
67	0xbf25a550	-0.6470537
68	0xbecc79c5	-0.39936653
69	0xbe82783b	-0.25482354
70	0x3ddfe7e3	0.10932901
71	0x3e0cb4c5	0.13740833
72	0xbe277111	-0.16351725
73	0xbe8e930e	-0.2784657
74	0xbd6ed8c9	-0.05831221
75	0xbea2eb45	-0.3182012
76	0xbb8e5ca9	-0.004344542
77	0x3bc02b96	0.005864571
78	0xbd3d0a62	-0.04615248
79	0xbeb7d8b2	-0.35907513
80	0xbefaf01a	-0.49011308
81	0x3dc88445	0.097908534
82	0xbe78dc11	-0.24302699
83	0xbeed48c9	-0.46344593
84	0xbf1896bc	-0.59605
85	0xbc89a9a3	-0.016804522
86	0xbe381aa1	-0.17978908
87	0x3ea3a78c	0.31963766
88	0xbf06e37b	-0.5269086
89	0xbe977b24	-0.29586136
90	0xbecea952	-0.40363556
91	0xbee6aa40	-0.45051765
92	0xbd9a0a9c	-0.07521555
93	0xbe702fc2	-0.23455718
94	0xbe847c3e	-0.2587604
95	0xbec2a05b	-0.38012967
96	0x3d62e97f	0.05539846
97	0xbee9275c	-0.4553784
98	0xbc6fcb46	-0.0146358665
99	0xbe21f4c9	-0.15816034
100	0xbe1f1ab6	-0.15537533
101	0xbf36da66	-0.71427
102	0xbdd36881	-0.10322667
103	0xbe156cd5	-0.14592297
104	0xbe26f0b1	-0.16302754
105	0xbf48e653	-0.78476447
106	0xbead5035	-0.33850256
107	0xbf03ef3b	-0.5153691
108	0xbc9bde94	-0.019027032
109	0xbe76a28a	-0.24085441
110	0xbd58852c	-0.052861378
111	0x3dcf09ce	0.10109292
112	0xbe43d702	-0.19124988
113	0xbe627934	-0.22116548
114	0xbd66925f	-0.056291934
115	0x3e130fb5	0.1436146
116	0x3dbbd5d8	0.09171647
117	0xbf27079d	-0.6524599
118	0xbefe8d98	-0.49717402
119	0xbec4f9a2	-0.38471705
120	0xbead8d24	-0.33896744
121	0xbebc4905	-0.3677446
122	0xbec85adf	-0.3913183
123	0xbea778e4	-0.3270942
124	0xbeaf5dc6	-0.3425123
125	0xbea0a731	-0.31377557
126	0xbe55c3b0	-0.2087543
127	0xbe94a05e	-0.290286
128	0xbe6f45c5	-0.23366459
129	0xbed81958	-0.42206836
130	0xbe901118	-0.28138041
131	0xbd2cd399	-0.042193983
132	0xbe0b0f73	-0.13580112
133	0x3e6a68d8	0.22891557
134	0x3dbf9c95	0.093560375
135	0x3c2f7509	0.010709056
136	0x3e25a35c	0.16175598
137	0xbebe854a	-0.37211066
138	0x3e128bdb	0.14311163
139	0xbe4c365e	-0.19942614
140	0x3e478212	0.19483212
141	0x3c954c8b	0.018224975
142	0x3cc783a2	0.02435476
143	0xbe86c7bf	-0.2632427
144	0xbecaeddb	-0.39634594
145	0xbe22acc4	-0.15886217
146	0xbecb8f2f	-0.39757678
147	0x3d3e3855	0.04644044
148	0x3e70bc61	0.23509361
149	0xbe2fbc85	-0.17161758
150	0xbe9edc33	-0.31027374
151	0xbf046f5b	-0.51732415
152	0xbecfed8b	-0.40610918
153	0x3cfb3b19	0.030667828
154	0x3cd10f00	0.025519848
155	0xbe42cf56	-0.19024405
156	0x3d485c0a	0.0489159
157	0xbe5ecd5c	-0.21758026
158	0xbdef7059	-0.116913505
159	0x3f17b61f	0.5926227
160	0x3d8b60b3	0.06805553
161	0xbe5c33bc	-0.2150411
162	0xbe7750c2	-0.241519
163	0xbd927d68	-0.071528256
164	0xbe79bb1e	-0.24387786
165	0xbe724e56	-0.23662695
166	0x3e14e1e7	0.145393
167	0xbcc7dbeb	-0.024396857
168	0xbe7ce6d5	-0.2469743
169	0xbf0aa532	-0.5415832
170	0xb9da5984	-0.00041646895
171	0xbe1c4550	-0.15260816
172	0xbda0878d	-0.07838354
173	0xbe4c090f	-0.1992533
174	0xbd4b811f	-0.049683686
175	0xbe1f8c60	-0.15580893
176	0xbe067c5a	-0.13133374
177	0xbe9af4fc	-0.30265033
178	0xbe84df13	-0.25951442
179	0x3e1a7157	0.15082298
180	0xbe82fb7b	-0.2558249
181	0x3e8ee4b2	0.27908856
182	0xbe03c4a7	-0.12867986
183	0xbb4c9eab	-0.0031222503
184	0xbf13be80	-0.57712555
185	0xbdecaa94	-0.11555973
186	0xbec47aaf	-0.3837485
187	0x3e1d4913	0.15359907
188	0xbe8896a3	-0.26677427
189	0xbe9a38b4	-0.30121386
190	0xbeb29059	-0.34875754
191	0xbe5297f8	-0.20565784
192	0xbdeaece0	-0.114709616
193	0x3d83a372	0.06427659
194	0xbf1c8948	-0.61146975
195	0xbd69356d	-0.056935716
196	0xbe3ea1ce	-0.18616411
197	0xbe59a7c7	-0.21255408
198	0xbed316eb	-0.41228423
199	0xbef285ce	-0.4736771
200	0xbdf139c5	-0.11778597
201	0xbe71b6c6	-0.23604879
202	0xbdd35508	-0.10318953
203	0x3c9393eb	0.018014869
204	0xbf0a3f3f	-0.54002756
205	0xbb5a45fc	-0.0033305874
206	0x3d4439d6	0.04790672
207	0xbe827a92	-0.2548414
208	0xbe83fce7	-0.25778887
209	0xbef17206	-0.47157305
210	0xbf28e9a5	-0.65981513
211	0xbe89e8eb	-0.26935515
212	0xbdfc2899	-0.12312431
213	0xbed1f258	-0.41005206
214	0x3a268c2c	0.00063532847
215	0xbe9feae8	-0.31233907
216	0xbe23820d	-0.15967579
217	0xbddebdbb	-0.10876032
218	0x3d159f5b	0.036528926
219	0xbc5c6364	-0.013451431
220	0x3c95801b	0.018249562
221	0xbcb13a29	-0.021634178
222	0xbe419abf	-0.18906687
223	0xbd435eb2	-0.04769773
224	0xbea344b9	-0.3188837
225	0xbef5a1e6	-0.4797508
226	0x3e8b022a	0.2715009
227	0xbe2a2864	-0.1661697
228	0xbe9ba334	-0.30397952
229	0x3e086826	0.1332098
230	0xbcbffea2	-0.023436848
231	0x3d98f02f	0.074676864
232	0xbec74f4b	-0.38927683
233	0xbe19ad40	-0.15007496
234	0xbdfba172	-0.122866526
235	0xbe370ebe	-0.17876717
236	0xbe064bea	-0.13114896
237	0xbedaade4	-0.42710793
238	0x3ce276dc	0.027644567
239	0xbf0fad7b	-0.56124085
240	0xbe0e8d32	-0.13921049
241	0xbe901118	-0.28138041
242	0xbec08a7a	-0.3760565
243	0xbe56b838	-0.20968711
244	0xbeb14ede	-0.34630483
245	0xbebc0e0a	-0.3672946
246	0xbd6cfb71	-0.05785698
247	0xbee6b6c0	-0.45061302
248	0xbda1e9d9	-0.07905931
249	0x3cf76aed	0.030202353
250	0xbd8ab217	-0.06772249
251	0xbea0df0d	-0.31420174
252	0x3e8b8056	0.2724635
253	0xbe8bb577	-0.27286884
254	0xbc37ce26	-0.011218583
255	0xbeb6a15e	-0.35669988

fc2.bias f4 [128]
0	0xbdec5fc3	-0.115417026
1	0x3f3c7335	0.7361329
2	0x3f00cb07	0.50309795
3	0xbef50092	-0.47851998
4	0xbf169aec	-0.5883014
5	0x3d1088a0	0.035286546
6	0xbdbb0b0e	-0.09132968
7	0xbd81ff87	-0.06347566
8	0xbdfdcede	-0.123929724
9	0xbd93d780	-0.07218838
10	0xbe6e2771	-0.23257233
11	0xbdb811ba	-0.08987756
12	0xbe5d98c4	-0.21640307
13	0x3ad4686b	0.0016205435
14	0x3f3ce79d	0.73790914
15	0x3d65f30c	0.05613999
16	0xbd499e4f	-0.04922324
17	0x3d67303c	0.056442484
18	0xbee6269d	-0.44951335
19	0x3e031d17	0.12804066
20	0xbf1ffe7b	-0.6249768
21	0xbeaab3d9	-0.33340338
22	0xbef6000a	-0.48046905
23	0xbe3319da	-0.1749033
24	0x3da84bd4	0.08217588
25	0x3d47ef0e	0.048811965
26	0xbef2ce76	-0.47423142
27	0xbe986afc	-0.29769123
28	0xbe011fcc	-0.12609786
29	0x3ca2d2a8	0.01987584
30	0xbe7988ba	-0.24368563
31	0xbe7c3c86	-0.24632463
32	0x3e83160a	0.25602752
33	0xbe960f77	-0.29308674
34	0x3d6c3820	0.057670712
35	0x3ee1e0dc	0.44116867
36	0x3e797fbd	0.24365135
37	0xbe4655af	-0.19368623
38	0xbe117df0	-0.14208198
39	0xbf172084	-0.5903399
40	0xbe7e246a	-0.24818578
41	0xbec4c86b	-0.38434157
42	0x3f0c47f7	0.5479731
43	0x3ede2dfb	0.43394455
44	0xbdad5610	-0.08463681
45	0xbda62251	-0.08112014
46	0x3eeb2afd	0.45931235
47	0xbe9cb8a6	-0.30609626
48	0x3c1a5c3f	0.009421407
49	0xbf08dbc7	-0.53460354
50	0x3f80feab	1.0077718
51	0xbcf8ce02	-0.03037167
52	0xbe5ba014	-0.21447784
53	0x3ef06671	0.46953157
54	0x3fa3e0a8	1.2802935
55	0xbc412c96	-0.011790415
56	0x3d0352fa	0.032061554
57	0xbd44a92b	-0.048012894
58	0xbe85fc9f	-0.26169297
59	0xbdc12143	-0.09430172
60	0x3c1ee918	0.009699129
61	0x3dfa9709	0.12235839
62	0x3da64e74	0.081204325
63	0xbf169768	-0.5882478
64	0xbb622ca5	-0.0034511473
65	0xbf3016c2	-0.68784726
66	0x3d256799	0.040382
67	0xbbe53729	-0.006995101
68	0x3cae1834	0.021251775
69	0x3ef5cafb	0.48006424
70	0xbf257289	-0.6462789
71	0xbea128e1	-0.314765
72	0x3e992101	0.29907992
73	0xbe4efb5b	-0.20213072
74	0x3f647f2c	0.8925655
75	0xbf221c3d	-0.6332434
76	0xbe1a56c8	-0.15072167
77	0xbdf8e63a	-0.12153287
78	0xbdbb9e52	-0.091610566
79	0xbdc09ecb	-0.09405287
80	0x3ea502d0	0.32228708
81	0x3ed154eb	0.408851
82	0xbe4fd1cf	-0.2029488
83	0xbe310b4a	-0.17289463
84	0xbe645df9	-0.22301473
85	0xbe78f2ba	-0.24311343
86	0xbe818d13	-0.25302944
87	0x3b0a0188	0.0021058042
88	0xbd302aae	-0.043009453
89	0x3dc09ff6	0.0940551
90	0x3f38fce1	0.7226086
91	0xbfc735e6	-1.5563323
92	0xbeec411d	-0.46143427
93	0x3da435bd	0.08018062
94	0xbe85262b	-0.26005682
95	0x3ef1b46d	0.47207966
96	0xbea6589d	-0.32489482
97	0xbed0e2dc	-0.4079808
98	0x3d9ae303	0.0756283
99	0xbe09f2af	-0.13471483
100	0x3e5c179b	0.2149338
101	0x3c7fe475	0.015618433
102	0xbdea13b1	-0.11429537
103	0x3e7cadcd	0.24675675
104	0xbdf42f32	-0.11923064
105	0xbeffd026	-0.49963492
106	0xbe43f25b	-0.1913542
107	0xbe9bf924	-0.30463517
108	0xbd6137b9	-0.054984782
109	0x3e613114	0.21991378
110	0x3c893dd2	0.016753111
111	0x3e50d07f	0.20392035
112	0x3f2b4923	0.6690847
113	0x3d6b2908	0.057412177
114	0xbef81ca9	-0.48459366
115	0xbd9e96ac	-0.07743582
116	0xbe645755	-0.2229894
117	0x3e0a9b6e	0.13535854
118	0x3ef9c92d	0.48786297
119	0xbec74dbb	-0.3892649
120	0x3d66f414	0.056385115
121	0x3df5ce6d	0.12002263
122	0xbe163174	-0.14667302
123	0x3ef21999	0.47285154
124	0x3d81470e	0.06312381
125	0x3ef8fa1f	0.48628327
126	0x3f163bff	0.58685297
127	0x3ee83e28	0.4535992
