models/ok_maddpg_weights.pt (torch, 759717 bytes, 48 tensors)

fc1.weight f4 [128, 13]
0	0xbdf18b31	-0.11794127
1	0x3eab101a	0.33410722
2	0x3f3c448f	0.7354211
3	0x3eac8d6f	0.33701655
4	0xbe813067	-0.2523224
5	0xbe3147b6	-0.17312512
6	0x3edfb869	0.4369538
7	0x3f4c0c4b	0.7970626
8	0xbf45b805	-0.77233917
9	0xbe0d2fcb	-0.13787763
10	0xbf3533e0	-0.7078228
11	0x3e4b0aba	0.1982831
12	0x3e19fb46	0.1503726
13	0xbf06455a	-0.5244957
14	0xbe4444d1	-0.19166876
15	0x3fb0edf9	1.3822623
16	0x3ee13e95	0.4399306
17	0x3dfe7373	0.12424364
18	0x3ddfa068	0.10919267
19	0x3e1bb5a0	0.15206003
20	0xbf3008fe	-0.6876372
21	0xbed66b82	-0.41878897
22	0xbf4e7627	-0.80649036
23	0xbe976f10	-0.2957692
24	0xbe2a5f28	-0.16637862
25	0x3e77b3e8	0.24189723
26	0xbee95076	-0.455692
27	0xbe61a7af	-0.22036622
28	0xbef397f1	-0.4757686
29	0xbebb51a2	-0.36585718
30	0xbe420a7f	-0.18949316
31	0x3e921b0d	0.28536263
32	0xbe888e10	-0.26670885
33	0xbdb9fde3	-0.09081628
34	0xbe9db6b3	-0.3080345
35	0xbe37f165	-0.17963178
36	0xbebf93fe	-0.37417597
37	0xbdb17b64	-0.08666113
38	0xbcb93bef	-0.022611586
39	0x3ebd3b5b	0.36959347
40	0xbe2ea29c	-0.17054218
41	0x3f3a6f7e	0.72826374
42	0xbf84e424	-1.0382123
43	0x3c310494	0.010804314
44	0xbba7714f	-0.005109943
45	0xbf596f29	-0.8493524
46	0xbf228671	-0.6348639
47	0x3e25fdf3	0.16210155
48	0xbf72d473	-0.9485542
49	0x3e84e524	0.2595607
50	0x3e599f45	0.21252163
51	0xbe08772d	-0.13326712
52	0x3e31473a	0.17312327
53	0xbf3869ab	-0.72036237
54	0xbe8ddb3d	-0.27706328
55	0xbe0d7248	-0.13813126
56	0x3c8e78cc	0.017391585
57	0x3d3ce878	0.046120137
58	0xbe6a5d38	-0.22887123
59	0xbf44534e	-0.7668961
60	0x3f37f8d3	0.7186405
61	0xbf30308b	-0.6882407
62	0x3ed244f5	0.41068235
63	0xbbd62de5	-0.006536233
64	0x3e2050f3	0.1565588
65	0xbe697697	-0.22799145
66	0x3eee73a7	0.4657261
67	0xbe4f22b2	-0.20228079
68	0x3f0871fd	0.5329893
69	0x3e41bd85	0.18919952
70	0xbd8664cd	-0.06562195
71	0x3efcc6b3	0.49370345
72	0x3e92f1f6	0.28700227
73	0xbe0381e7	-0.12842523
74	0x3e9d9700	0.30779266
75	0x3efc4f69	0.49279335
76	0xbe80d44d	-0.25161973
77	0x3df8e05d	0.12152169
78	0x3f0a4f5d	0.5402735
79	0x3ebc1caf	0.36740634
80	0xbee4dd61	-0.4470015
81	0xbd9f5c58	-0.07781285
82	0x3c72a498	0.01480975
83	0x3e4aeead	0.1981761
84	0x3da5ba44	0.08092168
85	0x3b1a7aa0	0.0023571625
86	0x3da2c0c6	0.07946925
87	0xbebbc912	-0.36676842
88	0x3f0e63ce	0.5562104
89	0x3db3afde	0.087737784
90	0xbdd7ef7f	-0.10543727
91	0x3f014a97	0.5050444
92	0xbcecfcf8	-0.028929219
93	0x3f610e92	0.8791286
94	0xbe924e10	-0.28575182
95	0xbb2b04c8	-0.002609538
96	0x3c1e9c38	0.0096808
97	0xbf3ae9b7	-0.7301287
98	0xbe5247a3	-0.2053514
99	0x3d564c8c	0.052319095
100	0xbea3de6f	-0.3200564
101	0x3eb11c5a	0.34591943
102	0xbe871866	-0.26385802
103	0x3e25fa81	0.16208841
104	0x3ee6d43b	0.45083794
105	0xbf0562cf	-0.52103895
106	0x3f354e9e	0.70823085
107	0xbf7655d4	-0.96224713
108	0x3d2ae0d6	0.041718327
109	0xbc8f0e27	-0.017462803
110	0xbf61ed8f	-0.8825311
111	0xbe173e38	-0.14769828
112	0x3eff03a6	0.4980747
113	0xbf0c0e51	-0.54709345
114	0x3ef0c4b4	0.47025073
115	0x3e5101b9	0.20410813
116	0xbdbd7486	-0.09250741
117	0x3db38e1c	0.087673396
118	0x3f2ec928	0.6827569
119	0xbf8e320e	-1.1109025
120	0x3db794de	0.08963941
121	0x3d9c529b	0.07632943
122	0xbb18db5f	-0.0023324115
123	0x3e0cdb31	0.1375549
124	0x3ee8801e	0.45410246
125	0xbe824ef9	-0.25450876
126	0x3f0ec11d	0.5576342
127	0xbf0470d2	-0.5173465
128	0xbb856856	-0.0040712757
129	0x3e873f35	0.2641541
130	0xbe6a73ca	-0.22895733
131	0xbe9742da	-0.2954319
132	0x3fd6caed	1.6780678
133	0x3e81ee25	0.25377002
134	0x3d579398	0.05263099
135	0x3d604d9e	0.05476152
136	0x3ecc51f6	0.3990628
137	0xbd94f4f1	-0.07273281
138	0xbdab671e	-0.083692774
139	0xbe80a996	-0.25129384
140	0xbeca3457	-0.39493057
141	0x3e2c66ae	0.16836044
142	0xbe2f0a0f	-0.17093681
143	0xbe941565	-0.28922573
144	0xbef499fe	-0.47773737
145	0xbfcc36f6	-1.5954273
146	0xbfa8825c	-1.3164783
147	0x3cb40218	0.021973655
148	0x3d7a49df	0.061105605
149	0xbf9f1710	-1.2428913
150	0x3d90d565	0.07071952
151	0x3ed8e1ea	0.4235986
152	0xbba3a920	-0.0049945265
153	0x3f53fae2	0.8280469
154	0xbe876e95	-0.26451555
155	0xbe5927f8	-0.21206653
156	0x3ed13a1c	0.40864646
157	0x3db9700c	0.09054574
158	0xbd1c9d96	-0.038236223
159	0xbeca51ea	-0.3951562
160	0xbe36e0bf	-0.17859171
161	0xbd515a5f	-0.051111575
162	0xbec812a0	-0.3907671
163	0x3e3ca76e	0.18423244
164	0x3ef37065	0.47546688
165	0xbe2e1130	-0.16998744
166	0x3f4d235a	0.8013207
167	0xbe233941	-0.1593981
168	0xbcf3e7d4	-0.02977363
169	0x3eab9d79	0.3351858
170	0x3d057cfe	0.032589905
171	0xbfb45a78	-1.4090109
172	0x3f1c2771	0.6099768
173	0x3be8e3e0	0.007107243
174	0x3d86f4b0	0.06589639
175	0x3f5a8b3f	0.8536872
176	0x3c1dabd0	0.009623483
177	0x3db5691f	0.08857941
178	0xbe18841e	-0.14894149
179	0x3f4fc4b0	0.81159496
180	0xbe806365	-0.25075832
181	0x3d2bc57a	0.041936375
182	0xbea79757	-0.3273265
183	0x3e06ef9e	0.13177344
184	0xbf0563b4	-0.5210526
185	0xbe22237c	-0.15833849
186	0x3dca50b2	0.09878673
187	0x3d82fd50	0.06395972
188	0xbe8d4256	-0.27589673
189	0x3ebc4743	0.36773118
190	0x3ec60c41	0.38681224
191	0x3eb55175	0.3541371
192	0x3ef2dabf	0.47432515
193	0xbe841af9	-0.25801829
194	0xbe4d49eb	-0.20047729
195	0xbe807b1c	-0.25093925
196	0xbe9145d0	-0.28373575
197	0x3e517272	0.20453814
198	0x3f37ec45	0.71844894
199	0xbe0cb9e4	-0.13742787
200	0x3d838f56	0.064238235
201	0x3f0ecefb	0.5578458
202	0xbf07e8f0	-0.5308981
203	0x3f412d24	0.75459504
204	0xbe019cc4	-0.12657458
205	0x3f3b60d5	0.7319463
206	0x3e08ee45	0.13372143
207	0x3d1e0ffe	0.03858947
208	0x3db28399	0.087165065
209	0x3eb824d8	0.3596561
210	0xbe97e937	-0.29670116
211	0xbfab27fb	-1.3371576
212	0x3dbe0e41	0.092800625
213	0x3c7705e8	0.015077092
214	0xbf7e6a71	-0.99381167
215	0xbd345880	-0.044029713
216	0xbf3b5ad3	-0.7318546
217	0x3e97b742	0.29632002
218	0xbf5a5e58	-0.8530021
219	0x3e2403ed	0.16017123
220	0xbe877565	-0.26456752
221	0xbeeb814e	-0.4599709
222	0x3edee299	0.43532255
223	0xbf841aa8	-1.0320635
224	0xbf69f6a6	-0.9139198
225	0x3bbc6aa6	0.005750018
226	0xbdb4c800	-0.088272095
227	0xbf77dd26	-0.9682182
228	0xbe55be57	-0.2087339
229	0xbef01d7d	-0.46897498
230	0x3dc3f95d	0.09569047
231	0xbde442a6	-0.11145525
232	0xbb69b187	-0.0035658793
233	0xbc961648	-0.018321171
234	0xbe85bdcd	-0.2612137
235	0x3f1704ad	0.5899151
236	0xbe91545c	-0.28384674
237	0xbf04e993	-0.51918906
238	0xbb876526	-0.004131931
239	0xbdc52fe5	-0.09628276
240	0xbec44b4e	-0.38338703
241	0x3e90ad85	0.28257385
242	0xbf596434	-0.8491852
243	0xbea12503	-0.3147355
244	0xbf9905b9	-1.1954871
245	0xbd6aa3e5	-0.05728521
246	0xbdf24381	-0.118292816
247	0xbd512937	-0.051064696
248	0x3e15cbcf	0.14628528
249	0xbec0ceae	-0.37657684
250	0x3fa639ec	1.2986426
251	0xbc88d946	-0.016705167
252	0x3e9ae1ca	0.30250388
253	0x3f9ab5b0	1.2086697
254	0x3edc7920	0.4306116
255	0xbecd3af3	-0.40084037

fc1.bias f4 [128]
0	0x3e9c9c07	0.3058779
1	0x3eed8296	0.46388692
2	0xbf0b1ba8	-0.54339075
3	0xbf3ba142	-0.73292935
4	0xbcf9a3e4	-0.030473657
5	0x3efdc844	0.49566853
6	0xbda42d23	-0.08016422
7	0xbf0775ac	-0.5291393
8	0xbf9cb1db	-1.2241777
9	0x3d847376	0.06467335
10	0x3f256977	0.6461405
11	0xbf77e514	-0.9683392
12	0xbedc7622	-0.43058878
13	0x3f825fa6	1.018544
14	0xbdd50256	-0.10400836
15	0x3f460fd4	0.773679
16	0xbf9ca91c	-1.2239108
17	0xbf715177	-0.9426493
18	0xbe970b85	-0.29500976
19	0x3f95e062	1.1709101
20	0xbf363d7e	-0.7118758
21	0xbf3cbeb2	-0.7372848
22	0xbfa32c43	-1.2747883
23	0xbec9d3be	-0.3941936
24	0x3e316df4	0.173271
25	0x3f4cc706	0.79991186
26	0xbf7ad900	-0.97987366
27	0x3eb5b63b	0.35490593
28	0x3ed57e17	0.4169776
29	0x3f7ab412	0.97931015
30	0xbf479c19	-0.7797256
31	0xbe1a41da	-0.15064183
32	0x3f3a548f	0.72785276
33	0xbf9b4ce7	-1.2132844
34	0xbeaeee02	-0.3416596
35	0x3f116070	0.56787777
36	0x3f8d30de	1.1030538
37	0x3f1ac3ed	0.6045521
38	0xbf456eba	-0.7712208
39	0x400ae683	2.1703193
40	0xbf9d627d	-1.2295681
41	0xbf519533	-0.81868285
42	0x3e32fe65	0.17479856
43	0xbee8345d	-0.4535245
44	0xbf51abd8	-0.8190284
45	0xbf8931aa	-1.0718281
46	0x3f8572fe	1.0425718
47	0x3eb2ece5	0.3494636
48	0xbf20d4a2	-0.6282445
49	0xbf28a80a	-0.6588141
50	0xbeabcf57	-0.33556625
51	0x3e92ba54	0.28657782
52	0xbec35aad	-0.38155118
53	0xbf6620d9	-0.8989387
54	0x3f258eac	0.64670825
55	0xbf91651e	-1.1358984
56	0xbf15d70f	-0.5853128
57	0x3d0cfc26	0.034420155
58	0xbf7cd730	-0.9876585
59	0xbf0f9a7a	-0.5609509
60	0xbf00145a	-0.50031054
61	0xbea5b708	-0.32366204
62	0xbf85f003	-1.0463871
63	0x3ff5f262	1.9214594
64	0x3f365039	0.7121616
65	0xbc90b058	-0.017662212
66	0xbd3c3e84	-0.045958057
67	0xbf30c22d	-0.6904629
68	0xbeff1c05	-0.49826065
69	0x3f1cf093	0.6130459
70	0xbed0841c	-0.4072579
71	0x3f01db58	0.50725317
72	0x3fbc81f5	1.472716
73	0xbe158ab3	-0.14603691
74	0xbfb75be1	-1.4324914
75	0xbec09c87	-0.3761942
76	0x3e52612d	0.20544882
77	0xbdc65f11	-0.09686101
78	0x3f2b6349	0.6694837
79	0x3eba695e	0.36408514
80	0xbf93a467	-1.1534547
81	0x3ed9aa8a	0.42512923
82	0x3edc5b34	0.43038332
83	0xbf8206ec	-1.0158362
84	0xbf65aae3	-0.8971388
85	0x3f73e800	0.9527588
86	0xbf03eb47	-0.5153088
87	0xbfc484be	-1.535301
88	0x3e0cb34a	0.13740268
89	0xbf2fb74b	-0.6863906
90	0xbf87fd6b	-1.0624212
91	0x3f177133	0.59157103
92	0xbf3715a6	-0.7151741
93	0xbe969a87	-0.2941477
94	0xbd80f809	-0.06297309
95	0xbea679e0	-0.32514858
96	0x3d945faf	0.07244813
97	0xbedc6d9b	-0.43052372
98	0x3f6d8ff8	0.92797804
99	0xbf6526a6	-0.895121
100	0x3fb3f5f5	1.4059435
101	0x3fb8449d	1.4395939
102	0x3f6844ff	0.9073028
103	0x3f0bf4ee	0.5467061
104	0x3d840fca	0.06448324
105	0xbf962548	-1.1730127
106	0xbf2d54d6	-0.67707574
107	0x3e574f89	0.21026434
108	0xbf0a2b50	-0.5397234
109	0xbe9cc6fb	-0.3062056
110	0x3fd8328c	1.6890426
111	0xbfa47628	-1.2848558
112	0xbe04f72b	-0.12984912
113	0xbf5e902e	-0.8693875
114	0x3f83e397	1.030383
115	0xbf9f06bc	-1.242393
116	0x3fd83292	1.6890433
117	0x3d612ef2	0.05497641
118	0xbeb1ecc4	-0.3475095
119	0xbf99ae31	-1.2006284
120	0xbf84e45f	-1.0382193
121	0xbfa03b0f	-1.2518023
122	0xbdbd87f0	-0.09254444
123	0xbf751c00	-0.9574585
124	0xbf326fcd	-0.69701844
125	0x3e23c993	0.15994863
126	0xbf8b7138	-1.0893927
127	0xbf6bda3d	-0.9212988

fc2.weight f4 [128, 128]
0	0xbeb9d6b4	-0.36296618
1	0xbea02eff	-0.31285855
2	0xbdff016e	-0.124514446
3	0xbd3dfc6a	-0.0463833
4	0xbdcdfd34	-0.1005806
5	0xbe19c837	-0.15017782
6	0xbd7eaa86	-0.062174343
7	0x3cde567a	0.027140845
8	0xbeb8ec13	-0.3611761
9	0x3c5eb564	0.013593052
10	0xbe2c09b5	-0.16800578
11	0xbdb68f34	-0.089140326
12	0xbeb40594	-0.35160506
13	0xbe025a01	-0.12729646
14	0xbe85fa22	-0.261674
15	0xbe9107d5	-0.28326288
16	0x3d375360	0.044757247
17	0x3cf6750b	0.030085107
18	0x3ce656de	0.028117593
19	0xbe9464c2	-0.28983122
20	0x3e0b9316	0.13630328
21	0xbe04fb9c	-0.12986606
22	0xbdf643d5	-0.12024657
23	0xbc9aad6e	-0.018881526
24	0xbd16c584	-0.03680946
25	0xbdfa5e4b	-0.12225016
26	0xbec1f32f	-0.37880847
27	0xbe866650	-0.26249933
28	0xbdc8bf1f	-0.098020785
29	0xbeb22b33	-0.34798583
30	0x3e0a485b	0.13504164
31	0xbee48917	-0.4463584
32	0xbe65ee13	-0.224541
33	0x3d9b83ff	0.07593536
34	0xbce9eb41	-0.02855456
35	0xbb101a5d	-0.002198837
36	0xbe2c1ac6	-0.16807088
37	0xbc243597	-0.010022542
38	0xbe684b89	-0.22685064
39	0xbe799172	-0.24371889
40	0xbea6ea04	-0.32600415
41	0x3cdb8c12	0.02680019
42	0xbd6ff8d0	-0.058586895
43	0xbed57c7c	-0.41696537
44	0x3d90c9c5	0.070697345
45	0xbde64a86	-0.11244683
46	0xbe907c6c	-0.28219926
47	0xbeaa816e	-0.33301872
48	0xbe9012e3	-0.2813941
49	0xbe4fa4d3	-0.20277719
50	0xbeb48dd8	-0.35264468
51	0xbe948dbc	-0.29014385
52	0x3d001a37	0.031275
53	0xbe07e373	-0.13270359
54	0xbb68c1a0	-0.00355158
55	0x3e477f31	0.19482113
56	0xbe93d61b	-0.28874287
57	0x3db6c070	0.08923423
58	0x3c04b4db	0.00809976
59	0xbec2170d	-0.3790821
60	0xbebc48a2	-0.36774164
61	0xbe5653a4	-0.20930344
62	0xbe46c93e	-0.19412705
63	0xbe5dfe25	-0.2167898
64	0x3dda1225	0.10647992
65	0x3db01941	0.08598567
66	0xbeaf6c53	-0.34262332
67	0xbe6e0246	-0.23243055
68	0xbe2d8f53	-0.16949205
69	0xbda9b0da	-0.08285685
70	0xbf1a0028	-0.6015649
71	0xbe7b6eb0	-0.24553943
72	0xbdb27749	-0.08714158
73	0xbd9295a9	-0.07157452
74	0xbdcead87	-0.100916915
75	0xbe680221	-0.22657062
76	0xbf24e964	-0.64418626
77	0xbf00a1c8	-0.5024686
78	0xbe845e22	-0.25853068
79	0xbeb2e0ff	-0.34937283
80	0x3d80a163	0.06280782
81	0xbe2800be	-0.16406533
82	0xbd8a3dc5	-0.06750063
83	0xbd5a6ed7	-0.05332836
84	0xbe890d20	-0.26767826
85	0xbeebc26c	-0.4604677
86	0xbe975a37	-0.29561016
87	0x3d545464	0.051838294
88	0x3ce52579	0.02797197
89	0x3e3cd456	0.18440375
90	0x3e0ae938	0.13565528
91	0xbd4f60de	-0.05062949
92	0xbda8537a	-0.08219047
93	0xbeaf9fba	-0.3430155
94	0xbe3d28d7	-0.1847261
95	0x3c23db91	0.010001079
96	0xbe50b564	-0.20381695
97	0xbe848931	-0.2588592
98	0xbe62c9c3	-0.22147278
99	0xbdccb89a	-0.099961475
100	0xbe1a9b22	-0.15098241
101	0xbeb32478	-0.3498876
102	0xbd8aabbd	-0.06771038
103	0xbda0df04	-0.07855037
104	0xbd86b861	-0.06578136
105	0xbe898005	-0.26855484
106	0xbe6244ad	-0.2209651
107	0xbd52ad05	-0.051434536
108	0xbdbbe05a	-0.09173651
109	0xbc43f208	-0.01195956
110	0xbebe32a6	-0.37148017
111	0xbe4e4bc7	-0.20146094
112	0xbe8626e8	-0.26201558
113	0xbdec3e27	-0.11535292
114	0xbd34a80d	-0.04410558
115	0xbe1ffb1d	-0.15623136
116	0xbe6e20aa	-0.23254648
117	0x3dc5336b	0.09628948
118	0xbd9876b2	-0.07444514
119	0xbb9ba6e8	-0.0047501214
120	0xbd536f9c	-0.05162011
121	0xbdcc5cf6	-0.099786684
122	0xbddcfecd	-0.10790787
123	0x3e433239	0.19062127
124	0x3d600fdf	0.054702636
125	0xbd0749e4	-0.033029452
126	0xbd34a530	-0.044102848
127	0xbdb41c8f	-0.087945096
128	0xbdbe5056	-0.092926666
129	0x3ca2aa2a	0.019856531
130	0x3ca00a52	0.019536171
131	0x3b4d3a48	0.0031315256
132	0xbdcecaf1	-0.10097302
133	0x3bda99d9	0.006671172
134	0x3cc0441f	0.023469983
135	0x3d976968	0.073931515
136	0xbd716b7f	-0.058940407
137	0x3ce6855c	0.028139763
138	0xbc8f902b	-0.0175248
139	0xbdc5457a	-0.09632392
140	0x3d8d3bc5	0.06896166
141	0xbd6625ed	-0.056188513
142	0xbb964e45	-0.004586967
143	0xb94bf694	-0.00019451446
144	0x3d3e2155	0.046418507
145	0xbdd6091f	-0.104509585
146	0xbddeed18	-0.10885066
147	0xbd229b92	-0.039699145
148	0xbd4c8fc9	-0.04994181
149	0xbde75dac	-0.11297163
150	0x3d066041	0.03280664
151	0xbcba0019	-0.022705125
152	0x3811f246	3.479633e-05
153	0x3b1bce33	0.0023774027
154	0xbca9d00c	-0.020729087
155	0xbce8b8c5	-0.028408417
156	0xbdc5aace	-0.09651719
157	0x3d3f56b4	0.046713546
158	0xbdfcd9f5	-0.123462595
159	0xbdb95544	-0.09049466
160	0x3c8bc6da	0.017062593
161	0xbdf85cc4	-0.12127069
162	0xbc16aca6	-0.009196436
163	0x3d02061d	0.03174411
164	0x3d325998	0.043542475
165	0x3da23a86	0.07921319
166	0x3c98c580	0.018648863
167	0xbce7d8e9	-0.028301673
168	0xbd2664f8	-0.040623635
169	0x3c815c51	0.01579109
170	0xbae7e952	-0.0017693436
171	0xbc2c493c	-0.010515507
172	0xbd2d523c	-0.042314753
173	0xbdf821a0	-0.121157885
174	0xbd49e1f2	-0.049287744
175	0xbdce3875	-0.10069362
176	0x3c89ca0d	0.016819978
177	0x3c87eef3	0.016593432
178	0x3cf87523	0.030329293
179	0xbb0d0dd4	-0.0021523135
180	0xbd8521db	-0.06500598
181	0x3d05fd60	0.03271234
182	0xbd4550a0	-0.048172593
183	0xbd824101	-0.06360055
184	0x3d666127	0.056244995
185	0xbc4cd976	-0.012503019
186	0xbd04b89c	-0.03240262
187	0xbdb24476	-0.08704464
188	0xbd4df4af	-0.050282177
189	0x3c70055e	0.014649717
190	0xbd6b0e72	-0.057386823
191	0x3c6e4f4c	0.014545273
192	0x3d04dd8e	0.032437854
193	0xbc986a5e	-0.018605407
194	0x3d1478d9	0.03624806
195	0xbdb55b68	-0.08855325
196	0xbc2a053a	-0.010377223
197	0xbd9b4568	-0.075815976
198	0xbd3c51a4	-0.045976296
199	0xbcc9e2bf	-0.024644254
200	0xbd9d568e	-0.076825246
201	0xbdae7cb4	-0.08519879
202	0x3c6e7910	0.014555231
203	0xbd2d88ac	-0.04236667
204	0xbd6bbae8	-0.057551295
205	0xbdc79966	-0.09746055
206	0xbda4e6de	-0.08051847
207	0x3a86971e	0.0010268425
208	0xbd61ed5e	-0.05515801
209	0x3c7db299	0.0154844755
210	0xbdb3a6ed	-0.08772073
211	0xbd4dfc5a	-0.05028949
212	0xbd5f8031	-0.054565612
213	0xbdcadf88	-0.099059165
214	0xbd25ea93	-0.04050691
215	0x3d935592	0.071940556
216	0x3c523ca7	0.012831843
217	0xbda38861	-0.079849966
218	0x3ccf9814	0.025341071
219	0x3d31e27c	0.043428883
220	0xbd33aed1	-0.04386789
221	0x3d253c65	0.0403408
222	0x3ca8d47b	0.020609131
223	0xbd2fb383	-0.042895805
224	0xbd21f233	-0.03953762
225	0x3c4a5c00	0.012351036
226	0xbcf28de9	-0.029608684
227	0xbcef7216	-0.029229205
228	0xbd0080b0	-0.031372726
229	0xbdd2eaa4	-0.102986604
230	0x3c4aa55f	0.012368529
231	0xbd795dfc	-0.060880646
232	0xbde21936	-0.11039965
233	0x3caa997f	0.020825146
234	0x3c0fd1c5	0.00877804
235	0xbd197d71	-0.037473146
236	0xbd84747a	-0.06467529
237	0x3d3e960a	0.046529807
238	0xbdd0ba48	-0.1019178
239	0xbd1a5fd5	-0.03768905
240	0xbd99ad5e	-0.0750377
241	0xbcf218bc	-0.02955281
242	0xbda88e90	-0.08230317
243	0x3c70829a	0.014679575
244	0x3d3a87f3	0.045539808
245	0xbd6da00f	-0.058013972
246	0xbdfae1e6	-0.12250118
247	0xbab62d00	-0.0013898909
248	0xbd229fbc	-0.039703116
249	0xbe037e9a	-0.12841263
250	0x3da002a2	0.07813002
251	0xbc140a6e	-0.00903569
252	0x3c272ef6	0.010204067
253	0x3d0d5d9b	0.034513097
254	0xbb561cbd	-0.0032670938
255	0x3d09fb9d	0.033687223

fc2.bias f4 [128]
0	0xbe97474d	-0.29546586
1	0x3d2fc61c	0.04291354
2	0xbf5c48bb	-0.8604848
3	0xbde16254	-0.11005083
4	0xbd80d3bd	-0.06290386
5	0x3ebace91	0.36485723
6	0xbeb6ab40	-0.35677528
7	0xbf20224b	-0.62552327
8	0xbdfc049c	-0.12305567
9	0xbefadfcb	-0.48998865
10	0xbe835e78	-0.2565801
11	0xbf66f18e	-0.90212333
12	0xbec13fde	-0.3774404
13	0xbda879a2	-0.082263246
14	0xbd2fb4a8	-0.042896897
15	0xbdd12e1a	-0.10213871
16	0x3d7ba28b	0.06143431
17	0xbe615e50	-0.22008634
18	0xbea6635d	-0.32497683
19	0x3f5d6950	0.8648882
20	0xbf4bac68	-0.79559946
21	0xbdd8180d	-0.10551462
22	0xbde3b7a5	-0.11119012
23	0xbeb45924	-0.3522426
24	0xbd0939dd	-0.03350245
25	0xbc6e889e	-0.014558939
26	0xbda5fbe4	-0.08104685
27	0x3d22d51d	0.039754022
28	0x3dcb64de	0.09931348
29	0xbd89cd90	-0.06728661
30	0xbed52f99	-0.41637877
31	0xbec8aad8	-0.39192843
32	0xbe845349	-0.25844792
33	0x3ce5af7c	0.028037779
34	0xbeeed2b6	-0.46645135
35	0xbf187caa	-0.5956522
36	0xbd90ab2b	-0.07063898
37	0x3db89972	0.09013642
38	0x4002b24f	2.042133
39	0x3d43b230	0.047777355
40	0xbf43d0e4	-0.76490617
41	0x3f137857	0.576055
42	0x3f8e0730	1.1095943
43	0xbe7075da	-0.23482457
44	0xbddfb73a	-0.109236196
45	0x3de07600	0.10960007
46	0xbf54693f	-0.8297309
47	0xbe4fb5fe	-0.20284268
48	0xbe42ce25	-0.1902395
49	0xbdcdfc18	-0.10057849
50	0xbed2d053	-0.41174564
51	0x3d475d53	0.048672985
52	0xbca96588	-0.020678297
53	0xbce5cdaf	-0.02805218
54	0xbdb74054	-0.089478165
55	0x3c957798	0.018245503
56	0x3d38ac86	0.045086406
57	0xbe7a9e35	-0.24474414
58	0x3d97155a	0.07377119
59	0x3e4c068e	0.19924375
60	0xbc6c7e27	-0.014434374
61	0xbf4042d1	-0.75101954
62	0x3d1dc151	0.03851444
63	0xbef206b6	-0.47270745
64	0xbc362f5f	-0.011119693
65	0xbd7d593d	-0.061852682
66	0x3dea3d30	0.11437452
67	0xbd1d08e4	-0.038338557
68	0xbda5d6cf	-0.08097612
69	0xbdc3c877	-0.0955972
70	0xbc760b8f	-0.015017404
71	0x3cd7a2d2	0.026322756
72	0xbd906387	-0.07050233
73	0xbf5d672c	-0.8648555
74	0x3ea0e299	0.3142288
75	0xbd98a187	-0.07452684
76	0xbb9008ac	-0.004395565
77	0xbcf17e23	-0.029479092
78	0x3e2c17d5	0.16805966
79	0xbf4af598	-0.79280996
80	0x3e29c722	0.1657987
81	0x3f5b7765	0.85729057
82	0x3eb8f137	0.36121532
83	0x3e7d76ab	0.247523
84	0x3f360260	0.71097374
85	0x3c804b59	0.015660929
86	0xbdb700ee	-0.08935724
87	0x3f34b04c	0.7058151
88	0xbe82d140	-0.2555027
89	0x3c647057	0.0139427995
90	0xbdb6ae87	-0.08920007
91	0x3f2d87b9	0.6778522
92	0xbea962bb	-0.33083138
93	0x3d2fac90	0.042889178
94	0xbee58be1	-0.44833282
95	0x3cbaf75f	0.022823034
96	0xbd80a2c5	-0.06281046
97	0xbebe8777	-0.37212726
98	0x3e80131d	0.25014582
99	0x3f1572a9	0.5837808
100	0xbec05cbd	-0.37570754
101	0x3efeb1f2	0.49745136
102	0x3d477d1b	0.048703294
103	0x3d1e0538	0.038579196
104	0x3ddd3308	0.10800749
105	0xbebb1f3b	-0.36547264
106	0x3ccd0a38	0.025029287
107	0x3f91265a	1.1339829
108	0xbe9642c1	-0.29347804
109	0x3e348e15	0.17632325
110	0xbe7d0ece	-0.24712679
111	0xbe909181	-0.2823601
112	0xbe9d7caf	-0.3075919
113	0xbd052803	-0.03250886
114	0xbcad1521	-0.02112824
115	0xbeea8c2c	-0.45810068
116	0x3d04e9c6	0.032449506
117	0xbe4102eb	-0.1884877
118	0x3d735d50	0.05941516
119	0x3d846af4	0.06465712
120	0xbbc97325	-0.0061477595
121	0xbd4e2a02	-0.05033303
122	0xbc140236	-0.00903373
123	0xbc80e608	-0.015734687
124	0x3d19f4ab	0.03758685
125	0x40126789	2.2875693
126	0x3de64d58	0.11245221
127	0x3e5c87fa	0.21536246

dir.weight f4 [2, 128]
0	0x3d7b0a3c	0.061289057
1	0xbd80dc27	-0.06291991
2	0xbe20fc78	-0.15721309
3	0xbb034f6b	-0.002003635
4	0xbdb1d105	-0.086824454
5	0x3e31eab8	0.17374694
6	0xbd22e67b	-0.039770585
7	0xbdb79647	-0.0896421
8	0xbf1199f1	-0.5687552
9	0x3e86febf	0.2636623
10	0x3e0e0fa2	0.13873151
11	0x3e609e07	0.21935283
12	0x3e9e471c	0.30913627
13	0x3eb562b0	0.35426855
14	0xbba99795	-0.0051755407
15	0xbc91423d	-0.01773178
16	0x3cb9c707	0.022677911
17	0x3d3ceb43	0.0461228
18	0xbc2e92ca	-0.010655114
19	0xbd6479f7	-0.055780377
20	0xbe4b167c	-0.19832796
21	0x3adb6793	0.0016739242
22	0xbdb41087	-0.08792215
23	0xbe38610f	-0.18005775
24	0xbc8c02bd	-0.01709115
25	0x3c9358dc	0.017986707
26	0x3b95c481	0.004570544
27	0xbe0724ba	-0.13197604
28	0x3d885a17	0.06657808
29	0xbc17125e	-0.009220688
30	0xbe8d75e1	-0.27628997
31	0xbed9f819	-0.42572096
32	0x3e0f2b01	0.13981248
33	0x3e69366e	0.2277467
34	0x3f36f9c9	0.7147489
35	0xbd9806fb	-0.074232064
36	0xbde455af	-0.11149155
37	0x3dfe1f74	0.12408343
38	0xbe37d5a9	-0.17952599
39	0xbdb1f537	-0.08689349
40	0x3ed487cb	0.41509852
41	0x3f3e8280	0.7441788
42	0x3f051d4f	0.51997846
43	0xbe7485c5	-0.23879154
44	0xbe4773b3	-0.1947773
45	0xbf0be796	-0.5465025
46	0x3e61fc3d	0.22068878
47	0xbed63094	-0.41833937
48	0x3ee57ccc	0.44821775
49	0x3cc58b0f	0.02411416
50	0xbf11ece0	-0.5700207
51	0xbbcf2314	-0.0063213203
52	0xbf22baf6	-0.6356653
53	0xbbe46e23	-0.006971137
54	0xbd40e625	-0.047094483
55	0x3d0b0210	0.033937514
56	0xbd706d5e	-0.05869805
57	0x3db3c882	0.08778478
58	0xbe97ec2d	-0.29672375
59	0x3ecf541f	0.40493867
60	0xbc29a87e	-0.010355113
61	0xbf1aafcf	-0.6042451
62	0xbcf0c5d8	-0.029391214
63	0xbeb4561f	-0.35221955
64	0x3dacd725	0.08439473
65	0xbd284aa9	-0.041086826
66	0x3eb11096	0.34582967
67	0xbbabfce8	-0.0052486546
68	0x3d7f8805	0.062385578
69	0xbd11dcca	-0.03561095
70	0x3d16bea0	0.036802888
71	0xbe157534	-0.1459549
72	0x3d9ff5fb	0.07810589
73	0xbe3c1b1d	-0.18369718
74	0xbe6ee638	-0.23330009
75	0xbd17d8e9	-0.037072096
76	0xbc36c885	-0.011156206
77	0x3c41a60e	0.011819376
78	0x3f11543a	0.56769145
79	0x3ebc5871	0.36786225
80	0xbd8f028c	-0.06982908
81	0xbee0ab39	-0.43880633
82	0xbc45a531	-0.0120633105
83	0x3d44231f	0.047885057
84	0xbd966c04	-0.07344821
85	0xbd9c4230	-0.07629812
86	0xbec82338	-0.3908937
87	0x3e673081	0.22577097
88	0x3eab7ab4	0.33492053
89	0xbb36fa7a	-0.0027920292
90	0xbc7cb041	-0.015422882
91	0xbdbc5d27	-0.09197455
92	0xbf3769a4	-0.7164557
93	0x3d8eb5d0	0.06968272
94	0xbe2d9313	-0.16950636
95	0xbbcd938c	-0.0062736925
96	0xbd34854a	-0.044072427
97	0xbe9c5121	-0.30530646
98	0x3f14dcd0	0.58149433
99	0xbeb368b2	-0.35040814
100	0x3df5fbeb	0.1201094
101	0x3e6a4580	0.22878075
102	0xbdb0e322	-0.08637072
103	0x3e0976b7	0.13424192
104	0xbf007aea	-0.5018755
105	0x3cdabe04	0.026701935
106	0x3c7c8f77	0.015415064
107	0xbe1224d6	-0.14271864
108	0xbcd6fc20	-0.02624327
109	0x3e290b88	0.16508305
110	0x3e587217	0.21137272
111	0xbdc94be6	-0.098289296
112	0x3e121c36	0.14268574
113	0xbbaa53ef	-0.005197994
114	0xbd18f141	-0.037339453
115	0xbcf304f3	-0.029665446
116	0xbde29430	-0.11063421
117	0xbcb04300	-0.021516323
118	0xbd9f79f0	-0.077869296
119	0x3ba67593	0.005079934
120	0x3b39b39b	0.0028335813
121	0xbe80e2c9	-0.25173023
122	0xbd8ae336	-0.06781618
123	0x3e10a06c	0.14123696
124	0xbe82eb7a	-0.2557028
125	0xbeb36615	-0.3503882
126	0x3e8fcbf1	0.28085282
127	0xbecfefe2	-0.40612704
128	0xbe267936	-0.16257176
129	0xbd110bf8	-0.035411805
130	0xbedc0c2f	-0.42978045
131	0xbd3294d8	-0.04359898
132	0xbd05a64e	-0.032629304
133	0x3eb0c118	0.3452232
134	0xbd112c1c	-0.035442457
135	0x3f787381	0.97051245
136	0xbdd34209	-0.103153296
137	0x3ce12242	0.027482156
138	0xbdd0c5c0	-0.10193968
139	0x3d418d1d	0.047253717
140	0xbf2a02d6	-0.6641058
141	0x3e9c7501	0.30558017
142	0xbc7398d9	-0.014867985
143	0x3b5f7f7f	0.0034103093
144	0x3c03ba52	0.008040028
145	0xbe621857	-0.22079597
146	0x3cc4cacd	0.024022484
147	0xbdde8bd0	-0.10866511
148	0x3e5d5782	0.21615413
149	0x3aa064e5	0.00122371
150	0xbe37eb9d	-0.17960973
151	0xbe1d3684	-0.15352827
152	0xbd48553e	-0.04890942
153	0x3cf05f75	0.029342392
154	0xbbbe0be4	-0.0057997573
155	0xbdda6f74	-0.10665789
156	0x3e480654	0.19533664
157	0x3d0946f5	0.033514936
158	0xbef1dc95	-0.47238603
159	0x3e658a26	0.2241598
160	0x3f2085b8	0.6270404
161	0xbea07ea3	-0.31346616
162	0x3f84dcb9	1.0379859
163	0xbe1353a3	-0.14387374
164	0xbd3067a5	-0.043067593
165	0xbf16d1e6	-0.5891403
166	0x3d4e5f69	0.05038396
167	0x3c1bfe9c	0.009521153
168	0xbd2d1c43	-0.04226328
169	0xbc52d0cf	-0.012867167
170	0xbd822bc6	-0.06356005
171	0xbeb728de	-0.35773367
172	0x3dc4c293	0.096074246
173	0xbefb59b5	-0.4909188
174	0xbef367e4	-0.475402
175	0xbdcfbd59	-0.10143537
176	0xbe12a57a	-0.14320937
177	0xbabec8ed	-0.001455573
178	0x3e266cfd	0.16252513
179	0xbd321691	-0.043478552
180	0x3e714b02	0.2356377
181	0xbd07759d	-0.03307115
182	0xbd756252	-0.05990822
183	0xbd05149d	-0.03249036
184	0x3d4ce87a	0.050026394
185	0x3cdee7cc	0.027210139
186	0xbb6deded	-0.0036305145
187	0x3e06a5e5	0.13149221
188	0xbc436461	-0.011925788
189	0xbe88f32a	-0.2674802
190	0x3c84e354	0.01622168
191	0x3f3133b2	0.69219506
192	0xbd384eaf	-0.044996914
193	0xbc8edf67	-0.01744051
194	0xbe6f0876	-0.23343071
195	0xbd23156e	-0.03981536
196	0x3daa700a	0.08322151
197	0xbe8b51ee	-0.27210945
198	0x3d480447	0.048832204
199	0x3d35fa83	0.04442836
200	0xbe37881e	-0.17923018
201	0xbe46b04b	-0.19403188
202	0x3ed6eb1a	0.41976243
203	0x3db79433	0.08963814
204	0x3cf0658b	0.029345294
205	0xbc9f335d	-0.019433672
206	0xbefdabfe	-0.49545282
207	0xbe569095	-0.20953591
208	0x3df43eec	0.11926064
209	0x3d3840a4	0.04498352
210	0x3e0d2f8e	0.13787672
211	0x3e0e6bbf	0.1390829
212	0xbdf718bf	-0.12065267
213	0xbd2f69d6	-0.042825542
214	0x3deb0ce0	0.11477065
215	0x3da008c3	0.07814171
216	0x3eb4bfb4	0.35302508
217	0xbda6de99	-0.08147926
218	0x3e63b594	0.22237235
219	0xbe106ab6	-0.14103207
220	0xbed38c54	-0.41318
221	0xbd3c34de	-0.045948856
222	0x3e15b350	0.14619184
223	0x3cb827f1	0.022479983
224	0x3c7dc650	0.015489176
225	0xbe365da4	-0.17809159
226	0xbbbd2b08	-0.005772952
227	0x3e9a52d3	0.30141315
228	0xbeaedfc3	-0.34155092
229	0x3ea4c587	0.3218195
230	0x3d3f91ee	0.04677003
231	0x3e5e26ed	0.21694537
232	0x3caa7343	0.020806914
233	0xbed0f705	-0.4081346
234	0x3bddc8ff	0.0067683454
235	0x3ea5a5e0	0.32353115
236	0xbe341764	-0.17587048
237	0x3db8f697	0.09031408
238	0x3f59c4ae	0.85065734
239	0x3d8da168	0.069155514
240	0x3f058d92	0.52169144
241	0xbd4e4dda	-0.050367214
242	0x3f4c5f98	0.79833364
243	0xbdb977b0	-0.09056032
244	0x3d80c1e0	0.06286979
245	0xbc5373a6	-0.012905991
246	0x3df7afae	0.12094055
247	0xbed0193e	-0.40644258
248	0xbd63ce5b	-0.055616718
249	0xbdb358c8	-0.08757168
250	0xbd26d145	-0.04072692
251	0xbdc82530	-0.09772718
252	0xbdc89764	-0.097945005
253	0xbd060133	-0.032715987
254	0x3d7d2594	0.061803415
255	0x3dd7aa90	0.10530579

dir.bias f4 [2]
0	0x3e88f7e1	0.26751617
1	0x3ea71bd4	0.3263842

distance.weight f4 [1, 128]
0	0x3edb69f6	0.4285428
1	0x3d8943f5	0.06702415
2	0xbdf09848	-0.11747795
3	0x3d8e0dbd	0.06936214
4	0xbd2761dc	-0.04086481
5	0xbdc82e44	-0.097744495
6	0xbddd3b9a	-0.10802384
7	0xbe019321	-0.12653781
8	0x3c560ce4	0.013064597
9	0x3e097768	0.13424456
10	0x3c0650e1	0.008197994
11	0xbd06caee	-0.032908373
12	0x3dc434a4	0.09580353
13	0xbe53dfe9	-0.20690884
14	0x3d7883d8	0.06067261
15	0x3de9135b	0.11380645
16	0xbc0cb0c2	-0.008587064
17	0xbc64c91d	-0.013963965
18	0x3e2cd93c	0.16879743
19	0x3eebaf79	0.46032313
20	0xbefabe77	-0.48973438
21	0x3d1f2092	0.03884942
22	0xbd570c0d	-0.052501727
23	0xbdd5d2d1	-0.10440601
24	0xbc341329	-0.010990896
25	0xbd28eda5	-0.04124226
26	0xbc964f00	-0.018348217
27	0xbbe5f197	-0.007017325
28	0x3eec13ca	0.46108848
29	0xbc0e6178	-0.008690231
30	0xbdb6813f	-0.089113705
31	0x3cdc644c	0.026903294
32	0xbdaaf577	-0.083476
33	0xbd5c3151	-0.05375797
34	0x3daf6348	0.08563858
35	0x3e986143	0.29761705
36	0xbd2f5113	-0.042801928
37	0xbdb1c8b2	-0.08680858
38	0x3fd167a3	1.6359752
39	0x3eb91021	0.36145118
40	0xbe83de1e	-0.257554
41	0x3e3eb546	0.18623838
42	0x3ebc5127	0.36780664
43	0xbe0349b5	-0.12821086
44	0x3d23d447	0.039997365
45	0x3e9af6f0	0.30266523
46	0xbe270fb2	-0.16314581
47	0x3e51374c	0.2043125
48	0xbdc733b1	-0.09726656
49	0x3ceb9aae	0.02876028
50	0x3e6eb1c7	0.23310004
51	0x3c862cad	0.016378725
52	0xbe1f9948	-0.15585816
53	0xbd365c5e	-0.044521682
54	0x3b400fcd	0.0029306293
55	0x3c3b3cc9	0.0114280665
56	0xbd86434a	-0.06555803
57	0x3f0856e7	0.532576
58	0xbd11ea6c	-0.035623953
59	0x3dd64809	0.10462958
60	0x3cdb5ec7	0.026778592
61	0xbe470334	-0.19434816
62	0xbbc86285	-0.00611526
63	0xbb1ed1cc	-0.0024233935
64	0xbcdcb0b1	-0.026939722
65	0xbc87bd93	-0.016569888
66	0xbd6f1807	-0.058372524
67	0xbd8d5455	-0.06900851
68	0x3c03d0ed	0.008045417
69	0xbdc0b19f	-0.094088785
70	0x3b3676c9	0.0027841798
71	0xbc862075	-0.016372899
72	0xba42f46a	-0.0007436933
73	0xbe8ca8ac	-0.27472436
74	0x3d9820d0	0.074281335
75	0xbca29be4	-0.019849725
76	0x3d45fd84	0.048337474
77	0x3d3d0b52	0.046153374
78	0x3df87c29	0.12133057
79	0xbded40a1	-0.115845926
80	0xbc3691b1	-0.011143134
81	0x3dcc677a	0.09980674
82	0x3e221077	0.15826593
83	0x3ea2f3d9	0.31826666
84	0x3e51dff8	0.20495594
85	0xbcb58a38	-0.022160634
86	0x3daeda70	0.085377574
87	0x3f0b4f3f	0.54417795
88	0xbe479290	-0.19489503
89	0xbb826ad2	-0.003980019
90	0xbda3cffd	-0.07998655
91	0x3e9a2df8	0.30113196
92	0x3e3fd648	0.18734086
93	0xbce1e8ee	-0.02757689
94	0x3e56b1ab	0.20966212
95	0xbd465658	-0.048422188
96	0xbcacba58	-0.02108495
97	0x3bf6ad35	0.007527972
98	0xbd510416	-0.051029287
99	0xbdc55069	-0.09634478
100	0xbdfae5a7	-0.12250834
101	0xbec68a13	-0.38777217
102	0xbd0afb5e	-0.03393113
103	0xbd87ba9d	-0.066273905
104	0xbe93dadf	-0.28877923
105	0xbd88b38c	-0.06674871
106	0xbd86db15	-0.06584755
107	0x3ea7d3d1	0.3277879
108	0xbc9ea174	-0.019364096
109	0xbc960956	-0.018314999
110	0xbe8b3d73	-0.2719532
111	0x3cfa205d	0.03053301
112	0xbe123385	-0.14277466
113	0xbd710cea	-0.058850206
114	0x3dcb5d4f	0.099299066
115	0x3e1cdd90	0.15318894
116	0xbd5a29c4	-0.053262487
117	0x3e0aad43	0.13542657
118	0x3d0bcdac	0.03413169
119	0x3e34401d	0.17602582
120	0xbd6cfcd4	-0.057858303
121	0x3d9d52cf	0.0768181
122	0x3d951fad	0.07281432
123	0x3efbd443	0.4918538
124	0x3e5852e6	0.21125373
125	0x3f7916d2	0.97300446
126	0xbdb56c72	-0.08858575
127	0x3c3d3343	0.011547866

fc1.weight f4 [128, 13]
0	0xbddd26a1	-0.107983835
1	0x3ead8c42	0.3389607
2	0x3f39c686	0.7256855
3	0x3eaa9f72	0.33324772
4	0xbe83b3b4	-0.2572304
5	0xbe2fc784	-0.17165953
6	0x3eddc23a	0.43312246
7	0x3f4c6cb0	0.79853344
8	0xbf44eb89	-0.769219
9	0xbe090261	-0.13379814
10	0xbf3469ea	-0.7047411
11	0x3e4b0ac3	0.19828324
12	0x3e19fb46	0.1503726
13	0xbf063273	-0.5242073
14	0xbe45070d	-0.19240971
15	0x3faffd70	1.3749218
16	0x3ee87286	0.45399874
17	0x3e07218a	0.13196388
18	0x3dc2c663	0.095104955
19	0x3e2a1d76	0.16612801
20	0xbf313550	-0.69221973
21	0xbed33ef3	-0.41258964
22	0xbf4da9fa	-0.8033749
23	0xbe976332	-0.29567868
24	0xbe2a5f28	-0.16637862
25	0x3e77b3e8	0.24189723
26	0xbee64429	-0.44973877
27	0xbe5f91f6	-0.21833023
28	0xbef6f207	-0.48231527
29	0xbeb725e8	-0.35771108
30	0xbe3f84cc	-0.18703002
31	0x3e945f91	0.2897916
32	0xbe84649f	-0.25858018
33	0xbdc2e610	-0.09516537
34	0xbe92f197	-0.28699943
35	0xbe42e2bf	-0.1903181
36	0xbeb65b7b	-0.3561667
37	0xbdb17b66	-0.086661145
38	0xbcb93bef	-0.022611586
39	0x3ebc012e	0.3671965
40	0xbe25b10f	-0.16180824
41	0x3f387afa	0.7206265
42	0xbf856d38	-1.0423956
43	0x3c1e44c1	0.009659947
44	0xbc53d809	-0.012929925
45	0xbf5a89b7	-0.85366386
46	0xbf20d45b	-0.6282403
47	0x3e22d2d9	0.15900744
48	0xbf7237ee	-0.9461659
49	0x3e82f190	0.25574923
50	0x3e599f45	0.21252163
51	0xbe08772d	-0.13326712
52	0x3e276478	0.1634692
53	0xbf38e32b	-0.7222163
54	0xbe89743a	-0.26846486
55	0xbe0f5cd0	-0.14000249
56	0x3bf370ca	0.007429217
57	0x3d0fc6d3	0.035101723
58	0xbe6c4268	-0.23072207
59	0xbf417e6c	-0.7558353
60	0x3f33c1d7	0.7021765
61	0xbf2fc1fa	-0.6865536
62	0x3ec91b98	0.39278865
63	0xbbd62df0	-0.006536238
64	0x3e2050f3	0.1565588
65	0xbe630e2c	-0.22173375
66	0x3eecd57f	0.46256635
67	0xbe4aba72	-0.19797686
68	0x3f083975	0.5321267
69	0x3e434aa8	0.19071448
70	0xbd8ffacd	-0.07030258
71	0x3efc55c7	0.49284193
72	0x3e90b1e5	0.28260723
73	0xbe094939	-0.13406838
74	0x3e9ebb7e	0.3100242
75	0x3efc6aa2	0.49300104
76	0xbe80d44d	-0.25161973
77	0x3df8e05e	0.1215217
78	0x3f0803c7	0.53130764
79	0x3ec1a35f	0.37819955
80	0xbee4ee6f	-0.4471316
81	0xbdabe4e5	-0.083932675
82	0x3c1d7680	0.009610772
83	0x3e48b1d5	0.19599088
84	0x3d993141	0.074800976
85	0xbadd01a1	-0.0016861447
86	0x3dbdc024	0.092651635
87	0xbebd97e0	-0.37029934
88	0x3f11994d	0.56874543
89	0x3db3afde	0.087737784
90	0xbdd7ef80	-0.10543728
91	0x3f00b425	0.5027488
92	0xbc91e891	-0.017811092
93	0x3f5e1fca	0.86767256
94	0xbe963dbd	-0.29343978
95	0xbba5c280	-0.0050585866
96	0x3a6a8f09	0.00089477055
97	0xbf3cec75	-0.73798305
98	0xbe4a9b43	-0.1978579
99	0x3d508718	0.050910085
100	0xbea325c5	-0.31864753
101	0x3eaf91f0	0.3429103
102	0xbe871866	-0.26385802
103	0x3e25fa81	0.16208841
104	0x3ee1c6cf	0.4409699
105	0xbf065db1	-0.5248671
106	0x3f354581	0.7080918
107	0xbf75411e	-0.95802486
108	0x3d234482	0.039860256
109	0xbcd4f2c9	-0.025994675
110	0xbf60db1f	-0.8783435
111	0xbe0eed3d	-0.13957687
112	0x3ef63374	0.4808613
113	0xbf0c75e0	-0.5486736
114	0x3ee756d5	0.45183435
115	0x3e5101b9	0.20410813
116	0xbdbd7486	-0.09250741
117	0x3dc1b34d	0.09458027
118	0x3f2ddbe1	0.67913634
119	0xbf8e29ad	-1.1106468
120	0x3dd2e54c	0.10297641
121	0x3dae5dd1	0.08513988
122	0x3c5e513a	0.013569171
123	0x3e1a82ac	0.1508891
124	0x3ee62264	0.44948113
125	0xbe7b70ce	-0.2455475
126	0x3f0e2e01	0.55538946
127	0xbf027b48	-0.5096936
128	0xbb856856	-0.0040712757
129	0x3e873f35	0.2641541
130	0xbe6a37a4	-0.22872788
131	0xbe9a014e	-0.3007912
132	0x3fd52e5d	1.6654774
133	0x3e896860	0.26837444
134	0x3d6d3fa8	0.057922035
135	0x3d427cc6	0.047482274
136	0x3ed3cc2c	0.41366708
137	0xbda22adf	-0.07918333
138	0xbdafbf27	-0.08581381
139	0xbe815f15	-0.25267854
140	0xbeccaaa3	-0.39973935
141	0x3e2c66ae	0.16836044
142	0xbe2f0a0f	-0.17093681
143	0xbe95cc1f	-0.29257295
144	0xbef627bb	-0.48077187
145	0xbfc941db	-1.5723222
146	0xbfa76665	-1.3078123
147	0x3cdf5f26	0.02726705
148	0x3d7c2a27	0.061563637
149	0xbf9dfb22	-1.2342265
150	0x3d6fc160	0.058534026
151	0x3eda1f9c	0.4260224
152	0xbbb67dad	-0.005569181
153	0x3f54b364	0.8308623
154	0xbe876e95	-0.26451555
155	0xbe5927f8	-0.21206653
156	0x3ecbf4cc	0.39835203
157	0x3dbe7635	0.0929989
158	0xbcdef701	-0.02721739
159	0xbecd187b	-0.4005774
160	0xbe322e2a	-0.17400423
161	0xbd5c8c68	-0.05384484
162	0xbecae7d1	-0.39629987
163	0x3e44bfd9	0.19213809
164	0x3eeecbfa	0.46639997
165	0xbe3113d5	-0.17292722
166	0x3f4be29c	0.79642653
167	0xbe233941	-0.1593981
168	0xbcf3e7d4	-0.02977363
169	0x3ea94f95	0.3306853
170	0x3d161f81	0.03665114
171	0xbfb30e39	-1.3988715
172	0x3f1a5011	0.6027842
173	0xba8aa86e	-0.001057876
174	0x3d7d8d2e	0.061902218
175	0x3f58b34f	0.84648603
176	0x3c69be03	0.014266494
177	0x3db7b7c4	0.089705974
178	0xbe1a2e7c	-0.15056795
179	0x3f50f1e2	0.81619084
180	0xbe806365	-0.25075832
181	0x3d2bc57a	0.041936375
182	0xbea71ba3	-0.32638273
183	0x3df4e62f	0.119579665
184	0xbf07d8d9	-0.5306526
185	0xbe13e9cf	-0.1444466
186	0x3ddb9e49	0.1072355
187	0x3d8ff45c	0.0702903
188	0xbe86258f	-0.2620053
189	0x3ebb3289	0.36561993
190	0x3ec007b8	0.3750589
191	0x3eb4f0b0	0.3533988
192	0x3eeb6629	0.4597638
193	0xbe841afb	-0.25801834
194	0xbe4d49eb	-0.20047729
195	0xbe81a4f2	-0.25321156
196	0xbe9576f7	-0.29192325
197	0x3e528916	0.20560107
198	0x3f3949be	0.72378147
199	0xbe0ad9fe	-0.1355972
200	0x3d871fc5	0.065978564
201	0x3f103b8c	0.5634086
202	0xbf07fccf	-0.5312013
203	0x3f3eed1d	0.74580556
204	0xbe01aa8b	-0.12662713
205	0x3f393e25	0.7236045
206	0x3e08ee45	0.13372143
207	0x3d1e0ffe	0.03858947
208	0x3dc0fc5a	0.09423132
209	0x3eb3ae71	0.35094026
210	0xbe9e84a7	-0.3096058
211	0xbfaa6fcf	-1.3315371
212	0x3dc286c6	0.09498362
213	0x3c8bf4b4	0.017084457
214	0xbf7cf9ce	-0.9881867
215	0xbd40aabe	-0.047037832
216	0xbf3bedfe	-0.7341002
217	0x3e9781a6	0.295911
218	0xbf5b46fc	-0.8565519
219	0x3e2403ed	0.16017123
220	0xbe877565	-0.26456752
221	0xbee87011	-0.45398
222	0x3edbedf8	0.42954993
223	0xbf8296d1	-1.0202276
224	0xbf6b03cb	-0.9180266
225	0x3bab110a	0.005220537
226	0xbdb9c789	-0.090712614
227	0xbf78faf0	-0.972579
228	0xbe527d25	-0.20555551
229	0xbeef0c0e	-0.46688884
230	0x3dd71130	0.10501325
231	0xbdd13f9b	-0.1021721
232	0xbb69b187	-0.0035658793
233	0xbc961648	-0.018321171
234	0xbe80ea2f	-0.25178668
235	0x3f182d39	0.59444004
236	0xbe8e8a15	-0.27839723
237	0xbf064bad	-0.5245922
238	0xb994ad81	-0.0002835803
239	0xbdc2412e	-0.09485088
240	0xbec734b1	-0.38907388
241	0x3e940c9c	0.2891587
242	0xbf55dfa5	-0.8354438
243	0xbe99649d	-0.29959574
244	0xbf966464	-1.1749387
245	0xbd6aa3e5	-0.05728521
246	0xbdf24381	-0.118292816
247	0xbd2cc58f	-0.042180594
248	0x3e1a900d	0.15094014
249	0xbec17432	-0.37783962
250	0x3fa5ea2e	1.2962091
251	0xbc8be381	-0.017076256
252	0x3ea13467	0.31485292
253	0x3f9a65f5	1.2062365
254	0x3ed81af6	0.4220807
255	0xbec4f3cf	-0.3846726

fc1.bias f4 [128]
0	0x3e9aae03	0.30210885
1	0x3ef4b681	0.4779549
2	0xbf0905cc	-0.5352447
3	0xbf3cb360	-0.73711205
4	0xbd047c04	-0.032344833
5	0x3efd574e	0.4948067
6	0xbdb0b5b0	-0.08628404
7	0xbf096d88	-0.53682756
8	0xbf9c2780	-1.2199554
9	0x3d9fc3e4	0.07801035
10	0x3f292695	0.66074497
11	0xbf75ad31	-0.95967394
12	0xbedf3cba	-0.43601018
13	0x3f8173fa	1.0113518
14	0xbdb88f24	-0.09011677
15	0x3f476d44	0.779011
16	0xbf9bf0ec	-1.2182899
17	0xbf725e9d	-0.9467562
18	0xbe99cfa8	-0.30041242
19	0x3f9590a2	1.1684763
20	0xbf371062	-0.71509373
21	0xbf3f5bce	-0.7474946
22	0xbfa3ede6	-1.2806976
23	0xbec7380c	-0.38909948
24	0x3e36a090	0.17834687
25	0x3f4b729f	0.7947177
26	0xbf793d75	-0.973594
27	0x3eb51187	0.35364935
28	0x3edcfdad	0.4316229
29	0x3f7b573c	0.98179984
30	0xbf45deb8	-0.77292967
31	0xbe1c3597	-0.15254818
32	0x3f3b48a1	0.731577
33	0xbf9bc602	-1.2169802
34	0xbeb0fb80	-0.3456688
35	0x3f13abd6	0.57684076
36	0x3f8d96e2	1.1061671
37	0x3f1943c7	0.59869045
38	0xbf41d102	-0.75709546
39	0x400ad16d	2.1690323
40	0xbf9daf8f	-1.2319201
41	0xbf50fe66	-0.8163818
42	0x3e2e9897	0.17050396
43	0xbee70c74	-0.45126688
44	0xbf514767	-0.81749576
45	0xbf88bb7a	-1.0682213
46	0x3f85f841	1.0466386
47	0x3eb2ce2b	0.3492292
48	0xbf203c0e	-0.62591636
49	0xbf2788b7	-0.65442985
50	0xbeae878a	-0.34087783
51	0x3e8d7b84	0.27633297
52	0xbec75ccf	-0.38937995
53	0xbf659f81	-0.8969651
54	0x3f25b2b2	0.6472579
55	0xbf9137b9	-1.134513
56	0xbf163893	-0.58680075
57	0x3d19b029	0.037521515
58	0xbf7dddb4	-0.9916642
59	0xbf1115d1	-0.56673914
60	0xbefd2d5c	-0.4944867
61	0xbea85ca2	-0.32883173
62	0xbf859590	-1.0436268
63	0x3ff5f478	1.9215231
64	0x3f370024	0.7148459
65	0xbc21f319	-0.009884619
66	0xbd2b04c5	-0.041752595
67	0xbf310c0a	-0.69158995
68	0xbefefd05	-0.49802414
69	0x3f1c98d7	0.61170715
70	0xbeccd7f0	-0.40008497
71	0x3f063093	0.5241787
72	0x3fbd3d5a	1.4784348
73	0xbe145310	-0.14484811
74	0xbfb70069	-1.4297
75	0xbec250c3	-0.3795224
76	0x3e4f8583	0.20265774
77	0xbdd461c0	-0.10370207
78	0x3f2cd39d	0.67510396
79	0x3ebb1b24	0.36544144
80	0xbf93a845	-1.1535727
81	0x3eda7b40	0.42672157
82	0x3ee0eabb	0.43929085
83	0xbf82193f	-1.0163954
84	0xbf659d40	-0.8969307
85	0x3f73aad6	0.9518255
86	0xbf02edce	-0.5114411
87	0xbfc5509c	-1.5415225
88	0x3e0c2cac	0.13688916
89	0xbf307272	-0.6892463
90	0xbf87943e	-1.0592115
91	0x3f1607c2	0.5860559
92	0xbf35b4a4	-0.7097876
93	0xbe968127	-0.2939541
94	0xbd8a3aec	-0.0674952
95	0xbea82a89	-0.32844952
96	0x3d96de14	0.07366577
97	0xbedb2a51	-0.42805722
98	0x3f6c16d8	0.92222357
99	0xbf658435	-0.89654857
100	0x3fb4859a	1.4103272
101	0x3fb84749	1.4396755
102	0x3f672a95	0.9029935
103	0x3f0d84af	0.55280584
104	0x3d90cb7c	0.070700616
105	0xbf96c230	-1.1778011
106	0xbf2b7b0e	-0.6698464
107	0x3e54033b	0.20704357
108	0xbf0c1b00	-0.547287
109	0xbe9994cd	-0.29996338
110	0x3fd84fba	1.6899331
111	0xbfa548db	-1.2912859
112	0xbdfa6e19	-0.12228031
113	0xbf5f2581	-0.871666
114	0x3f845b02	1.0340273
115	0xbf9f21dc	-1.2432208
116	0x3fd837db	1.6892046
117	0x3d526aec	0.0513715
118	0xbeb25538	-0.34830642
119	0xbf9a133e	-1.2037122
120	0xbf864fcf	-1.0493106
121	0xbf9f8c91	-1.2464772
122	0xbdb429f7	-0.08797067
123	0xbf74f56f	-0.95687
124	0xbf321693	-0.69565696
125	0x3e25794c	0.16159552
126	0xbf8b8217	-1.0899075
127	0xbf69890f	-0.9122476

fc2.weight f4 [128, 128]
0	0xbeb9d676	-0.36296433
1	0xbea02f44	-0.3128606
2	0xbdff011e	-0.12451385
3	0xbd3dfc2e	-0.046383075
4	0xbdcdfd0f	-0.10058033
5	0xbe19c834	-0.15017778
6	0xbd7eaa66	-0.062174223
7	0x3cde569b	0.027140906
8	0xbeb8ec16	-0.3611762
9	0x3c5eb587	0.013593084
10	0xbe2c09a5	-0.16800554
11	0xbdb68f65	-0.08914069
12	0xbeb40566	-0.3516037
13	0xbe0259c3	-0.12729554
14	0xbe85f9e3	-0.2616721
15	0xbe910794	-0.28326094
16	0x3d37537d	0.044757355
17	0x3cf67539	0.030085193
18	0x3ce6570c	0.028117679
19	0xbe946484	-0.28982937
20	0x3e0b937a	0.13630477
21	0xbe04fb97	-0.12986599
22	0xbdf6439e	-0.12024616
23	0xbc9aad1c	-0.018881373
24	0xbd16c580	-0.036809444
25	0xbdfa5e02	-0.12224962
26	0xbec1f307	-0.37880728
27	0xbe866617	-0.26249763
28	0xbdc8bedf	-0.09802031
29	0xbeb22b91	-0.34798864
30	0x3e0a489e	0.13504264
31	0xbee488f1	-0.44635728
32	0xbe65edf9	-0.2245406
33	0x3d9b8457	0.07593601
34	0xbce9eb11	-0.028554471
35	0xbb101a14	-0.00219882
36	0xbe2c1a71	-0.16806962
37	0xbc243559	-0.010022485
38	0xbe684b71	-0.22685029
39	0xbe799152	-0.24371842
40	0xbea6e9ed	-0.32600346
41	0x3cdb8c27	0.026800228
42	0xbd6ff8ad	-0.058586765
43	0xbed57c97	-0.41696617
44	0x3d90c9db	0.07069751
45	0xbde64a8d	-0.11244688
46	0xbe907c20	-0.282197
47	0xbeaa8175	-0.33301893
48	0xbe9012a8	-0.28139234
49	0xbe4fa47f	-0.20277594
50	0xbeb48dba	-0.3526438
51	0xbe948d88	-0.2901423
52	0x3d001a77	0.03127524
53	0xbe07e3ba	-0.13270465
54	0xbb68c169	-0.0035515672
55	0x3e477f56	0.19482169
56	0xbe93d5f0	-0.2887416
57	0x3db6c09d	0.08923457
58	0x3c04b546	0.00809986
59	0xbec216f7	-0.37908146
60	0xbebc48a2	-0.36774164
61	0xbe5653d3	-0.20930414
62	0xbe46c8eb	-0.19412582
63	0xbe5dfdf0	-0.216789
64	0x3dda126b	0.10648044
65	0x3db0197d	0.085986115
66	0xbeaf6c0d	-0.34262124
67	0xbe6e01f2	-0.2324293
68	0xbe2d8f19	-0.16949119
69	0xbda9b0dd	-0.08285687
70	0xbf1a0010	-0.60156345
71	0xbe7b6f0d	-0.24554081
72	0xbdb276f6	-0.08714096
73	0xbd929603	-0.07157519
74	0xbdcead9e	-0.100917086
75	0xbe680264	-0.22657162
76	0xbf24e96d	-0.6441868
77	0xbf00a1a0	-0.5024662
78	0xbe845e8e	-0.2585339
79	0xbeb2e135	-0.34937444
80	0x3d80a19f	0.06280827
81	0xbe280071	-0.16406418
82	0xbd8a3daf	-0.067500465
83	0xbd5a6e9c	-0.05332814
84	0xbe890d62	-0.26768023
85	0xbeebc229	-0.4604657
86	0xbe9759f0	-0.29560804
87	0x3d54547f	0.051838394
88	0x3ce52594	0.02797202
89	0x3e3cd479	0.18440427
90	0x3e0ae98e	0.13565657
91	0xbd4f6088	-0.05062917
92	0xbda85341	-0.082190044
93	0xbeafa000	-0.34301758
94	0xbe3d28da	-0.18472615
95	0x3c23dbe4	0.0100011565
96	0xbe50b528	-0.20381606
97	0xbe848986	-0.25886172
98	0xbe62c9ad	-0.22147246
99	0xbdccb8d6	-0.09996192
100	0xbe1a9b24	-0.15098244
101	0xbeb32466	-0.34988707
102	0xbd8aab73	-0.067709826
103	0xbda0df0d	-0.078550436
104	0xbd86b81f	-0.06578087
105	0xbe897fd7	-0.26855347
106	0xbe6244dc	-0.2209658
107	0xbd52ad10	-0.051434577
108	0xbdbbe0b9	-0.09173722
109	0xbc43f1f7	-0.011959544
110	0xbebe32dd	-0.3714818
111	0xbe4e4b93	-0.20146017
112	0xbe8626cf	-0.26201484
113	0xbdec3dfd	-0.11535261
114	0xbd34a7e6	-0.044105433
115	0xbe1ffaec	-0.15623063
116	0xbe6e2069	-0.23254551
117	0x3dc533d6	0.096290275
118	0xbd9876b4	-0.07444516
119	0xbb9ba6b8	-0.004750099
120	0xbd536f98	-0.051620096
121	0xbdcc5d0a	-0.09978683
122	0xbddcfe78	-0.107907236
123	0x3e43328e	0.19062254
124	0x3d601004	0.054702774
125	0xbd0749d3	-0.03302939
126	0xbd34a52a	-0.044102825
127	0xbdb41cd5	-0.08794562
128	0xbdbe502a	-0.09292634
129	0x3ca2aa6c	0.019856654
130	0x3ca00a8c	0.01953628
131	0x3b4d3a86	0.00313154
132	0xbdcecaeb	-0.10097297
133	0x3bda99f7	0.006671186
134	0x3cc0448e	0.02347019
135	0x3d97698f	0.073931806
136	0xbd716b62	-0.0589403
137	0x3ce68588	0.028139845
138	0xbc8f902f	-0.017524807
139	0xbdc5456b	-0.09632381
140	0x3d8d3c16	0.06896226
141	0xbd6625d5	-0.056188423
142	0xbb964df8	-0.0045869313
143	0xb94bf64f	-0.00019451346
144	0x3d3e21ad	0.046418834
145	0xbdd608d4	-0.104509026
146	0xbddeed00	-0.10885048
147	0xbd229b95	-0.039699156
148	0xbd4c8fd3	-0.04994185
149	0xbde75d8d	-0.1129714
150	0x3d06609e	0.032806985
151	0xbcb9ffde	-0.022705015
152	0x3811f257	3.479639e-05
153	0x3b1bce8f	0.0023774242
154	0xbca9cfb9	-0.020728933
155	0xbce8b8d1	-0.02840844
156	0xbdc5aa97	-0.09651678
157	0x3d3f570d	0.046713877
158	0xbdfcd9f2	-0.12346257
159	0xbdb9552a	-0.09049447
160	0x3c8bc70a	0.017062683
161	0xbdf85cba	-0.12127061
162	0xbc16ac80	-0.009196401
163	0x3d02062a	0.03174416
164	0x3d3259a9	0.043542538
165	0x3da23ab4	0.07921353
166	0x3c98c59b	0.018648913
167	0xbce7d899	-0.028301524
168	0xbd2664b9	-0.0406234
169	0x3c815ca2	0.015791241
170	0xbae7e901	-0.0017693342
171	0xbc2c48ed	-0.010515434
172	0xbd2d5229	-0.042314682
173	0xbdf8215a	-0.12115736
174	0xbd49e1e3	-0.049287688
175	0xbdce386f	-0.100693576
176	0x3c89ca72	0.016820166
177	0x3c87ef0e	0.016593482
178	0x3cf87555	0.030329386
179	0xbb0d0d9b	-0.0021523002
180	0xbd8521df	-0.06500601
181	0x3d05fdca	0.032712735
182	0xbd45505b	-0.048172336
183	0xbd8240c3	-0.063600086
184	0x3d666198	0.056245416
185	0xbc4cd943	-0.012502971
186	0xbd04b867	-0.032402422
187	0xbdb2442e	-0.087044105
188	0xbd4df477	-0.050281968
189	0x3c700591	0.014649765
190	0xbd6b0edc	-0.057387218
191	0x3c6e4f49	0.01454527
192	0x3d04dde6	0.03243818
193	0xbc986a34	-0.01860533
194	0x3d147937	0.036248412
195	0xbdb55b32	-0.08855285
196	0xbc2a053d	-0.0103772255
197	0xbd9b4510	-0.07581532
198	0xbd3c519e	-0.045976274
199	0xbcc9e2ab	-0.024644217
200	0xbd9d565c	-0.07682487
201	0xbdae7c99	-0.08519859
202	0x3c6e7978	0.014555328
203	0xbd2d8875	-0.042366464
204	0xbd6bbabd	-0.057551134
205	0xbdc7991f	-0.097460024
206	0xbda4e6b1	-0.080518134
207	0x3a86974e	0.0010268481
208	0xbd61ed5d	-0.055158008
209	0x3c7db25a	0.015484417
210	0xbdb3a6de	-0.08772062
211	0xbd4dfc47	-0.05028942
212	0xbd5f7fe0	-0.05456531
213	0xbdcadf67	-0.09905892
214	0xbd25ea75	-0.0405068
215	0x3d9355cf	0.07194101
216	0x3c523cf3	0.012831914
217	0xbda3884d	-0.07984982
218	0x3ccf9862	0.025341216
219	0x3d31e2e9	0.04342929
220	0xbd33aeae	-0.04386776
221	0x3d253ca0	0.04034102
222	0x3ca8d48c	0.020609163
223	0xbd2fb389	-0.042895827
224	0xbd21f270	-0.039537847
225	0x3c4a5c26	0.012351071
226	0xbcf28d9e	-0.029608544
227	0xbcef71e9	-0.029229121
228	0xbd00809e	-0.03137266
229	0xbdd2ea64	-0.10298613
230	0x3c4aa533	0.012368488
231	0xbd795dc2	-0.06088043
232	0xbde2191d	-0.11039946
233	0x3caa99ac	0.02082523
234	0x3c0fd1ce	0.008778049
235	0xbd197d34	-0.03747292
236	0xbd84746f	-0.064675204
237	0x3d3e9678	0.046530217
238	0xbdd0ba3c	-0.101917714
239	0xbd1a5fc4	-0.037688985
240	0xbd99ad40	-0.07503748
241	0xbcf2186e	-0.029552665
242	0xbda88e3d	-0.08230255
243	0x3c7082f5	0.01467966
244	0x3d3a8831	0.04554004
245	0xbd6d9fe5	-0.058013815
246	0xbdfae1a6	-0.1225007
247	0xbab62cf6	-0.0013898897
248	0xbd229f7d	-0.03970288
249	0xbe037e57	-0.12841164
250	0x3da002bc	0.078130215
251	0xbc140a48	-0.009035654
252	0x3c272f10	0.010204092
253	0x3d0d5dae	0.034513168
254	0xbb561cc0	-0.0032670945
255	0x3d09fbaa	0.03368727
